trained_models/HES1/HES1_Model_state_dict.pt (torch, 512000 bytes, 22 tensors)

iconv.weight f4 [64, 4, 20]
00000000: 822d 01be d36d 3cbd 9702 bf3d e31c 723d
00000010: 68cc 9cbd 40ab 953c 21e9 7d3d a2a9 01be
00000020: f57c 963d 9ec9 ad3c 1b0b b1bd 39c6 8c3d
00000030: 37e2 163d 6211 cebd a26b cdbd fdc9 9bbd
00000040: edf3 ffb9 66ed 3e3d 1561 463d 8f94 02be
00000050: a03f 98bd 176f 76bd 41a5 f6bc dbfe 99bd
00000060: c520 803d 35b5 59bb 1236 3d3d b50d a43d
00000070: 3df7 5b3b 8d5c acbd a951 edbd 5b61 babc
00000080: 5996 aa3d 0ca2 dbbd eb0e 3ebd 2f3c d7bd
00000090: 21bd b1bd 61d0 04bd 579b 203d bc78 b13b
000000a0: d2f3 b83d cc25 483d 9689 05bd 0f7d f63c
000000b0: 658b d0bd 1f13 8ebd 2f01 c7bd abe9 afbd
000000c0: 81b9 a13d 0c71 7abd 0be2 4fbd 5d35 f4bd
000000d0: c565 d93c 6552 82bd d2b1 c9bd d8be 08bd
000000e0: 9540 96bc fd79 96bb adb7 ebbc e44b e03c
000000f0: c0b4 01be bc4d 573d 06e3 313b e03b fdbc
00000100: cce4 dd3c 051d 8f3d 1ed0 a83b 73be 49bd
00000110: ef8a b0bc 2c48 2dbd 652c afbc 48a8 69bd
00000120: 9eb8 b9bc 6019 0b3d 0b45 bd3c daa4 4b3d
00000130: 1c45 9cbd c433 5d3d 9f63 913d f3d1 02be
00000140: c9d3 923c 32bd 7abd 44b5 7ebd a020 b13c
00000150: eac7 2ebd fe77 b0bd 9d45 ebbd f2a5 fbbd
00000160: 31ad cbbd 4c36 1dbd 258b 373d 2d50 bebd
00000170: d5f6 02bd 1b58 e0bd 37e7 d4bb 6af4 de3c
00000180: f162 04be 58fd 33bd 0f36 953d 7bb9 4cbd
00000190: ebb2 0dbd 2a82 1fbd 1820 f5bd a618 53bc
000001a0: 1f47 703d 7150 cebd 442d 893d f724 d63b
000001b0: 148e 6cbc 8838 8c3d 9c9a 853c 1ade 523d
000001c0: b3ec ccbd a7e5 7cbd 58d1 e3bb a231 36bc
000001d0: b686 613c 98f6 bf3c b028 693d 63a4 9d3b
000001e0: 4eca 7d3c 3772 7f3d 2472 2b3d 1d18 08be
000001f0: d27d bebd 8cec 51bd 9ca5 05be 77c2 18bd
00000200: 9a26 81bd a33c e43c 771a ac3c 7ce9 04be
00000210: 276a 0dbe 628f 4fbd 21fa 8dbd 26da 24bd
00000220: b4d9 973d 1ab8 a03d 3fc2 20bd fba5 e1bd
00000230: 0520 b7bd cad5 a2bd 9ecc 09be f9d2 afbd
00000240: 0ac3 533b 1c86 c2bd 2ba6 ffbd 348c 9fbd
00000250: 9fd2 f2bd a6d7 beb9 1369 8e3d 0684 8b3d
00000260: f94d eb3b 3b26 853d a244 b63c b98d ddbd
00000270: 1cc4 80bd ca77 0b3c f2a2 953d 6ddf 0bbe
00000280: 7788 a33b f81b 2abd f037 51bd 24e0 d4bd
00000290: 0f76 1abd cae4 cfbd 650b eabd 2d68 2cbb
000002a0: 36ef b1bd 8e2f e2bd 750d fabd edca 9bbd
000002b0: 8bd2 a9bc d17d 0ebd b0ef d73c 04ad a33d
000002c0: f7bb 693d 4734 ccbc 3d18 2f3d 5717 e3bd
000002d0: bfe0 23bd 7c4e 1a3c 9263 55ba a2e2 31bd
000002e0: a44b 053d 4406 ebbd 351c 7bbd a49d 99bd
000002f0: c589 153d 0b30 9fbd 55fc 05be 5323 f7bd
00000300: a4b5 2bbd cd61 98bd 6eed 153d b1a5 c7bd
00000310: f4ee 46bd 84f0 a6bd d7d9 eebb 6683 cdbc
00000320: 1aea c2bd 4564 403d 848b 303d eea8 d7bd
00000330: 161e 9e3d 5c42 983d 4477 c0bd 760d 923c
00000340: f7f4 e1bd 5b11 75bd a782 f73c 6fbb 84bd
00000350: 3b6d 3f3d 6ed6 483d 6fe5 703d b81d b03d
00000360: 2191 943d 2173 343d 2d94 d23c 68f2 0c3d
00000370: 4335 3d3c f273 c5bd 8971 aebd ae5c aabd
00000380: c8c4 e73c 7405 29bd 4f0e 863d 88c4 0bbd
00000390: 3fb7 a43d 56e4 aa3d 98d1 0fbe bb83 4a3d
000003a0: f9f0 b2bc abf5 6ebd af51 cdbd 1d8d 703d
000003b0: 7fa3 d3bd 16fa 823c 99da ec3c 9139 833d
000003c0: fe48 c13c 2696 fbbd 4932 37bd 3814 a6bd
000003d0: 7822 593c a9c6 47bd 4f29 993d 8614 133d
000003e0: 24e2 a33d e531 82bd 0364 5c3d 4c6b 543c
000003f0: 5f2b 6dbd 5f6a 8dbd f1b2 1cbc c2ea a43d
-0.12615016 -0.046003174 0.09326666 0.05910958 -0.07656175 0.018270135 0.061989907 -0.12662366
0.073480524 0.021214303 -0.08644696 0.068737455 0.03683683 -0.10061909 -0.10030295 -0.076068856
-0.0004881913 0.04661312 0.04843243 -0.12751983 -0.074340105 -0.060164537 -0.030108096 -0.07519313
0.0625625 -0.003321958 0.046194144 0.08010427 0.0033564114 -0.0841609 -0.11587841 -0.0227515
0.08329458 -0.10724267 -0.046400946 -0.10509526 -0.086786516 -0.032425288 0.039210644 0.005416004
0.0903088 0.04886417 -0.032601915 0.03008893 -0.101828374 -0.06937241 -0.09717023 -0.085894905
0.0789671 -0.061142966 -0.05075268 -0.11924241 0.026537785 -0.06363372 -0.0984837 -0.033385128
-0.018341342 -0.004592179 -0.028774107 0.027379937 -0.12666607 0.052564368 0.0027143373 -0.03091234
0.027086638 0.06987957 0.0051517626 -0.049253892 -0.021550624 -0.042305157 -0.021383474 -0.05704525
-0.02267104 0.033959746 0.023104211 0.04971776 -0.07630369 0.054004446 0.07099079 -0.12775402
0.017923253 -0.061215587 -0.062184587 0.021622002 -0.04267112 -0.08616637 -0.11487887 -0.12287511
-0.09945143 -0.03838186 0.044810433 -0.09292636 -0.03197368 -0.10954305 -0.0064972895 0.027216155
-0.12928368 -0.04394278 0.072857015 -0.049981575 -0.034594458 -0.038942493 -0.11969012 -0.012884295
0.058661576 -0.10073937 0.06698087 0.0065351683 -0.014438171 0.0684672 0.016309075 0.051481344
-0.10006084 -0.06174245 -0.006952446 -0.011120232 0.013765028 0.023433015 0.05692357 0.004810856
0.015490128 0.062364783 0.0418569 -0.13290448 -0.09301342 -0.05125098 -0.13051456 -0.03729483
-0.06306191 0.027860945 0.021008713 -0.12979692 -0.13810025 -0.05067385 -0.06932474 -0.040247105
0.074145705 0.078476146 -0.039247748 -0.110179864 -0.08941654 -0.07950933 -0.13456962 -0.08585162
0.0032312297 -0.094982356 -0.12482866 -0.077904135 -0.11856579 -0.00036400295 0.06953635 0.06812291
0.007180926 0.065014325 0.022249524 -0.10818047 -0.06287405 0.008512447 0.0730647 -0.13659449
0.004990633 -0.04153058 -0.051078737 -0.10394314 -0.037710246 -0.1015106 -0.114279546 -0.002630721
-0.08688204 -0.110442266 -0.12209598 -0.076070644 -0.020730278 -0.034787957 0.02635941 0.079919845
0.057064023 -0.024927272 0.042747725 -0.11088436 -0.040009256 0.009418126 -0.00081401423 -0.043429025
0.03254284 -0.114758044 -0.061306197 -0.07500771 0.03650834 -0.07772835 -0.13084538 -0.120672844
-0.041921273 -0.07440529 0.036603384 -0.097484 -0.048567727 -0.081513435 -0.007289152 -0.02508707
-0.095173076 0.046970624 0.043101802 -0.10530268 0.07720582 0.07434532 -0.09397748 0.017828684
-0.110330515 -0.059831005 0.030213667 -0.064810626 0.04673503 0.04903262 0.058812555 0.085994184
0.07254244 0.044055108 0.025705421 0.034410864 0.011548343 -0.096412554 -0.08517749 -0.083184585
0.028292075 -0.041264966 0.06545698 -0.034122974 0.08042764 0.08344333 -0.14044797 0.049442034
-0.02184342 -0.058339756 -0.100253455 0.058728326 -0.10333919 0.01598839 0.02891283 0.06407464
0.023594376 -0.12284498 -0.04472569 -0.08109325 0.013252847 -0.04877344 0.07478582 0.035908245
0.08002117 -0.06357173 0.053806316 0.012965035 -0.05790269 -0.06905054 -0.009564147 0.08052589

iconv.bias f4 [64]
00000000: 8bfb c8bc 4d00 b13d 4797 11bd 40e6 45bc
00000010: 29ed 213d 4f68 433c 66ff 963d c776 a03d
00000020: b4f6 e63c c03a 7f3c 44a2 603c 6ec7 673d
00000030: d801 bb3d d395 30bd 0a67 cebd 2862 b53d
00000040: 7911 a4bd 0524 75bd 6e86 b6bd b2c0 c5bd
00000050: 588d fbbd 03a5 943d 154c a93d 7745 05be
00000060: c3b1 053d 4676 debd b780 9b3d 5ec9 6fbd
00000070: b525 c9bc ffd9 803c c7f7 24bc 83e6 3abd
00000080: c012 61bc c374 b7bd f3d9 38bc fa82 bd3d
00000090: 94e7 3bbc 452f 63bd 9d3a 713d d6d0 193d
000000a0: 5ff7 85bc 8a8c 763d be74 f8bc fd69 e8bd
000000b0: 9d7c 54bd 29cc 763c 729e 2fbd f2b1 b13d
000000c0: 2f51 8b3d a9a9 073d e932 ac3b d20c efbd
000000d0: 2663 a1bc ba90 543d fd18 e0bd 857b 4e3d
000000e0: 91d8 813d 1846 57bd 6d26 573c 8841 583d
000000f0: 798e edbd f43a 8abd f0cd 343c 4472 9cbd
-0.024534008 0.086426355 -0.03554466 -0.012078822 0.039532814 0.011926725 0.07372932 0.07835155
0.02819381 0.015577972 0.013710562 0.056586675 0.09131211 -0.043111634 -0.10078247 0.088566124
-0.08011145 -0.059848804 -0.08912359 -0.09655894 -0.122828186 0.07258036 0.082664646 -0.1301478
0.03264023 -0.108624026 0.0759291 -0.058541648 -0.024554113 0.015728949 -0.01006884 -0.04562999
-0.0137373805 -0.089578174 -0.011282432 0.092534974 -0.011468787 -0.055465 0.05889379 0.037552677
-0.016353307 0.060192622 -0.030329105 -0.11348341 -0.051876653 0.015063324 -0.042875715 0.086765185
0.06802594 0.033120785 0.0052550924 -0.11672367 -0.019700598 0.051895835 -0.10942266 0.050410766
0.06340135 -0.05255708 0.01313172 0.05279687 -0.1159944 -0.06749526 0.011035427 -0.07638982

rconvs.0.weight f4 [64, 64, 3]
00000000: ee19 adbd 5ac0 28bc 13ff f0bc 38f0 b93b
00000010: 7cbe 173c 0894 733c 3d48 adbd 7486 b5bd
00000020: 19f6 f43a a3f1 e5b9 a970 2a3d 8c12 093c
00000030: 6aac 5cbd af09 85bd be6c ce3c 23da 3f3d
00000040: 2964 49bc fcab 0fbd 8514 74bd 43e1 153d
00000050: 7501 b7bd 460b 9dbc 8c37 70bb f07c 3dbc
00000060: 24b8 9cbd 3fbb 9f3b 9da7 e13c 310e 453d
00000070: 88b2 7dbd fdd0 423d dbe2 0c3c 9755 33bd
00000080: 8900 c0bc ea25 2bbd 872a 4cbd a04b 7f3c
00000090: ec22 513d 7a40 4c3c 5d74 6fbd 6f45 ec3b
000000a0: 9cb4 76bd fcc0 99bd 0ac8 01bd 5985 2c3d
000000b0: f7f5 a0bc 33aa 283c c272 0e3d 19eb 13bc
000000c0: 4e57 8fbd 1ad9 213c c5a4 4fbd 51ee b1bd
000000d0: 0422 97bd 129f 65bd 9384 c53c 566d 65bd
000000e0: 9b00 75bd 4dae 8a3c 40d3 053d 59f6 333d
000000f0: 806b 87bd 9d63 dcbb 38be 31bc 2419 b3bd
00000100: c8c0 f6bb 355a 77bd 5a83 093c 4f79 233b
00000110: 60a4 9fbd a873 f53c 3ff8 b53c 2699 9d3c
00000120: 0171 983b da18 913c 24b6 28bc b103 a0bc
00000130: aa53 b8bc 4406 90bd 903e 443d f812 8ebd
00000140: 4960 95bd e6a8 3c3c ace9 dbbc bfda 1cbc
00000150: ac7a d63c 56c2 a93b 6509 1cbd b466 a8bc
00000160: ac54 a2bd 5a6a 00bd 6085 53bd 328c 8abc
00000170: 99a2 b4bd 7fde 183d dc13 2c3d bc5b 6ebc
00000180: acee 31bb f035 3cbd 3bf9 b6bd a99d 27bd
00000190: 1bc8 463d 19ea 41bd 8256 9dbd 31fa 123b
000001a0: 9135 e5bb 053b 113d 9bc2 e63b fc0f eb3c
000001b0: 75e3 313c 8247 243c bcfc 3fbc 4547 34bd
000001c0: 9a3d 96bd 102c 133d ecb2 a7bd 99df a6bd
000001d0: 6328 a1bd ab24 78bd 12eb 63bd ca28 7ebd
000001e0: cf17 573c bdee 1bbd 5b54 e33b 966b 87bd
000001f0: eada d53b 6141 a4bd 0b2f 593d 5da6 b63c
00000200: a091 b9bd aa7d 6eba bec0 2c3d dfe0 43bc
00000210: 2500 83bd 89ed 6d3c c54c c0bc 7097 71bc
00000220: 54cd 433d a9d4 01bd 7c94 1cbd f93d 68bd
00000230: ce76 92bd 3179 8bbd d0a7 89bd 1923 2cbc
00000240: 4ccf 943c fe87 d5bc dfd6 943b fb8d 7abc
00000250: 8cb3 2b3d 82d1 98bd fb1f aa3c e13b 90bd
00000260: 7254 2d3c 4ee2 1bbc 47f7 87bd 8fcd 263d
00000270: c728 b5bc 3550 0dbc ad61 f73c ee26 343d
00000280: 9958 0bbd dae6 ed3c 7fac b3bd d8c5 53bb
00000290: a7db 75bd 33ad 03b9 cb7a d43b 3f07 93bc
000002a0: a283 51bc 155c e4bc 6b75 19bd aea1 71bd
000002b0: 83e8 153d 52b4 033d 3395 9ebc 7cf5 673c
000002c0: a1aa 24bc f7c6 1d3c 1672 8bbd 0b7c d8bc
000002d0: 36cd 75ba 55a3 86bd 3205 a3bd a1a2 c33c
000002e0: 1791 99bd ff49 dfbb 2a2a 73bc eb63 93bd
000002f0: 6018 0fbd 10cf 03bd 1fa0 3c3d 3c6d 5fbd
00000300: 1d45 1ebc c74a 58bd f695 a6bb db87 ccbc
00000310: 9579 3cbd ebb2 433c 949c 773c 3ddc df3b
00000320: 8b36 ddbc 9d24 34bc 89e1 86bd f12a cf3c
00000330: 8d32 07bd 800c ab3c 3d7c 5bbd 469f 76bd
00000340: d195 9ebd 7720 86bd 045d 38bd 54a0 fe3c
00000350: 4ae9 f6bc 1107 a2bd 37b8 9d3c a2de 86bc
00000360: 7934 833c 2ed5 2ebd c40c b8bb 07a2 69bd
00000370: c304 133c 6d4e b2bc d1c0 74bd 1a8a ec3c
00000380: 5633 04bd ebce 75bd ee2f ebbb 0b09 c8bd
00000390: 7319 20bd 64f3 9c3c fdd5 b2bd 523a 40ba
000003a0: 7718 a0bd 77a5 153d 4ad0 113d 4a97 e0bc
000003b0: 9ea5 86bc fcd9 f5bc 3dc3 4dbd d740 203d
000003c0: c2a8 cebd ded0 063d 49de 0ebd af74 ae3a
000003d0: 4cfa 3cbd c5aa 5cbc 6863 debb 7b4c f13b
000003e0: b4d1 d7bb 1426 1ebd 4c59 56bd 6e71 66bc
000003f0: 1b90 2abd b6a2 42bc 579a 13bd 4406 013d
-0.08452211 -0.010299766 -0.029418504 0.0056743883 0.009261724 0.014866836 -0.08461044 -0.088635355
0.0018689065 -0.00043858317 0.041611347 0.008366238 -0.053875364 -0.064959876 0.025198337 0.04683889
-0.012291946 -0.035076126 -0.05958988 0.03659178 -0.08935825 -0.019170415 -0.0036654202 -0.011565432
-0.076523095 0.0048746164 0.027545745 0.048109237 -0.06193784 0.047562588 0.008599008 -0.043782797
-0.023437755 -0.041784205 -0.049845245 0.015581995 0.051058695 0.012466544 -0.058460582 0.0072104256
-0.060230836 -0.07507512 -0.031684913 0.042119358 -0.019648535 0.010294485 0.03477741 -0.00902822
-0.06999074 0.009878421 -0.050694246 -0.08688033 -0.07379535 -0.056059904 0.024111068 -0.056012474
-0.05981503 0.016928816 0.032672167 0.043936107 -0.06612301 -0.006725742 -0.010848574 -0.087450296
-0.0075303055 -0.060388763 0.008393133 0.0024944132 -0.07795024 0.029962376 0.0222131 0.019238066
0.004652143 0.017712045 -0.010297332 -0.01953301 -0.022500832 -0.07032445 0.047911227 -0.06937212
-0.072937556 0.011514878 -0.026844822 -0.0095736375 0.026181541 0.0051806374 -0.038094897 -0.020556785
-0.07926306 -0.031351425 -0.05164087 -0.016912553 -0.088200755 0.037321564 0.042011127 -0.014548238
-0.0027150316 -0.045949876 -0.08934256 -0.04092184 0.04853068 -0.047342394 -0.07682516 0.0022426958
-0.006994911 0.035456676 0.0070422417 0.028694145 0.010857453 0.010026814 -0.011717971 -0.04401328
-0.07335968 0.035930693 -0.081884235 -0.081481166 -0.07869031 -0.060581844 -0.055644102 -0.06205062
0.013128235 -0.038069475 0.006937546 -0.06612317 0.0065263407 -0.080202825 0.05302338 0.022296125
-0.09060979 -0.0009097705 0.042176 -0.011955469 -0.06396512 0.014521965 -0.023474107 -0.014745578
0.047803238 -0.03169695 -0.038227543 -0.056699727 -0.071515664 -0.06810225 -0.06721461 -0.010506415
0.018165253 -0.026065823 0.004542216 -0.01529264 0.041919276 -0.074618354 0.020767203 -0.07042671
0.010579215 -0.009514404 -0.06638961 0.04072338 -0.02211417 -0.00862508 0.030197943 0.04398244
-0.03402004 0.029040743 -0.087731354 -0.003231397 -0.06002393 -0.00012557655 0.0064843646 -0.017947791
-0.012787731 -0.02787594 -0.037465494 -0.05899208 0.036598694 0.03215439 -0.019358253 0.014157649
-0.010050447 0.009629956 -0.068088695 -0.026426336 -0.0009376587 -0.06574122 -0.07959975 0.023881258
-0.07498377 -0.006814241 -0.014841596 -0.07196792 -0.034935355 -0.032179892 0.04605114 -0.054547533
-0.009660033 -0.05280569 -0.0050837947 -0.024967125 -0.046014387 0.011944513 0.015113015 0.0068316744
-0.027003547 -0.010995057 -0.06585986 0.02528903 -0.033007193 0.020879984 -0.05358528 -0.06021049
-0.07743419 -0.06549161 -0.04501058 0.03108231 -0.030140538 -0.07911504 0.01925288 -0.016463581
0.016016232 -0.042683773 -0.005616756 -0.057039287 0.008973303 -0.021765912 -0.059754197 0.028874446
-0.03227552 -0.060011785 -0.0071773445 -0.0976735 -0.03908677 0.019159026 -0.08732221 -0.0007332909
-0.07817166 0.036534753 0.03559903 -0.02741589 -0.016436394 -0.03001117 -0.05023502 0.039124336
-0.10090782 0.032914035 -0.034879956 0.0013309921 -0.04613714 -0.013468449 -0.0067867525 0.0073638535
-0.006586278 -0.038610533 -0.052331254 -0.01406513 -0.041641336 -0.011879614 -0.03603586 0.031500116

rconvs.0.bias f4 [64]
00000000: c79a 44bd 9f83 c5bc f3f9 89bd b79f 2c3c
00000010: ddbd 8cbd acad f7bc 643c 08bd aad1 93bd
00000020: 2dd1 9ebd 85b4 89bd 801f 1abc 46d2 24bd
00000030: e6cd fb3c 935d 89bd 04e3 1ebc cec1 a63c
00000040: 4126 25bc 6ebf 9dbd 74af f53c 88a9 a1bc
00000050: 0aab 78bd 25bf 0fbd 0317 dcbc 3465 bebd
00000060: ed30 1bbd 7e32 1fbd 5f10 cc3c 1944 bebd
00000070: cd66 9a3c cdd6 5bbd c562 113c a0e1 a4bd
00000080: df7e a8bd 7937 34bc 7812 79bd ff9e 84bd
00000090: 418d 96bc fb67 36bd bff2 a4bd 76ae 95bd
000000a0: 6e75 9bbd 86cd 9abc 2a80 ecbc de5d 8dbd
000000b0: 90e2 d3bc 32aa 55bd dd80 17bd 3192 99bd
000000c0: 7f68 093c afd2 fe3c 4dc3 97bd 9a2f 8cbc
000000d0: 875d aebb da94 e6bc a395 fbbc 6f4b 99bb
000000e0: 5bd6 64bc 9a53 08bd 5aa4 c6bd b2ab 4b3d
000000f0: a4e6 3fbd 98b0 a7bc 8c2e b5bd c926 a83c
-0.04799917 -0.024110613 -0.06737127 0.010536126 -0.06872151 -0.03023418 -0.033260718 -0.072177246
-0.07754741 -0.067238845 -0.009406924 -0.040239595 0.030737828 -0.06707301 -0.009697679 0.020356085
-0.010079921 -0.07702528 0.02999089 -0.01973416 -0.06070999 -0.0350944 -0.026866442 -0.09296647
-0.037888456 -0.038866512 0.02491015 -0.09290332 0.018847847 -0.053671647 0.008873646 -0.08050847
-0.08227324 -0.010999554 -0.06080863 -0.064756386 -0.018377902 -0.044532757 -0.08054113 -0.073086664
-0.07590757 -0.01889683 -0.028869707 -0.06902669 -0.02586487 -0.052164264 -0.036988128 -0.07498587
0.00838673 0.031106321 -0.074102975 -0.017112542 -0.005321208 -0.02814715 -0.030711 -0.004678182
-0.013967122 -0.033282854 -0.09699316 0.04972429 -0.046850815 -0.020469949 -0.08846769 0.020526307

rconvs.1.weight f4 [64, 64, 3]
00000000: f8a8 823c 6971 133d 4ea6 413d 306e 92bd
00000010: 23d5 7a3b 1655 69bd be54 433d a575 97bd
00000020: 5ec8 893d 3754 a8bd b529 7ebd 144a c2bd
00000030: b86f aebd 591d 6cbd 953d 8dbd 1184 48bd
00000040: 612f bbbd 4a02 c9bd 66aa 31bb 2b13 81bc
00000050: 7ffa 2f3d d4e9 debc 021d 80bd 7d73 5bbd
00000060: e280 54bd c54f 8ebd 1f71 3f3c e473 1abd
00000070: d307 a4bd 8c09 7cbd 511a 513c 0f53 793c
00000080: 85e6 5d3c 94ae 59bd 42fb 96bd 639e 80bd
00000090: ff5d 11bd fc8a 353d 3e7d b83c 8cb9 f9bc
000000a0: dd9c 8cbc 299c 093d 49cb 63bd 7ff2 bbbd
000000b0: d71f d33c 48ee 80bd 8604 bebd f145 983b
000000c0: 5366 b7bd b7ca a8bd 2386 623c 411c 993c
000000d0: 57a2 a53c 07c9 83bd 85ab d4bc b708 73bd
000000e0: 9fd9 28bd 9495 ee3c af0f 3a3c 11bb 47bd
000000f0: a5f5 d6bb 488c c6bc 3cf5 d23c f052 0cbc
00000100: 9328 0e3d f3b1 63bd 51de df3c d685 81bd
00000110: 8285 93bd 349a bfb9 c86a 9b3b da71 a9bd
00000120: d166 00bd 030f 91bc 55cf df3b 96b4 9cbd
00000130: 7bfd 68bd df02 b9bd 9f59 583c a517 1f3d
00000140: 2553 13bd 4725 73ba 8449 49bd b62e c1bd
00000150: aa33 6fbd 7b41 84bd 41b8 03bd a285 5c3c
00000160: 73b5 3bbd 4f01 d83c 7c6e d53c 83dc 95bd
00000170: 6de9 bfbd 69f2 a03c 8d49 aabd 2e0b cebc
00000180: 0de8 d8bb 2c03 a6bd f546 32bb a2e7 473c
00000190: 6d4d a6bd e7e2 c0bd 6f2d 423d 9938 3c3d
000001a0: db0c e23a 0fbc 39bc 644a cc3c eb4b aebd
000001b0: 3afc 703c fdd3 22bc ce74 3bbd 8464 373d
000001c0: b59c 5cbc 23e2 7fbb 58d6 193d 25fa bfbc
000001d0: 2bb8 003d df75 bebd 6311 82bd b7e3 dd3c
000001e0: 9670 ba3c 83df 18bc 716a b2bd 978c ac3c
000001f0: 1a39 363d 4ff1 fa3c 6b25 9bbd 454c 50bd
00000200: 44d4 84bd ba0c 40bc 3c2f 9ebd 4d73 8abd
00000210: fde9 78bc 42d3 45bd c776 96bd 158c f5bc
00000220: e0a3 1bbb b73f 4bbd 6a47 72bd 28d1 133d
00000230: 245b 8abd 2025 f63c f069 123d 4b1a bfbc
00000240: a62c 9bbb 4889 e53b ad71 60bd 849c 11bc
00000250: a0cd c3bd fc5b 9d3c 7232 863b 4446 853a
00000260: a60d 2d3d 5c73 0e3d 626a 91bd dc2a 003d
00000270: fe65 07bc d35b b23c 807f 75bc 7d9a 433d
00000280: 05f9 7a3d 2941 ac3c 3f32 093c 135c 183c
00000290: 04de a23c 0925 42bd 41db c7ba a2fd 92bd
000002a0: 320e 20bd fc6a a0bd ad99 6dbd cf9a be3c
000002b0: 2d84 a5bc 7589 fc3c 0d0b 19bd 4d9b 90bc
000002c0: c143 70bd 784a efbc eb96 bbbd 7fdd 7a3c
000002d0: 90fb 48bc e908 3dbd 8323 91bd 102a 303d
000002e0: e580 42bd 2c06 34bc acd7 4fbc 6c1b 9cbd
000002f0: 96a1 3fbc b25f 1cbd b674 2b3d ad83 053d
00000300: 0752 903a 5a08 053d bfb2 babc 409b a1bd
00000310: 2f21 80bd f90b d8bb e671 67bd 3c50 d83c
00000320: 5004 61bc e0e3 39ba ca85 8cbd b438 8cbd
00000330: 96ff d7bb f721 943c e68a 9b3c 89f6 0d3c
00000340: 3807 47bc 4306 61bc 27ff a73a 18d2 3fbd
00000350: cf7b f83b 66b2 623c 99e1 c53b 5d33 c0bd
00000360: 5c0b 9fbd a508 1f3d 3380 bfbd a1dd 23bd
00000370: 8e50 593d ad0b 24bd 12a6 9cbd 621e d73c
00000380: 00f9 cbbd fe88 98bd 190e 95bd a3f6 89bd
00000390: 2010 843d bf3c 1ebd a718 54bc c998 35bc
000003a0: d60f 023b 8d18 623a 7376 c13b 1de9 ec3c
000003b0: 01d6 50bd 5d97 8d3c 6e21 0fbd 0353 08bc
000003c0: e602 0abd c76d 61bd 4644 e1bc ff01 39bd
000003d0: 8219 74bc 0083 f6bb 17c9 6ebd 2ada c03c
000003e0: 0bca 173d bee8 19bd 31d4 bfbb 589d 84bc
000003f0: 91c5 99bd 126a 193d 8fad a13c d294 9cbc
0.015949711 0.03599683 0.04727774 -0.07149923 0.0038274012 -0.05696591 0.04768824 -0.07395486
0.0672767 -0.08219188 -0.062051494 -0.094867855 -0.085174024 -0.057645176 -0.068965115 -0.048954073
-0.09139896 -0.0981489 -0.0027109622 -0.01575621 0.0429635 -0.027211107 -0.06255533 -0.053576935
-0.051880725 -0.069488086 0.011684685 -0.03770818 -0.08009305 -0.061532542 0.012762622 0.015217557
0.01354373 -0.053145006 -0.073721424 -0.0628021 -0.035490032 0.044322 0.022520658 -0.030483983
-0.017164642 0.03359619 -0.05561379 -0.09177112 0.025772018 -0.062954485 -0.092782065 0.0046470095
-0.08955064 -0.0824179 0.013825926 0.01869023 0.020219011 -0.06434827 -0.025960693 -0.059334483
-0.041223165 0.029124059 0.011356278 -0.048762385 -0.006560045 -0.024236813 0.025751702 -0.008564696
0.034706663 -0.055589627 0.027327688 -0.06324355 -0.07203199 -0.0003654525 0.004742954 -0.082736686
-0.031348053 -0.017707353 0.006830136 -0.076516315 -0.056882363 -0.09033751 0.013204961 0.03884091
-0.035967965 -0.0009275269 -0.049142376 -0.094327375 -0.05839888 -0.06457802 -0.03215814 0.013459595
-0.04582734 0.026367811 0.02605366 -0.0731745 -0.09370694 0.01964684 -0.0831481 -0.025151815
-0.0066194595 -0.08106074 -0.0027202938 0.012201222 -0.081202365 -0.09418278 0.04740661 0.045952413
0.0017246263 -0.011336341 0.024937816 -0.08510574 0.014708573 -0.009938237 -0.04576569 0.044773594
-0.013465096 -0.00390447 0.03755793 -0.023434708 0.031425636 -0.09299826 -0.063509725 0.027086122
0.022758763 -0.009330633 -0.08711708 0.021063132 0.04448805 0.030632643 -0.07575496 -0.050853986
-0.06485799 -0.011721784 -0.07723853 -0.06760273 -0.015192506 -0.048297174 -0.07346874 -0.029974023
-0.00237488 -0.04962131 -0.059150137 0.03608814 -0.06755665 0.030047 0.03574556 -0.023327967
-0.004735547 0.0070048906 -0.05479591 -0.008887414 -0.09560704 0.0192089 0.004095369 0.0010168036
0.042249344 0.034777984 -0.07100369 0.031290874 -0.008264063 0.0217723 -0.014984012 0.047754753
0.06127264 0.021027165 0.008373796 0.009299296 0.019881256 -0.0473986 -0.0015247838 -0.07177283
-0.039076038 -0.07832906 -0.058007885 0.023267178 -0.020204628 0.030827263 -0.037364054 -0.017652178
-0.058658365 -0.029210314 -0.09159645 0.015311598 -0.012267008 -0.046151076 -0.070868514 0.043008864
-0.047486205 -0.0109878 -0.0126856975 -0.07622418 -0.01169624 -0.0381772 0.04185935 0.03259628
0.0011010774 0.032478668 -0.02279031 -0.0789094 -0.06256329 -0.006593224 -0.056505106 0.026405446
-0.013733938 -0.0007091146 -0.06861456 -0.06846753 -0.0065917475 0.018082602 0.01898713 0.008664736
-0.012147717 -0.013734403 0.001281713 -0.04683122 0.0075831185 0.013836479 0.006038856 -0.09384797
-0.077658385 0.038826603 -0.09350624 -0.040006284 0.05305534 -0.040050197 -0.07648863 0.026259605
-0.09959602 -0.07448004 -0.072780795 -0.06736495 0.06448388 -0.03863215 -0.012945331 -0.01108379
0.0019845865 0.0008624874 0.005904013 0.02891975 -0.05098534 0.01728409 -0.03494399 -0.008320573
-0.03369417 -0.055036332 -0.027498376 -0.04516792 -0.01489866 -0.0075229406 -0.058297243 0.023541529
0.037057918 -0.037575476 -0.0058541526 -0.016188309 -0.07508386 0.037454672 0.01973608 -0.019113932

rconvs.1.bias f4 [64]
00000000: 4359 c2bd daf3 83bd 62e4 0a3d 6e63 f7bb
00000010: 5e68 803c fe25 75bd c462 92bd 1377 c3bb
00000020: bb25 14bc e7b6 f7bc 4068 6abd 595c 7bbd
00000030: f887 1d3d ce20 083d de1e 04bc 97c2 d23c
00000040: 175c e13c 2ffa 36bd dbfa 1d3d 46ba fc3c
00000050: 9e2f 08bc 4d87 2bbd 677a 45bd 5e4e 8bbd
00000060: 7a1b 5abd 4af2 03bd 7202 61bd 3104 aa3c
00000070: 8297 2dbc 9e23 60bd 85d2 a1bd 6ed2 54bd
00000080: 6db8 da3c f690 4fbc ee29 96bd 5abc 983c
00000090: b977 e9bc 3018 a9ba 36fb babd b7ef 453d
000000a0: af0a b2bc 5cda 683c e74e 193d 0b6a a4bd
000000b0: 99e3 9dbd 2360 a03c 52e0 eebc 45b1 b9bd
000000c0: 108a 97bd ebf5 b7bd b931 e33c 460f 30bd
000000d0: ead9 68bc 5b8c 353d a1a6 1bbd 9dc5 4ebd
000000e0: 9d97 74bd a5e8 9dbd 66a3 9ebc 2ee9 edbc
000000f0: 2f04 74bd 6aca b6bd eb9b 523d 83d0 aa3c
-0.094896816 -0.06442995 0.03390921 -0.0075496947 0.015674766 -0.059850685 -0.07147744 -0.0059651225
-0.009042199 -0.030238582 -0.057228327 -0.061367366 0.038459748 0.03323441 -0.008064 0.025727553
0.027509732 -0.044672187 0.038569313 0.03085054 -0.008312134 -0.04187708 -0.048212435 -0.06802057
-0.05324886 -0.032213487 -0.054933973 0.020753952 -0.010595204 -0.054721467 -0.079014815 -0.051958494
0.02669927 -0.012668839 -0.07332216 0.0186445 -0.028499471 -0.0012900885 -0.09129946 0.048324313
-0.02173361 0.014212217 0.037428763 -0.080280386 -0.077094264 0.019577092 -0.029159699 -0.090670146
-0.0739938 -0.08982452 0.02773367 -0.042983316 -0.014212111 0.044323307 -0.038000707 -0.050481427
-0.059714902 -0.07710389 -0.019365024 -0.029041853 -0.059574302 -0.08925326 0.051418226 0.02085138

rconvs.2.weight f4 [64, 64, 3]
00000000: c39e 83bd 1709 78bd 0a55 61bc 08cd bebd
00000010: 9769 813c 157b 7fbc 486d 0cbc ea56 b6bd
00000020: c564 9dbd 55a4 e1bb e117 363c 4703 81bd
00000030: 9780 66bd 4b99 95bc fb44 59bd 2302 d53c
00000040: fae4 0dbd 0963 1d3c dd95 f1bc 369f 02bc
00000050: b7bb 01bb 2d44 e8bc 9b65 55bd 2b33 01bd
00000060: 7546 f6ba 6fc1 25bd 62e6 393d 6237 b2bd
00000070: 4614 043d ff83 78bd 6417 14bd 1e24 41bc
00000080: ad3b 203d db9b 63bd b6b8 d93c b1c5 63bd
00000090: b7df a2bd 69ec 47bd 1249 70bc b352 39bb
000000a0: 0cb6 29bd cad8 aebb 2353 2ebc 48a7 c0bc
000000b0: 05c9 cabc ecae 303d e07a 75bd dc3c 973c
000000c0: 093b c23b 6a49 15bd daa7 d83c 5ca9 e33b
000000d0: d164 a33c e489 ee3c 6ab4 59bd 4a13 a73c
000000e0: d762 60bd 4c32 473b 7fe9 26bc 9d97 223c
000000f0: 7943 033c b33a fcbc 3d3a f7bb ff21 2dbc
00000100: bce5 57bd 4ca8 2bbd 71c8 90bd 856d 3bba
00000110: 6e6b b63c cf04 acbd b8d1 a13c f3cb aebd
00000120: eaad 4fbd fb67 d1bc 9e4b 35bd 4e8d 60bd
00000130: bb31 b7bc 333d 413b a3a9 62bd 9463 b6bd
00000140: dfd2 a6bd 3cdd e13c 3ecd 19bd 27e0 95bd
00000150: fb0b 023d 6787 0abd b080 3ebd 9c34 8e3b
00000160: 51e1 55bd b34f a7bd c899 1ebc 0849 c5bb
00000170: f124 aabd 8e31 55bd b968 f2bc 26c1 a7bd
00000180: a250 21bd d452 9cbc 2d3e 713b 622d 8fbb
00000190: 5758 f93c b47b bcba b98d 24bc c378 95bd
000001a0: 36ed 90bd 9949 67bd fc5a 8fbc aee9 343c
000001b0: d0eb a8bd fd8b 08bd 4be8 0a3c d9a0 623b
000001c0: 450d b83c 77a8 bf3b cb1f 66bd 512a 88bd
000001d0: 318f f4bc 7801 913c 008d b83c 1540 9abd
000001e0: ccf1 c1bd 1f56 853c 1b9e 91bd 7d8d ddbc
000001f0: ee14 fa3c df30 133d ac1b 5d3c 251a b2bc
00000200: 06b9 53bd df4f 843b c7d8 9ebd 3f7a 99bd
00000210: 164c 0f3d 7470 acbd e20c 4bbd 2d0b b2bd
00000220: b250 9bbd 7511 4bbd e924 0c3d ee93 f73c
00000230: 76bb a8bd 9849 0dbd 56a5 ccba 734f 253d
00000240: c3d4 b0bb 5c52 b3bd a746 81bc d86d 163d
00000250: 5b46 96bd 7652 233d 9be4 05bd fb5e eebc
00000260: fb91 ba3c 4813 e8bc 8238 febc 1dd5 1e3d
00000270: 5355 9cbc 1354 b2bd 7a91 213d c7a1 68bd
00000280: 160d b9bc 632f 85bd e1ca 2c3c 3734 12bd
00000290: e66a 95bd 2c41 8ebd a6af 9fbd 884a 7ebd
000002a0: 5a77 34bd 52b3 abbd 38cc 78bd 1bda c5bd
000002b0: a7de ae3c b926 b9bd d45d a2bc 7589 b5bc
000002c0: b4fc f03b 7907 bdbc 1fbc 8cbd e08d 1a3c
000002d0: a7a7 ee3c b5e0 033d a2c6 c3bc d4cd bbbd
000002e0: e04e 5abd f9b4 1f3d 84a8 bdbd e2ca c7bd
000002f0: 5ded 24bd e07a 4d3c 4e99 50bd 375d 01bb
00000300: c5b5 1abd bdb9 b43c 45b7 80bd 9c8d d73c
00000310: 7a5e baba 1f9a 6bbd 1635 163d bf5f c93c
00000320: 7e1b d9ba 5b32 5e3d da19 03bd 597b 53bb
00000330: 33f1 81bd b237 57bd 3109 27bd 703a 05bb
00000340: 17ad 99bd 0d88 e3bc edb0 b83c 52a3 33bc
00000350: 14cf a3bd be7b 413d be4b bd3c a0d9 50bd
00000360: cd24 16bc a512 8a3d 8184 07bd 10ea 753d
00000370: 1182 90bd 2e32 c53c 2fe9 03bd 54d7 0dbd
00000380: 931e e33c 9917 00bb 98ef fa3c 8657 bcbd
00000390: f99f 9dbb 2fad 8a3c 582a 69bd b3c7 25bd
000003a0: fa59 92bd d483 a9bd 6d77 b3bd 8fa6 e6bc
000003b0: 5131 07bc b920 de3c 6882 7dbd a7fa ccbd
000003c0: 861a 7cbd 93a5 88bd f3c9 bdbd 1154 0b3c
000003d0: cdf4 9c3c 0d17 2ebc 7e24 7cbd e01c 47bc
000003e0: e240 e63c f86c 313d a3f0 34bc 882b 243c
000003f0: aed7 30bd cdc6 153d 604a f2bc 2f36 67bd
-0.06426766 -0.060555544 -0.013753185 -0.0931645 0.01579742 -0.01559331 -0.008570977 -0.08903296
-0.07685236 -0.006886045 0.011114092 -0.06299453 -0.056274977 -0.018261572 -0.0530443 0.026001995
-0.034642197 0.009606131 -0.029490406 -0.007972529 -0.0019795725 -0.028352821 -0.05209885 -0.03154294
-0.0018789308 -0.040467676 0.045385726 -0.0870197 0.032245897 -0.060672756 -0.03615512 -0.011788396
0.03911941 -0.055568557 0.026577335 -0.055608455 -0.079528265 -0.048809443 -0.014665859 -0.0028278052
-0.04143338 -0.005335902 -0.0106399385 -0.023517266 -0.024754057 0.04313557 -0.059931636 0.018461637
0.0059274477 -0.036446966 0.026447225 0.0069476794 0.019945534 0.029118486 -0.053150572 0.02039494
-0.05478176 0.003039497 -0.010187506 0.009923843 0.008011692 -0.030789709 -0.0075447843 -0.010567187
-0.052709326 -0.041908547 -0.07069481 -0.00071498036 0.022268023 -0.08399355 0.019753322 -0.08534994
-0.050702967 -0.025562277 -0.044261567 -0.05482226 -0.02236258 0.002948594 -0.05533756 -0.08905712
-0.08145689 0.027571313 -0.03754925 -0.07318144 0.031749707 -0.033820536 -0.046509445 0.0043397676
-0.05221683 -0.08169498 -0.009680219 -0.006020669 -0.08307827 -0.052049212 -0.029590951 -0.08191137
-0.039383538 -0.019082464 0.0036810741 -0.0043694237 0.030437632 -0.0014380128 -0.010043555 -0.07298424
-0.070764944 -0.056466673 -0.01749944 0.011042042 -0.08248103 -0.03333663 0.0084782345 0.0034580736
0.022467265 0.00584894 -0.056182664 -0.06648696 -0.029853435 0.017700896 0.022528172 -0.07531754
-0.09469947 0.016276417 -0.07110234 -0.027045006 0.030527558 0.03593528 0.013495367 -0.021740982
-0.051690124 0.0040378417 -0.07756191 -0.0749402 0.03498467 -0.08419886 -0.049572833 -0.08693538
-0.07583751 -0.049577195 0.034214888 0.030221906 -0.0823888 -0.034494013 -0.0015613239 0.04035897
-0.005396457 -0.08755943 -0.01578076 0.03672585 -0.07337638 0.039873563 -0.03268872 -0.029098025
0.022774687 -0.028329507 -0.031032804 0.03877746 -0.019083655 -0.08707442 0.039445378 -0.056794908
-0.022589248 -0.06503179 0.010546417 -0.035694327 -0.0729578 -0.06946024 -0.07797174 -0.062082797
-0.044059135 -0.08383812 -0.060741633 -0.09660741 0.021346403 -0.09040589 -0.019820131 -0.022160271
0.0073543433 -0.023074852 -0.06871819 0.00943324 0.029132677 0.03219672 -0.023898426 -0.09170118
-0.053297877 0.03899095 -0.092606574 -0.09755494 -0.04026543 0.012541503 -0.050927453 -0.0019739398
-0.037771005 0.022061223 -0.06284956 0.026312642 -0.001421883 -0.05752003 0.03667172 0.024581788
-0.001656398 0.05424724 -0.032007076 -0.0032269566 -0.06344833 -0.05254335 -0.04078025 -0.002032902
-0.075037174 -0.027774835 0.022545302 -0.010964232 -0.079984814 0.04723715 0.023107406 -0.050988793
-0.009164047 0.067418374 -0.03308535 0.060037673 -0.07056058 0.02407178 -0.032204803 -0.03462918
0.02772454 -0.0019545315 0.030631825 -0.09196381 -0.00481033 0.016928283 -0.056925148 -0.04047365
-0.07146068 -0.08277097 -0.08763013 -0.028155593 -0.008251504 0.027115213 -0.061891943 -0.10008746
-0.061548732 -0.06672206 -0.092670344 0.00850393 0.019159699 -0.010625613 -0.06155824 -0.01215288
0.02810711 0.04331681 -0.0110437 0.010020144 -0.04317444 0.036566544 -0.02957648 -0.056448158

rconvs.2.bias f4 [64]
00000000: 007b 08bc 5c51 f13c cc56 133d 15eb ad3c
00000010: bec5 da3b a716 03bd c5b5 dc3c 11d1 0ebd
00000020: 2c18 4abe 12dd c7bc f383 8d3c 2a2c 973c
00000030: d15a 9fbc cc76 013d 33dc 9abc bca2 f43c
00000040: e872 22bd acc1 7d3c 4d6f a2bc 6c93 c1bd
00000050: f246 babd 2421 babd c0ea 6abc 354f b2bc
00000060: 6ac7 9b3c 96c1 083d 1ad7 103d ca42 7fbd
00000070: 1b8b b0bd 6c85 07bd b9b5 223d f0e3 2dbc
00000080: a239 2b3d fe59 f23c acb8 c9bc 0933 2ebd
00000090: 8e37 a8bd 6bd0 993b 8ed8 a9bd 0b89 233c
000000a0: d283 733c 83d2 703d 6127 8dbd faa0 2b3c
000000b0: fd6e 373d e81e ffbb 4bb6 c5bc 5510 30bd
000000c0: 321c f6bc 5b5c 9c3c c58a 563c 6b75 25bd
000000d0: 9cd2 bebb b72f 423c d60e b0bd 9c58 803b
000000e0: 2824 ce3c fb19 25bd 4870 2dbd f518 78bd
000000f0: e685 88bd d6e0 173c 389f b9bc 1809 9e3c
-0.008330107 0.02945774 0.035971448 0.02123026 0.0066764047 -0.032004025 0.026942143 -0.03486735
-0.19735783 -0.024397407 0.017274832 0.018453676 -0.019452484 0.031607434 -0.018903827 0.029862754
-0.039660364 0.0154880695 -0.019828463 -0.094519466 -0.09095563 -0.09088352 -0.014338195 -0.021766284
0.019015986 0.033387743 0.035361387 -0.062319554 -0.08620282 -0.033086225 0.039724085 -0.010613427
0.04180301 0.029583927 -0.024624191 -0.04252914 -0.08213721 0.004694035 -0.08293258 0.009981404
0.014862971 0.05879451 -0.068922766 0.0104753915 0.04478358 -0.0077856667 -0.024134776 -0.042984325
-0.030042741 0.019087007 0.013094609 -0.04039518 -0.0058234464 0.011852196 -0.0859658 0.003916813
0.025163725 -0.04030798 -0.042343408 -0.060570676 -0.06666164 0.009269914 -0.02265893 0.019291446

rconvs.3.weight f4 [64, 64, 3]
00000000: 97ce 1f3d f8ca a63d 9225 f7bc 44a5 6abc
00000010: 15b0 b7bd 3e80 94bd ff11 d9bc 5b6f c63c
00000020: 0a73 22bd 4dc0 0b3d d591 be3b 6b08 58bd
00000030: 33f3 983d 5c83 13bc 8a82 c73b cf1a 973d
00000040: 89ae c13b 7c83 4ebd 3fc9 52bd 9072 21bd
00000050: f870 a1bd 3796 8a3c 1f7f 40bd 7bd1 b4bd
00000060: b884 8f3c 8a62 24bc b3f6 a1bd 97ff 49bd
00000070: 8af6 4c3d e51b bcbd a3f3 623d c2b2 e2bc
00000080: 06f3 0fbd 4e1b aebc 5837 3d3d 796a d0bc
00000090: ed89 703d 0a82 4cbc ea66 72bd 3682 1f3c
000000a0: 5827 7dbd 41f7 253d 638e a93c c31d 72bc
000000b0: 64c5 a1bd ce77 993b c990 703d f693 acbd
000000c0: 4131 bb3c ab42 81bd ac29 e7bd cb9f 3c3d
000000d0: b02b a03d 0964 45bd 9104 88bc 9e5d 063d
000000e0: f666 aa3c a4ec e33c 9d57 80bd 723e 94bd
000000f0: 869b 3f3d f903 e13c 0b41 d2bb 5356 bf3c
00000100: 91f0 f73b 484a 253d 3063 bbbc 99ea d83c
00000110: 47a3 9b3c 879c 703d dd5e 0abd a7ae b5bd
00000120: 304d a63c cf30 0f3d 1f13 c6bd 00b8 ea3b
00000130: 7ae5 92bd 12a6 27bd a33b e1bc 728a 97bd
00000140: ad04 873c 811b e83b 0821 61bc 3774 82bd
00000150: 8bb0 55bd 0481 da3c fe1b c4bd 2a98 e53b
00000160: 0967 93bc f298 2dbc 14f1 84bd 83b8 ffbc
00000170: a25d 8fbd 6196 53bd 1f0b 25bc f83f 773c
00000180: 45d5 963d 606e 74bd 671c cdbc b95f 45bd
00000190: 9073 1cbc fda1 82bc 4f3f 2dbb 0c91 d0bc
000001a0: 9911 b5bd e2de 893a 434a 32b8 43ca a2bc
000001b0: 6be0 393d 8fd2 903d d438 d5bd d9e2 a83c
000001c0: 0b29 8fba e239 9bbd b0cf 683d c1a0 803d
000001d0: a0e1 f03c c72b 95bb c3e0 963d 0b7e 64bd
000001e0: da19 0f3c fc6a 11bd 261f 2b3b a4ec c5bd
000001f0: 94ac ccbd 1074 abbd 05e4 42bd f924 29bd
00000200: 04da a0bd 6db4 0d3d 259e 803d 2529 9bbd
00000210: 5a8e 22bd 5fee 943d 7a5f 1a3d 722b 933c
00000220: 8e43 58bd 2fcf 08bd ed6b a3bc 5522 18bd
00000230: 16fc 8cbb 1f75 5c3d 05d1 4bbd f173 80bd
00000240: 026a f73c 1c6c 2dbd 4ed9 c13c 997a 2f3c
00000250: d806 80bd 544f 98bd 0a33 6f3d 4a75 98ba
00000260: 3bb6 0239 bde1 493d 6c88 5fbd 2e39 16bc
00000270: b2d6 ad3d 8685 76bc 26da a4bd 4dfa 9f3d
00000280: cbae 463d d106 033d 6656 693c a681 d73c
00000290: 8e90 d63c 9f5c 0e3c 7719 923d ff7f bfbd
000002a0: 116b f33c c912 b6bb 951e 1bbb c551 6c3b
000002b0: 0243 51bd b919 44bd 1f75 27bd f376 92bd
000002c0: bc6a 863c 0f97 a6bc 93f7 2bbd 9f59 12bd
000002d0: c0b7 973c d994 cebc 1ad9 bbbd d7a0 4d3d
000002e0: 4a9e 2abb 9940 263d 1cb8 f13c d868 f9bc
000002f0: b975 bcbd 46e2 833c c0d3 e9bc f025 7fbd
00000300: 3b56 e2bb 60b6 09bd d081 30bd 7c80 c9bc
00000310: 7a04 acbd 6157 67bd 4f2e 783c 5974 78bd
00000320: c3de 8abd 1551 7fbc 1bb9 943d ea88 04bd
00000330: 15cb 10bd 93cc 9f3d a449 a53c 4d3a 943d
00000340: 4679 7c3d 15ce 8abd de74 753d f2fb 0a3d
00000350: fda5 acbd 0e93 393c 5db0 5c3d 9df4 f63c
00000360: 7dab febb 737e 5c3d a83c ce3c 166b 083d
00000370: c179 17bd 6410 45bb 9473 31bd e226 e63c
00000380: 64f7 583c 93b0 ed3c 78c4 42bb 049b 433b
00000390: 737d b03d e8ef 7e3d 652f 35bc 4d87 2ebd
000003a0: 30ac 1bbc 8370 4cbd 4622 1a3d 53e8 7cbd
000003b0: 81df 4b3c 3d5a 6fbd 304c edba 7d21 96bc
000003c0: 5d16 093d 8fbc 22bc 2b3b b4bd d595 823d
000003d0: 02fc 31bd 45e0 c7bc 01d2 56bd 3d26 423d
000003e0: 0704 9cbc 6732 85bd 749d 2d3d 942a 89bc
000003f0: 26a0 62bd e02e ca3c ac58 6abb 2a43 f2bc
0.03901538 0.08144182 -0.030169282 -0.014321629 -0.08969132 -0.07251023 -0.026497839 0.02422302
-0.03966049 0.03411894 0.0058157244 -0.052742403 0.074682616 -0.0090034865 0.0060885595 0.0737816
0.005910699 -0.050418362 -0.051461454 -0.039415896 -0.07882875 0.016917331 -0.046996232 -0.08829018
0.01751934 -0.010033259 -0.07908382 -0.049316015 0.050039805 -0.09185008 0.05540813 -0.027673129
-0.035143875 -0.021253254 0.046195358 -0.025441395 0.058725286 -0.012482176 -0.059180178 0.009735635
-0.0618051 0.040519003 0.020697778 -0.014777604 -0.078989774 0.0046834713 0.058731828 -0.08426659
0.022850635 -0.06311544 -0.11287245 0.046050828 0.07820833 -0.048191104 -0.01660374 0.032804124
0.020801049 0.0278228 -0.06266711 -0.07238473 0.046779178 0.027467715 -0.006416445 0.023356592
0.0075665195 0.040354043 -0.022874445 0.026479052 0.018998755 0.058743026 -0.033781875 -0.08871203
0.020300478 0.034958657 -0.09671616 0.007163048 -0.071726754 -0.04092986 -0.027494257 -0.07399453
0.016481722 0.007083357 -0.013740785 -0.063698225 -0.052170318 0.026672848 -0.095756516 0.0070066648
-0.017993467 -0.010595547 -0.064912945 -0.031215912 -0.07000281 -0.051657084 -0.010073452 0.015090935
0.07364897 -0.059675574 -0.025037957 -0.04818699 -0.009549037 -0.015946383 -0.002643544 -0.025459789
-0.08841247 0.0010518695 -4.250767e-05 -0.019871837 0.045380037 0.07071411 -0.1041123 0.020615982
-0.0010922266 -0.075794 0.05683869 0.062806614 0.029404461 -0.004552338 0.07367089 -0.055784266
0.008734191 -0.03550242 0.0026111095 -0.09664276 -0.09993854 -0.083717465 -0.047580738 -0.041295025
-0.07854083 0.034595896 0.06280164 -0.07576207 -0.03968654 0.07272028 0.03768871 0.017965052
-0.0527988 -0.03340071 -0.019948924 -0.037142117 -0.004302512 0.053822633 -0.049759883 -0.06272114
0.030201916 -0.04233943 0.02366319 0.010710382 -0.06251305 -0.07437006 0.058398284 -0.0011631635
0.00012465652 0.049287546 -0.05457346 -0.009168906 0.084882155 -0.015046483 -0.08049421 0.07811413
0.04850654 0.031988923 0.01424179 0.026306938 0.026191976 0.008689075 0.07133763 -0.09350585
0.02971414 -0.0055564386 -0.0023669351 0.003605948 -0.051089294 -0.047876094 -0.04088318 -0.07151594
0.016408317 -0.020335702 -0.041984152 -0.03573 0.018520236 -0.02521746 -0.09172268 0.050202217
-0.002603429 0.04058895 0.029506736 -0.030445501 -0.09202141 0.016099107 -0.028543353 -0.06229204
-0.006907252 -0.033621192 -0.04309255 -0.024597399 -0.08399291 -0.056479815 0.01514776 -0.060657833
-0.0678077 -0.015583296 0.072618686 -0.032357134 -0.035349924 0.07802691 0.020176716 0.072376825
0.061639093 -0.06777588 0.059925906 0.03393168 -0.08430097 0.0113265645 0.05387913 0.030145938
-0.007771908 0.05383153 0.025175408 0.03330525 -0.036981348 -0.0030069584 -0.043323115 0.028094713
0.013242576 0.029014861 -0.0029719155 0.0029847035 0.086176775 0.06224051 -0.011058663 -0.0426095
-0.009501502 -0.049911987 0.037630342 -0.061745 0.012443424 -0.058435667 -0.0018104371 -0.018326515
0.033468593 -0.009932651 -0.08800348 0.063762344 -0.043453224 -0.024398932 -0.05244637 0.047399748
-0.01904489 -0.06503754 0.042386487 -0.016743936 -0.05532851 0.024680555 -0.003575842 -0.029573042

rconvs.3.bias f4 [64]
00000000: 57c2 86bd 0c85 b9bb 52ac a8bb 548f 7e3c
00000010: 38c3 93bd 67b9 96bd b449 98bd 04d5 d1bc
00000020: 0d89 b6bd 2b10 7dbb a7fc 8cbd aed7 f3bc
00000030: f046 2f3d f6be 593c 7e23 b1bd e342 1abd
00000040: d1b3 2e3d bee1 9bbd 28df 99bc 81f6 85bd
00000050: 89f3 88bc 98f2 bbbc 171b a73c fdc2 353d
00000060: 710c 333c 232d d5b9 fc58 98bd afd8 58bc
00000070: d363 7ebd 0923 64bc 439e 2d3a 97bf 92bd
00000080: eb40 5b3c 93e8 6dbb 5730 483d 66af dbbd
00000090: f8a1 153c fe64 263d 47ea 92bd 9484 423d
000000a0: 477d 91bd 7bb3 e73c a9b3 343d 24c6 abbd
000000b0: 1931 06bd 877a 8bbc f9bf 9fbd ff54 54bd
000000c0: b242 093d 01a5 babc c477 ebbc ea31 11bb
000000d0: dcd6 41bd 5679 0abc e7ab 553d 76e4 bebd
000000e0: 44dd 113d 5ddc 70bd 922e 99ba 579a 47bd
000000f0: 5507 8dbb f5f4 20bd 0fc8 8dbd a172 57bc
-0.06580036 -0.0056616124 -0.0051474953 0.015537102 -0.072149694 -0.073595814 -0.07435933 -0.02561427
-0.08912859 -0.0038614373 -0.06884127 -0.02976593 0.04279226 0.013290158 -0.08649348 -0.037661444
0.042651955 -0.07611416 -0.018783167 -0.065411575 -0.01671769 -0.022942826 0.02039866 0.04437541
0.010928259 -0.00040660155 -0.074388474 -0.013235255 -0.06210692 -0.013924369 0.0006623009 -0.07165449
0.013382177 -0.0036301955 0.048874225 -0.10726814 0.009132855 0.040623657 -0.07173591 0.047489718
-0.07103973 0.028283825 0.04411665 -0.08387402 -0.032761667 -0.017026199 -0.07800288 -0.05183887
0.03351087 -0.022783758 -0.028743632 -0.0022154995 -0.047324046 -0.00845178 0.052165892 -0.09320919
0.035611406 -0.058803905 -0.0011686853 -0.048731174 -0.0043038526 -0.03929611 -0.06922924 -0.013149888

rconvs.4.weight f4 [64, 64, 3]
00000000: b91b 84bd aa46 72bd 980a 26bd fc9e 14bc
00000010: 0794 9fbd d41d 093c bd19 0f3d e058 09bc
00000020: 8ff1 51bd b866 953a 3173 c2bd 1966 7fbc
00000030: 3430 14bd 89b4 773b 8491 2cbb 950f 41bd
00000040: 064d 2c3d a5ee e9bc 90d4 a4bc 792e 9fbd
00000050: 1fc9 d4bd dd86 5e3d 6d63 f73c 40fd 993b
00000060: a25b 12bd 0707 07bd e629 65bc c254 9ebd
00000070: ed14 81bd e01d 40bd cd24 f2bb a919 a1bd
00000080: cae1 c2bd f253 49bc 34f9 8dbd b4b3 933c
00000090: 0bf5 813d f7fa afbb 0e05 3cbd 4978 2cbd
000000a0: b4e6 ab3c 35ad a6bc 37c0 18bd 09fd 8f3c
000000b0: 1490 b2bd 4ad8 e2bc 0172 b2bd b692 72bd
000000c0: f89b a9bd e7b9 9fbd 3a7e 4bbd d165 733d
000000d0: 4e77 e0bc 43ac 0fbd 9e8c e1bb ed7f b33b
000000e0: 58e8 c8bd ed33 003d 2426 9dbd d2b3 51bd
000000f0: ecd7 42bc b80d 443d e378 60bd 2a4c 7ebd
00000100: 5927 85bc 5fc4 65bd 859f 343c f2e4 67bd
00000110: d0dd aebd 8b27 bd3c 9bba c13c 2abd 74bd
00000120: 50fc f53c 0021 aebc f577 873c 844d fbbc
00000130: fbe5 383b ab38 a1bc be22 df3c eeeb f0bc
00000140: a2a6 a4bd 85a7 613d 2ba8 9ebc b3ca 87bd
00000150: d1e5 a7bd fb99 30bd 91b1 06bd 02d0 a5bd
00000160: 3dde 4bbd 4168 85bd 7b8f 613b 3ff5 29bd
00000170: 4252 b5ba b2b2 9d3c f17a 35bc 0787 a0bd
00000180: ee71 0dbd 527e 3dbc 175f b93b d9f1 2ebd
00000190: eb6c 80bd 3bb5 c0bd a929 523c f7ab d3bd
000001a0: fe3c 693c 781f 9c3c a83c a5bd e369 94bc
000001b0: b459 e13c b3d7 e6bc 90e3 92bd e4cd 8dbc
000001c0: cc8a 76bc c573 73bd c2bf 48bd 973c 95bd
000001d0: 2aa9 a8bd fdce 78bd ebc2 343d 0f2d 623c
000001e0: 298f 0a3d e5da a9bd 67c0 183c 5483 88bd
000001f0: d240 05bd ce71 91bd 6e22 a03d 5e0e 893d
00000200: adbd b0bd a9a3 ef3c 7a2e bdbd fa0e 20bb
00000210: 52be 703b b30c fabb cdb4 d53c 2ab6 883d
00000220: 95d0 88bd 3ed1 70bd a79e 31bd a722 7abd
00000230: fb9c 09bd 71b5 073d 7370 adbd d9ca 203c
00000240: da8f 0cbd 71f7 84bd 29b1 c73a e751 8e3c
00000250: cf3b bc3c 70cc 72bb dbf3 bbbc cd57 bdbd
00000260: 891f d1bc 4f92 b2bd b0bf 2f3d 37aa 23bc
00000270: db13 83bd 1482 69bc db79 313d bb49 44bd
00000280: adcc 1abd 382b b1bd 63bd 173d 6bdd 6cbd
00000290: f9e8 0ebd c1b0 4abd 5dc1 c7bc 220e 243d
000002a0: 00a6 89bd 2f75 6a3c d6c7 07bc 30d7 45bd
000002b0: 41e8 11bd d53a fd3c da9f 60bd a08e c33c
000002c0: a044 72bd 3b7a 8ebc 32a0 6c3c 3408 8abd
000002d0: 40d4 1e3c ba93 b33b 5807 ba3a 283e 453d
000002e0: 764a 003d d748 313c f408 813d 4b56 83bd
000002f0: 376d c4bd 25d1 5ebc 77af 5d3c ece8 1c3d
00000300: 19e3 cebc fe3d 313d 5836 abbd 170c 22bc
00000310: 1fc6 3ebc 7fda 133d 2a8a 0abd cb93 82bd
00000320: af24 e03c def2 ecbc 3a08 e83c 79a2 37bd
00000330: e60a 833d b932 0b3d 1e0c 883c f133 35bd
00000340: f8df 8dbd b545 a7bd 8255 213c 53ed 42bd
00000350: b271 8cbd 3ecf 4e3d 725d 7ebc 270e 1cbd
00000360: 8d21 013c 99b3 98bd 09e5 203d 1d1b 0f3d
00000370: ed3f 773d 334a 91bc 78a2 673c 8906 4e3d
00000380: 9bc1 9ebd c35e 5f3d f0c3 ddbc d71a 9bbd
00000390: 532c 04bd 6e70 e53c 8bbb 8fbd d31f d53c
000003a0: d24c 453b fc4a f3bc 93f7 c83b ff61 5e3c
000003b0: ad16 70bd d7e0 3ebd 72a2 ce3c b1ad d23c
000003c0: 6bbf d0bd 94ea 283c ae7d e7ba 2549 5d3c
000003d0: 55a0 863d 52b6 50bd e31f 833d e101 a23d
000003e0: 33ea 83bd 3592 31bc 06a1 893c 3e58 cbbc
000003f0: 7093 d7bc 89d6 193d 8f9c 9ebd c6a5 1f3d
-0.064506 -0.05914942 -0.040537447 -0.009071108 -0.07791906 0.008368928 0.034936655 -0.008383006
-0.05125576 0.001139841 -0.09494627 -0.015588307 -0.036178783 0.0037796816 -0.0026331851 -0.047134
0.042065643 -0.028556177 -0.020120889 -0.07772536 -0.10389923 0.054327834 0.030198777 0.004699379
-0.03573192 -0.032965686 -0.01398704 -0.0773101 -0.063028194 -0.04690349 -0.007389641 -0.078662224
-0.09515722 -0.0122880805 -0.06932297 0.018030025 0.06345566 -0.0053704935 -0.045903258 -0.0421069
0.020984031 -0.020346263 -0.037292685 0.017576711 -0.08718887 -0.027691025 -0.08713151 -0.059221946
-0.08281702 -0.0779913 -0.049680926 0.05942327 -0.027400639 -0.03507639 -0.006883218 0.0054778964
-0.09809941 0.03129952 -0.0767329 -0.05119688 -0.0118923 0.047864646 -0.054802787 -0.062084354
-0.016254114 -0.056095477 0.011024361 -0.056614824 -0.08538401 0.023090145 0.02364855 -0.059750713
0.030027539 -0.02125597 0.016536692 -0.03067661 0.002821325 -0.019680342 0.027238246 -0.029409375
-0.08039595 0.0550914 -0.019367298 -0.06630459 -0.08198131 -0.043115597 -0.032884184 -0.08096315
-0.04977249 -0.065140255 0.0034417796 -0.04149365 -0.0013833719 0.019250248 -0.011076675 -0.078382544
-0.03453248 -0.011565762 0.0056570875 -0.042711113 -0.062707745 -0.09409567 0.012827315 -0.10335534
0.014235733 0.019057974 -0.0806821 -0.018116897 0.027508594 -0.028179025 -0.0717231 -0.01731009
-0.01504774 -0.05943658 -0.049011 -0.07286947 -0.082353905 -0.060744274 0.0441312 0.013804688
0.033827934 -0.08293704 0.009323216 -0.06665674 -0.03253252 -0.07101785 0.07819067 0.066921934
-0.08629928 0.029252844 -0.0923738 -0.002442299 0.0036734533 -0.0076309084 0.02608719 0.0667537
-0.06680409 -0.0587933 -0.043364193 -0.061068203 -0.033596974 0.03313202 -0.084687136 0.009813988
-0.034316875 -0.06492508 0.0015235293 0.017373038 0.022977738 -0.0037048124 -0.022943428 -0.09245262
-0.025527732 -0.087193124 0.042907417 -0.009989313 -0.064002715 -0.014252204 0.0433291 -0.047921877
-0.03779285 -0.086508214 0.037045848 -0.057828348 -0.03489015 -0.049484972 -0.024384195 0.04005254
-0.06721115 0.014310165 -0.008287391 -0.048300922 -0.035621885 0.030911842 -0.054839946 0.02387172
-0.059147477 -0.017392268 0.01444249 -0.06739846 0.009694159 0.005480257 0.0014192862 0.04815498
0.03132101 0.010820589 0.06300536 -0.064129435 -0.095911436 -0.013599669 0.013530604 0.03830807
-0.025254773 0.04327201 -0.083599746 -0.009890578 -0.011643915 0.036097046 -0.03382317 -0.063758455
0.027361242 -0.028924402 0.028324235 -0.04483268 0.06398563 0.03398392 0.01660734 -0.04423899
-0.06927484 -0.081675924 0.009847047 -0.04758961 -0.06857623 0.05049061 -0.015525209 -0.038099434
0.007881534 -0.074561305 0.039280925 0.034937967 0.0603637 -0.017735576 0.014137857 0.0502992
-0.07751771 0.05453373 -0.02707097 -0.07573479 -0.032268833 0.028007712 -0.07018193 0.026016152
0.0030105603 -0.029698841 0.006133029 0.013573169 -0.058615375 -0.046601143 0.025223944 0.025717588
-0.1019276 0.010309834 -0.0017661357 0.013506209 0.0657355 -0.050955124 0.06402566 0.079105146
-0.06441154 -0.010838081 0.016800415 -0.02482235 -0.02631542 0.037558112 -0.07744705 0.038976453

rconvs.4.bias f4 [64]
00000000: c977 64bb 6149 8ebc 835a a3bc ee27 403d
00000010: 98c3 f53d 0d92 1d3d cdb8 2e3d b227 b2bd
00000020: 7270 72bd f1de 58bb 1b5b a5bc a7b2 123d
00000030: 3e05 e7bc 023f 293e 56c6 0fbd 7658 a93c
00000040: 4199 293d ae41 1dbd 3c84 403d 1bae 1dbc
00000050: 8df6 a9bd 8909 b83c fdff 77bc 52f1 8abc
00000060: 87d6 33bc 7b56 15bd 17ad 32bc 2058 f7bc
00000070: f219 a1bd 1b55 ae3c 1397 3ebd 29ee d2bc
00000080: 7dbc 063d cca7 aebd d93c cb3c 0b08 37bd
00000090: 6a7a 373c fef4 263d 096d 4e3c 3dc9 a9bc
000000a0: b6d5 a1bd 9223 393d d0ef f9bb 6ffd e13c
000000b0: 7157 ae3c 6a8e 41bd 8dfe c5bd af88 4fbd
000000c0: e7bd 2bbd ebb9 c1bd fb15 a9bd f6df 44bd
000000d0: 0e90 393d 96be 4cbd 20b8 3abd e204 15bd
000000e0: b6eb 60bc e9d3 87ba 7faf b0bd 17c6 b9bd
000000f0: ae2c 69bd 033d 9e3c eba2 acbd d736 4cbd
-0.0034861437 -0.017368974 -0.01994062 0.04691308 0.12000197 0.038469363 0.04265671 -0.086989775
-0.059189267 -0.0033091868 -0.020185044 0.035814907 -0.028200742 0.16527942 -0.035101257 0.020672064
0.04140592 -0.038392715 0.04700111 -0.0096240295 -0.08298979 0.022465484 -0.015136716 -0.016960774
-0.01097644 -0.036459427 -0.010905526 -0.030193388 -0.07866277 0.021280816 -0.046530794 -0.02574833
0.0328946 -0.085280985 0.024809288 -0.044685405 0.011198619 0.040760987 0.012599238 -0.02072584
-0.0790209 0.045199938 -0.007627465 0.027586667 0.02128193 -0.047254957 -0.09667692 -0.05066746
-0.041929152 -0.09459289 -0.082561456 -0.04806515 0.045303397 -0.049986444 -0.04558575 -0.03638161
-0.013728073 -0.0010362837 -0.08627223 -0.09070986 -0.056927375 0.019316202 -0.08429512 -0.049856987
