trained_models/MYOG/MYOG_Model_state_dict.pt (torch, 512000 bytes, 22 tensors)

iconv.weight f4 [64, 4, 20]
0	0xbd022b5b	-0.03177963
1	0x3d45fac5	0.048334856
2	0xbbec2902	-0.007207037
3	0x3d8a2bff	0.06746673
4	0x3df1eb7d	0.11812494
5	0xbd994c17	-0.07485216
6	0xbcca5140	-0.024696946
7	0x3cde304c	0.02712264
8	0xbda22a56	-0.07918231
9	0xbda4707f	-0.080292694
10	0xb9f48d14	-0.00046644418
11	0xbcc85007	-0.024452223
12	0x3d95bfb4	0.07311955
13	0xbc3ccc4e	-0.011523319
14	0xbd048328	-0.032351643
15	0xbb884c14	-0.00415946
16	0xbc6bf054	-0.01440056
17	0xbcb6a870	-0.022297114
18	0xbd503863	-0.050835025
19	0x3da1deae	0.07903801
20	0xbc8065cb	-0.015673539
21	0xbd17777c	-0.036979184
22	0x3c565319	0.013081335
23	0x3d6ba871	0.057533685
24	0xbd508e03	-0.050916683
25	0x3dabf43e	0.08396195
26	0xbd0bb154	-0.03410466
27	0x3d82df64	0.06390265
28	0xbdbc57d1	-0.09196437
29	0xbd7e391d	-0.062066186
30	0x3c90a3fc	0.017656319
31	0x3ce22144	0.027603753
32	0xbd327d67	-0.043576624
33	0xbde9af2e	-0.11410366
34	0x3d85c9bd	0.06532619
35	0x3bfc408c	0.0076981243
36	0xbd573bb2	-0.052547164
37	0xbd01a1d8	-0.031648487
38	0xbd00f8d7	-0.031487312
39	0x3d06bf93	0.032897543
40	0xbd1c1632	-0.038107105
41	0xbc8c05c9	-0.017092602
42	0xbdc3ec3e	-0.09566544
43	0x3e0b1365	0.13581617
44	0xbd990086	-0.07470803
45	0xbd210c1d	-0.039318193
46	0xbce32432	-0.02772722
47	0x3dcf109f	0.10110592
48	0xbcb6a463	-0.022295183
49	0xbd4a5af8	-0.04940316
50	0x3d692fc5	0.056930322
51	0x3cd345fd	0.025790209
52	0x3dcde974	0.10054293
53	0xbdf805c1	-0.121104725
54	0x3b9ee848	0.0048494674
55	0xbc2ba7f8	-0.010477059
56	0xbd9355aa	-0.071940735
57	0xbbb115a2	-0.00540419
58	0xbd0c6dad	-0.034284282
59	0x3d428e68	0.04749909
60	0xbd574d57	-0.05256399
61	0x3bf60dcb	0.0075089685
62	0x3db194ff	0.08670997
63	0xbe60e394	-0.21961814
64	0xbc9b7a4f	-0.01897922
65	0xbe09198d	-0.13388653
66	0xbdd6e9c7	-0.10493808
67	0x3dcbb061	0.09945751
68	0xbd4b70d6	-0.049668156
69	0xbce058bb	-0.02738606
70	0x3c52a288	0.012856133
71	0x3c6a0050	0.014282301
72	0xbd3c23ad	-0.04593246
73	0x3dc29581	0.09501172
74	0xbce92a9a	-0.028462697
75	0xbda2d088	-0.079499304
76	0xbd5720cc	-0.052521512
77	0xbc2af7f0	-0.0104350895
78	0xbcf9c2b4	-0.03048835
79	0x3d02bff3	0.03192134
80	0xbdc15ebc	-0.09441897
81	0xbd6385c8	-0.055547506
82	0x3ba0ac85	0.0049033784
83	0x3d1132e8	0.03544894
84	0xbd7030a2	-0.05864013
85	0xbe2a0f21	-0.16607334
86	0x3d80b2bc	0.06284091
87	0xbe49135a	-0.19636288
88	0x3dae7caf	0.08519875
89	0x3d5223e0	0.051303744
90	0xbd44129c	-0.04786931
91	0xbd80261e	-0.0625727
92	0xbddf47e1	-0.10902382
93	0xbcbfaa62	-0.023396675
94	0xbc8b95c3	-0.017039185
95	0x3d62779c	0.05528985
96	0xbd995ce7	-0.07488423
97	0xbda4b71d	-0.080427386
98	0x3daefeb7	0.08544677
99	0x3da6bf17	0.08141916
100	0xbc89feeb	-0.016845187
101	0xbdc720c2	-0.09723045
102	0x3d8c76ba	0.06858583
103	0xbe105ee1	-0.14098693
104	0xbcbf8d98	-0.023382947
105	0xbdd8fb2a	-0.10594781
106	0xbdbb9393	-0.09159007
107	0x3dd0e222	0.101993814
108	0xbe267eca	-0.16259304
109	0x3bc515eb	0.0060145757
110	0xbcba3db1	-0.022734495
111	0xbc85c629	-0.016329842
112	0xbe55f4df	-0.20894192
113	0xbbd59ca9	-0.0065189195
114	0xbd8412dc	-0.0644891
115	0x3cd94287	0.02652098
116	0xbe47e544	-0.19521052
117	0xbc8ed99e	-0.017437752
118	0xbe02c915	-0.12772019
119	0x3da24fa2	0.07925345
120	0x3d135a43	0.035974752
121	0x3d239fb2	0.03994722
122	0x3df8f066	0.12155227
123	0xbdabb7f1	-0.083846934
124	0x3c663f5d	0.014053193
125	0x3cf9f463	0.03051204
126	0xbda1dcca	-0.0790344
127	0x3b99c31b	0.004692448
128	0xbe1ef1af	-0.15521882
129	0x3d8bc4b4	0.068246275
130	0x3d506ce8	0.05088511
131	0xbd7e8a1a	-0.062143423
132	0x3dc8d5fb	0.098064385
133	0xbe97d960	-0.2965803
134	0xbc4609c5	-0.01208729
135	0xbd00689d	-0.031349767
136	0x3d468964	0.04847087
137	0xbd3057c5	-0.043052454
138	0xbcf9dfbe	-0.030502196
139	0x3c3dea4f	0.011591508
140	0xbd8da7d7	-0.069167785
141	0xbda8ae82	-0.0823641
142	0x3bbc514a	0.005746995
143	0xbe32cbdd	-0.1746058
144	0xbd0fcf01	-0.035109524
145	0x3db842ab	0.08997091
146	0x3cd57d38	0.026060686
147	0xbd3dd5c4	-0.04634644
148	0xbe451504	-0.19246298
149	0xbdc7ae94	-0.09750095
150	0x3d15a48b	0.036533874
151	0xbdda3324	-0.106542856
152	0xbce0d18d	-0.027443672
153	0x3d419b21	0.047267083
154	0xbd72582d	-0.059166122
155	0x3b7c1f4f	0.003847081
156	0xbe4aec79	-0.1981677
157	0xbe91638e	-0.28396267
158	0xbdf866a6	-0.12128954
159	0x3c3ffd9a	0.011718178
160	0xbcea7909	-0.028622167
161	0x3cf165b2	0.029467437
162	0x3d8ddbdc	0.069267005
163	0x3c5e16fd	0.0135552855
164	0xbd70bb77	-0.05877253
165	0xbd3c0cc6	-0.04591062
166	0x3c56d8fd	0.0131132575
167	0xbe043359	-0.12910213
168	0x3ce1fc53	0.027586138
169	0xbd9b6680	-0.0758791
170	0xbd7492d5	-0.059710342
171	0xbe0255ab	-0.12727992
172	0xbd82fb7a	-0.063956216
173	0x3dfdb84c	0.123886675
174	0x3d4fcb44	0.05073096
175	0xbc2e127b	-0.010624523
176	0x3d348d44	0.044080034
177	0x3c94ca05	0.018162737
178	0x3d4c52e7	0.04988375
179	0xb9fbb36e	-0.00048008136
180	0xbd86d551	-0.065836556
181	0xbc3ad5b9	-0.0114034945
182	0x3cf2bd3b	0.029631248
183	0xbc4482e0	-0.011994094
184	0xbd971306	-0.07376675
185	0x3d73ad6e	0.059491567
186	0xbd939194	-0.07205501
187	0x3cd36f2c	0.025809847
188	0x3cf29fb6	0.029617172
189	0x3cc3db99	0.023908423
190	0xbd6758d1	-0.056481186
191	0x3dbb4529	0.09144051
192	0x3d1f4f12	0.038893767
193	0xbc561f4f	-0.013068988
194	0x3ce9c0ab	0.028534254
195	0xbd34406b	-0.044006746
196	0xbd7f2340	-0.062289476
197	0xbb8d960a	-0.0043208646
198	0x3d501e8e	0.05081039
199	0x39b87668	0.00035183434
200	0xbd49daf7	-0.049281087
201	0x3bad5e43	0.005290778
202	0x3d0452f0	0.032305658
203	0xbd40a067	-0.04702797
204	0x3bff52cb	0.007791852
205	0x3d61213f	0.054963347
206	0x3dc9915f	0.098421805
207	0x3da982ce	0.08276902
208	0xba2700da	-0.00063706713
209	0xbd487a9f	-0.048945066
210	0xbdf11dc5	-0.11773256
211	0xbe01eb31	-0.12687375
212	0x3cfec4fe	0.031099793
213	0xbc83a76b	-0.016071042
214	0x3df4da7e	0.119557366
215	0xbdf1769d	-0.11790202
216	0x3c3f32ee	0.011669857
217	0x3d285a07	0.04110148
218	0xbd89922c	-0.06717333
219	0x3b94e60c	0.0045440253
220	0xbc5ce3a0	-0.013482004
221	0xb9c8f042	-0.0003832598
222	0xbb939475	-0.0045037814
223	0x3d599550	0.05312091
224	0xbd1f10e8	-0.038834482
225	0xbe047207	-0.12934123
226	0x3c75a7c5	0.014993613
227	0xbdc89b2a	-0.0979522
228	0x3b8d3ffd	0.0043106065
229	0x3d3251c5	0.043535013
230	0xba14d6f8	-0.0005677785
231	0xbc953f6f	-0.018218724
232	0x3d2755bd	0.04085325
233	0x3deaba6f	0.11461341
234	0x3c905f65	0.017623613
235	0x3aae6f26	0.0013308271
236	0xbda4d6bd	-0.080487706
237	0xbd800a16	-0.06251924
238	0x3c1927f4	0.0093479045
239	0xbd196760	-0.0374521
240	0x3d2593d5	0.040424187
241	0xbdd3481e	-0.1031649
242	0xbd934b18	-0.07192057
243	0x3d89b445	0.06723837
244	0xbd8e120d	-0.06937037
245	0xbd5e5425	-0.054279465
246	0x3d926497	0.07148092
247	0xbc32e736	-0.010919383
248	0x3cd7f13d	0.026360149
249	0xbc4f9852	-0.012670593
250	0xbdcfd8d3	-0.10148778
251	0xbcae2452	-0.021257553
252	0x3dd11763	0.10209539
253	0x3c4cc9df	0.012499302
254	0xbd8a929a	-0.06766243
255	0xb99f5c52	-0.00030395627

iconv.bias f4 [64]
0	0x3d448c22	0.047985204
1	0xbdefe820	-0.11714196
2	0xbdb4202a	-0.08795197
3	0x3d83e0ff	0.06439399
4	0x3d95ab9f	0.07308125
5	0xbdf608b0	-0.12013376
6	0x3d15fd87	0.036618736
7	0x3bab1307	0.005220774
8	0x3d797ce8	0.060910136
9	0x3a9057e4	0.0011012522
10	0x3e125709	0.14291014
11	0xbc3d35bc	-0.011548456
12	0xbd891d79	-0.066950746
13	0x3d64e894	0.055885866
14	0xbe2d3d0f	-0.16917823
15	0xbd817a20	-0.063221216
16	0xbdc47b59	-0.09593839
17	0xbdcef036	-0.1010441
18	0xbe2ca1bd	-0.16858573
19	0x3d919884	0.07109168
20	0xbe19dfef	-0.1502683
21	0x3d8555a1	0.06510473
22	0xbdd3a2ba	-0.10333772
23	0x3d362630	0.044470012
24	0xbde2d4ef	-0.1107577
25	0xbe0b7b21	-0.13621189
26	0xbc85b21a	-0.016320277
27	0x3c603be4	0.013686154
28	0xbdc5100f	-0.096222036
29	0xbcbfb4a7	-0.023401571
30	0xbd01685b	-0.03159366
31	0x3d11a9fc	0.0355625
32	0xbd09d486	-0.033649944
33	0x3d6d4afa	0.05793283
34	0x3da1ce76	0.079007074
35	0x3c9c8205	0.019104967
36	0xbd9177e2	-0.07102944
37	0xbda8ab55	-0.08235804
38	0xbddf1a64	-0.108937055
39	0xbdaef08a	-0.08541973
40	0xbe0376de	-0.12838313
41	0xbd9901b6	-0.074710295
42	0xbe6da5e2	-0.2320781
43	0xbe2ab029	-0.16668762
44	0xbd78666c	-0.060644552
45	0xbe108a09	-0.14115156
46	0xbd0f3a50	-0.03496772
47	0x3c1c96b0	0.009557411
48	0x3cc1a331	0.023637386
49	0xbcb6130f	-0.022225885
50	0xbe0c68d2	-0.13711861
51	0xbd8e4f49	-0.06948716
52	0x3d09b0d0	0.033615887
53	0x3d916b98	0.071006
54	0xbd7bbfe5	-0.0614623
55	0x3d9aef34	0.075651556
56	0x3d283b8c	0.041072413
57	0x3da333cd	0.079688646
58	0xbdbeca13	-0.09315886
59	0xbd0d9e30	-0.034574687
60	0xbdcec9b6	-0.10097067
61	0x3d0223fb	0.031772595
62	0xbd224db7	-0.039624896
63	0x3d478fa6	0.04872098

rconvs.0.weight f4 [64, 64, 3]
0	0x3d3f027d	0.046633232
1	0x3b92ce92	0.0044801915
2	0x3d843c27	0.06456786
3	0xbd802cc4	-0.06258538
4	0xbcadb60f	-0.021204976
5	0xbcc58e02	-0.024115566
6	0x3ce94e43	0.0284797
7	0x3d8081b2	0.062747374
8	0x3d226fef	0.03965753
9	0xbd804fc8	-0.06265217
10	0x3d52fa51	0.05150825
11	0xbd3eb816	-0.046562277
12	0xbdba6352	-0.09100975
13	0xbd18d8f2	-0.03731627
14	0xbd955b14	-0.072927624
15	0xbd028fc4	-0.031875387
16	0x3c956c01	0.018239977
17	0xbd1ceb67	-0.038310435
18	0x3d8724f2	0.06598844
19	0xbd7a9114	-0.061173514
20	0x3e01f299	0.126902
21	0xbdae985d	-0.08525155
22	0xbd8b6e46	-0.06808142
23	0xbbb77ec2	-0.0055998275
24	0xbcea5235	-0.028603652
25	0x3a54de40	0.0008120276
26	0xbd0734cf	-0.033009347
27	0x3d1ae03a	0.037811495
28	0xbcb3f7ea	-0.0219688
29	0xbd5388c2	-0.051644094
30	0xbdb2f4f5	-0.08738128
31	0xbda1c25e	-0.07898401
32	0xbd49f59e	-0.049306504
33	0xbdbf94ef	-0.09354579
34	0x3c90d71d	0.017680699
35	0x3d5d5bd0	0.054042637
36	0xbd3af834	-0.04564686
37	0x3d63bc54	0.055599526
38	0xbd6cf42d	-0.05785005
39	0xbca663fa	-0.020311344
40	0x3d37cb72	0.044871755
41	0xbd35d106	-0.044388793
42	0xbd9b42f7	-0.07581132
43	0xbd8aef42	-0.06783916
44	0xbdac279a	-0.08405991
45	0x3d5143b2	0.05108995
46	0xbd08389b	-0.03325711
47	0xbdaa2486	-0.083077475
48	0xbd70705f	-0.058700915
49	0x3d0605f7	0.032720532
50	0x3b620859	0.003448984
51	0xbd912cc1	-0.07088614
52	0xbae78473	-0.0017663374
53	0xbb3613fc	-0.0027782908
54	0x3d26af42	0.040694483
55	0x3c55dcaf	0.013053103
56	0xbab1b47f	-0.001355782
57	0x3c9724bc	0.018450134
58	0xbdd807b1	-0.10548342
59	0x3d3f5996	0.046716295
60	0x3c1a0644	0.009400908
61	0xbd9ce877	-0.07661527
62	0xbd9c8280	-0.076420784
63	0xbd1f840a	-0.03894428
64	0xbd38e896	-0.045143686
65	0xbd0414f5	-0.03224655
66	0xbbd92dae	-0.00662776
67	0x3beea585	0.007282915
68	0x3c996720	0.018725932
69	0xbc0581ec	-0.008148652
70	0xbd6ddcd6	-0.058071934
71	0xbda394ea	-0.079873875
72	0x3b73489c	0.0037122136
73	0x3d7c31e3	0.061571013
74	0x3ccf8b40	0.025334954
75	0x3d42c5ac	0.047551796
76	0xbdc27874	-0.09495631
77	0xbc6afac1	-0.014342011
78	0x3dd01c37	0.101616316
79	0x3db590c1	0.088655
80	0x3cc75068	0.024330333
81	0x3e1278f2	0.1430395
82	0x3d85e3ed	0.06537614
83	0xbcda1ff5	-0.026626566
84	0xbc556b5b	-0.013026084
85	0xbb3e7930	-0.0029063933
86	0xbd3686dc	-0.044562206
87	0x3d3ea1e7	0.04654112
88	0xbd9217c7	-0.071334414
89	0xbdaa629d	-0.0831959
90	0xbd34b382	-0.044116504
91	0xbd6620d7	-0.056183662
92	0xbc27a533	-0.010232258
93	0xbccc6b0d	-0.02495339
94	0x3d80eba0	0.06294942
95	0xbd3459df	-0.04403102
96	0xbd9160ef	-0.07098567
97	0xbc256e57	-0.010097108
98	0xbcb60f72	-0.022224162
99	0x3c5cfe0b	0.013488303
100	0xbc75ef65	-0.015010689
101	0xbd28449c	-0.041081056
102	0xbc47a2fe	-0.012184856
103	0x3c2dde1a	0.010612035
104	0xbcd9c3d8	-0.026582643
105	0xbd175c27	-0.036953118
106	0xbd5464a5	-0.051853795
107	0xbd7e4b8f	-0.062083777
108	0x3d279c9a	0.04092083
109	0xbd89861b	-0.06715032
110	0xbd14c9c3	-0.036325227
111	0xbdb17958	-0.086657226
112	0xbd52391c	-0.051323995
113	0x3d5218ba	0.051293112
114	0x3cd19ae8	0.02558656
115	0xba55951c	-0.0008147524
116	0xbacc334c	-0.0015579253
117	0xbd9a69ec	-0.07539734
118	0x3bb4fe98	0.005523514
119	0x3c384878	0.011247747
120	0xbd9c58f2	-0.076341525
121	0xbcbc18b5	-0.022961
122	0x3db37905	0.08763317
123	0xbd5fb779	-0.054618333
124	0x3cc01b9e	0.023450669
125	0x3c3aecba	0.011408979
126	0xbdabbafb	-0.08385273
127	0x3b1b272b	0.002367447
128	0xbd9a0246	-0.07519965
129	0xbd0c48b5	-0.034249026
130	0xbc21f67f	-0.009885429
131	0xbd2c1a07	-0.04201701
132	0x3d37ad81	0.0448432
133	0x3d4fbc86	0.0507169
134	0x3c61f721	0.01379183
135	0xbc9ed80e	-0.019390132
136	0xbd85f6bb	-0.06541201
137	0xbd4f49ab	-0.050607365
138	0xbd99ecc9	-0.07515866
139	0xbc889ad1	-0.016675385
140	0xbd815aa6	-0.06316118
141	0x3d25e928	0.04050556
142	0xbd483e43	-0.048887502
143	0xbda56dc7	-0.08077579
144	0x3c8cb9f6	0.017178517
145	0xbd803e19	-0.06261844
146	0x3d429b08	0.04751113
147	0xbd225e25	-0.039640564
148	0x3d850c4e	0.064964876
149	0x3ce74b25	0.028234074
150	0x3cf60873	0.030033326
151	0xbc15b29a	-0.00913682
152	0xbd9a1036	-0.07522623
153	0xbabb4f40	-0.0014290586
154	0x3d304b48	0.043040544
155	0xbdccc368	-0.09998208
156	0xbd94a7cb	-0.072585665
157	0xbd907a16	-0.07054536
158	0xbd8df3a4	-0.069312364
159	0x3b110a65	0.002213144
160	0xbdbb788f	-0.09153854
161	0x3cd746da	0.026278902
162	0xbd1c43b9	-0.038150523
163	0xbd0a4d48	-0.033765107
164	0x3d5cc045	0.0538943
165	0xbbd289fb	-0.00642514
166	0xbd97c71f	-0.07411026
167	0x3d0d3f08	0.03448394
168	0xbd311089	-0.04322866
169	0x3d91cd5b	0.071192466
170	0x3d1bfefe	0.038084976
171	0x3ccead6f	0.025229184
172	0x3c5a562c	0.013326209
173	0xbd2d905f	-0.04237401
174	0xbda149a4	-0.07875374
175	0x3aaf9d9e	0.0013398414
176	0xbd493e9a	-0.049131967
177	0xbd869ed2	-0.06573261
178	0xbd973071	-0.07382286
179	0xbdb9fbd9	-0.09081239
180	0x3d50ae77	0.050947633
181	0xbd913bb8	-0.070914686
182	0xbd25f8ea	-0.040520586
183	0xbc6b42f9	-0.014359229
184	0xbd10af74	-0.035323575
185	0xbd2ea2f8	-0.042635888
186	0xbb88f226	-0.004179257
187	0xbd574a66	-0.052561186
188	0xbd124552	-0.03571064
189	0x3d1cda5e	0.03829419
190	0xbd5a7ea4	-0.05334343
191	0xbcc671bf	-0.02422416
192	0x3d16efe9	0.03684989
193	0xbc132b71	-0.008982525
194	0x3c02920b	0.00796939
195	0xbd94eb97	-0.07271498
196	0xbc045097	-0.008075855
197	0x3d066055	0.032806713
198	0xbdb62403	-0.088935874
199	0xbd98932a	-0.07449944
200	0xbd9b1f6b	-0.07574352
201	0xbdb22d98	-0.087001026
202	0xbdb851cd	-0.08999977
203	0xbdac33a6	-0.08408289
204	0xbd093ee9	-0.03350726
205	0xbb8a2254	-0.004215518
206	0xbda7d39b	-0.081946574
207	0xbcd019be	-0.0254029
208	0xbd33912c	-0.04383962
209	0xbd1df694	-0.038565233
210	0xbd93feab	-0.072263084
211	0xbcd51df2	-0.026015256
212	0xbd24a130	-0.040192783
213	0x3cd6df23	0.026229447
214	0xbcfde0a1	-0.0309909
215	0x3cc4e4fc	0.02403497
216	0x3be7e2f4	0.0070766155
217	0x3cc6d22b	0.024270138
218	0x3ccd3b99	0.025052832
219	0x3cd947aa	0.02652343
220	0xbbe4b4a9	-0.006979544
221	0xbd9f78e4	-0.0778673
222	0xbd0ac910	-0.033883154
223	0x3d36bd20	0.044613957
224	0xbeb45706	-0.35222644
225	0xbd0b1458	-0.03395495
226	0xbd35258e	-0.044225268
227	0xba7ee0c1	-0.0009722822
228	0x3d3b9193	0.045793127
229	0xbb920613	-0.0044562905
230	0x3c8bae90	0.017051011
231	0xbd23b217	-0.03996476
232	0x3cbf1177	0.023323758
233	0xbcfa5291	-0.030556949
234	0xbc8fcd4e	-0.017553952
235	0xbdad344f	-0.08457243
236	0xbdafea83	-0.085896514
237	0x3cd70beb	0.0262508
238	0xbca1d919	-0.01975684
239	0xbc49e306	-0.012322193
240	0xbd1be48d	-0.03805976
241	0x3bab0f6e	0.005220345
242	0xbcf69462	-0.030100051
243	0xbc1a5bac	-0.00942127
244	0xbb8c2be7	-0.0042776945
245	0xbd9bf8eb	-0.07615837
246	0x3ab98a71	0.0014155639
247	0x3c65d139	0.014026933
248	0xbd062d9e	-0.032758348
249	0x3ba6b92c	0.005087992
250	0xbd95a3c7	-0.07306629
251	0xbda6538e	-0.081214055
252	0xbd988bc2	-0.07448532
253	0xbdb2772e	-0.08714138
254	0x3d0e1a21	0.034692887
255	0xbd88a88b	-0.06672772

rconvs.0.bias f4 [64]
0	0x3d0df7c9	0.034660134
1	0xbdb333b8	-0.08750099
2	0x3b8af88f	0.0042410563
3	0x3ce4440b	0.027864477
4	0xbd07ce27	-0.033155587
5	0x3cf5e35b	0.030015638
6	0xbdbe0a71	-0.09279335
7	0xba0dfcfa	-0.00054164196
8	0xbb312c46	-0.0027034446
9	0x3ccfddcb	0.025374314
10	0x3d0a8d55	0.03382619
11	0xbd35a11a	-0.04434309
12	0xbd4d41fd	-0.05011176
13	0xbd813fcf	-0.06310999
14	0xbdb7d5a5	-0.08976296
15	0xbc9b2bc4	-0.018941768
16	0x3d019a3e	0.031641237
17	0xbda41d14	-0.08013359
18	0xbdbe4cb2	-0.09291972
19	0x3cd9d1fb	0.026589384
20	0xbb03b367	-0.0020095946
21	0x3cc7b63c	0.024378888
22	0xbda30b87	-0.07961183
23	0xbe230479	-0.15919675
24	0xbd9383b1	-0.072028525
25	0xbda07fac	-0.078368515
26	0x3e142892	0.14468601
27	0x3d5e665e	0.054296844
28	0xbda27e97	-0.07934301
29	0xbc974d4c	-0.018469475
30	0xbd0fd8c2	-0.035118826
31	0xbc821753	-0.015880262
32	0xbcf400d3	-0.02978555
33	0x3cc9fae6	0.02465577
34	0xbccbcd31	-0.024878116
35	0xbd8894d6	-0.06669013
36	0xbca60e8c	-0.020270608
37	0x3cff1d48	0.031141892
38	0xbcccdc2c	-0.02500733
39	0xbd38b09e	-0.04509031
40	0xbcd4ab99	-0.02596073
41	0x3cbe298d	0.023213172
42	0xbcc66608	-0.024218574
43	0xbaa4031b	-0.0012513133
44	0xbc36bd5c	-0.011153545
45	0xbd8e85be	-0.06959103
46	0xbe5053cf	-0.2034447
47	0xbd25ba55	-0.040460903
48	0xbdc8be23	-0.09801891
49	0xbd5e44d2	-0.05426485
50	0xbd5e67cf	-0.05429822
51	0xbd47c7cf	-0.048774537
52	0xbd6641e4	-0.056215182
53	0xbd4482e4	-0.04797639
54	0xbd9d253a	-0.07673116
55	0x3cb60629	0.022219734
56	0xbd3b9160	-0.045792937
57	0xbd6e3bc1	-0.058162455
58	0xbd8fc743	-0.07020428
59	0x3d186cfe	0.037213318
60	0x3d604f55	0.054763157
61	0x3d35be82	0.044371136
62	0xbd39adb3	-0.045331668
63	0xbcaeaba8	-0.021322086

rconvs.1.weight f4 [64, 64, 3]
0	0xbd0558e2	-0.03255547
1	0xbd593275	-0.053026635
2	0xbd68f35a	-0.056872703
3	0x3cf4739d	0.029840285
4	0xbca7e0f5	-0.02049301
5	0x3cd93a74	0.02651713
6	0x3c8ff0f3	0.017570948
7	0xbd990b4c	-0.07472858
8	0xbd43cb39	-0.04780123
9	0x3ce736f1	0.02822444
10	0xbd985d8a	-0.07439716
11	0x3d3450ff	0.044022556
12	0xbcd54959	-0.026035951
13	0xbd414add	-0.047190536
14	0x3c929255	0.017892042
15	0xbda316f9	-0.07963366
16	0xbd814970	-0.06312835
17	0xbd5c17d2	-0.053733654
18	0xbdb67312	-0.08908667
19	0xbd35049a	-0.04419384
20	0xbd39c346	-0.045352243
21	0xbd9d679e	-0.07685779
22	0xbb50212f	-0.003175806
23	0xbc96ea1c	-0.018422179
24	0xbdb40be0	-0.087913275
25	0x3d352dfd	0.04423331
26	0x3d14866c	0.036261007
27	0xbbcebd4d	-0.0063091875
28	0xbd1ad8c2	-0.037804373
29	0xbd20b36f	-0.03923362
30	0xbd8b7d69	-0.068110295
31	0xbd411dd8	-0.0471476
32	0xbc086487	-0.008324749
33	0xbcdb8012	-0.026794467
34	0x3d0eb0fe	0.03483676
35	0x3d2b27cc	0.041786
36	0x3b2b3df8	0.0026129466
37	0xbd0b8489	-0.034061942
38	0xbd95f78c	-0.073226064
39	0xbd4a66fb	-0.049414616
40	0xb9800850	-0.00024420256
41	0x3cc0a563	0.023516363
42	0xbd3fb59a	-0.046804048
43	0x3d3d5b84	0.046229854
44	0xbd9a0bb8	-0.075217664
45	0xbcda1042	-0.02661908
46	0x3bfeb350	0.0077728406
47	0x3c94e9dd	0.018177921
48	0xbc55d381	-0.013050915
49	0xbc839520	-0.01606232
50	0xbd04e499	-0.03244457
51	0x3cb46634	0.02202139
52	0xbd9e16ce	-0.077191934
53	0xbd28026d	-0.04101794
54	0x3c85ce1c	0.016333632
55	0xbd80df36	-0.06292574
56	0xbd923558	-0.07139081
57	0x3d24a537	0.040196624
58	0xbca46cc9	-0.020071404
59	0x3b65d83f	0.003507152
60	0xbc2af540	-0.010434449
61	0xbd890fd8	-0.06692475
62	0x3b8b16bd	0.004244654
63	0x3d3f73eb	0.046741407
64	0xbd01799f	-0.031610128
65	0x3d109b1f	0.035304185
66	0xbdaaedc1	-0.08346129
67	0xbce38d6e	-0.0277774
68	0x3d56b691	0.052420203
69	0xbda95c9b	-0.08269616
70	0x3cbd103e	0.023079034
71	0x3c42a70d	0.011880648
72	0xbb059bc0	-0.0020387024
73	0xbd386293	-0.045015883
74	0x3d2276e2	0.039664157
75	0x3d39ca61	0.04535902
76	0x3c8f214a	0.017471928
77	0xbdb508a8	-0.08839542
78	0xbd5a444c	-0.05328779
79	0x3b9fe855	0.004879991
80	0xbdb980e6	-0.090577886
81	0x3cff0075	0.031128148
82	0xbd887cc6	-0.06664424
83	0x3c0a4b71	0.008440838
84	0x3d40aabc	0.047037825
85	0xbd9d396e	-0.076769695
86	0xbd4c7a96	-0.049921595
87	0xbcf1678a	-0.029468317
88	0xbdaaa8eb	-0.08333
89	0xbc254b78	-0.010088794
90	0xbce85e95	-0.028365413
91	0xbdb43454	-0.08799043
92	0x3d2cebc6	0.04221704
93	0xbc47c400	-0.012192726
94	0xbd4fea4f	-0.050760563
95	0x3cc3049a	0.023805905
96	0x3d10769e	0.035269372
97	0xbd73ea19	-0.059549425
98	0xbc3b8a9e	-0.011446623
99	0x3d02fbe4	0.031978503
100	0xbd8af1c2	-0.06784393
101	0x3c8f9c76	0.017530661
102	0x3d11f465	0.035633463
103	0x3d4cd767	0.05001011
104	0xbc908c69	-0.017645078
105	0xbdaaf2e2	-0.083471075
106	0x3bcf2b47	0.0063222977
107	0x3bd1dc22	0.0064044157
108	0xbd152c55	-0.03641923
109	0xbd9f014e	-0.07763921
110	0xbb78f783	-0.0037989325
111	0xbd2fbb7c	-0.04290341
112	0x3d0c1e67	0.03420868
113	0xbdac30be	-0.08407734
114	0x3d12918c	0.035783336
115	0x3c119e6d	0.008887869
116	0xbb87dddb	-0.0041463203
117	0x3cd01912	0.02540258
118	0xbd1f25e0	-0.03885448
119	0xbcfd517a	-0.03092264
120	0xbd4f079f	-0.050544377
121	0x3d464626	0.048406743
122	0x3a37cd2d	0.00070114696
123	0xbd1a2c29	-0.03763977
124	0x3d06a51d	0.032872308
125	0x3ca0aa01	0.019612314
126	0xbb72bde2	-0.0037039449
127	0xbc958b91	-0.018255027
128	0xbd8a1fc9	-0.06744344
129	0xbb0e0220	-0.0021668747
130	0xbd7ab1c4	-0.061204687
131	0xbd814f7f	-0.06313991
132	0xbd3050d7	-0.043045845
133	0xbd94442b	-0.072395645
134	0x3d53fd26	0.051755093
135	0x3d0ab0f3	0.03386016
136	0x3c257026	0.010097539
137	0xbd3b76b2	-0.045767494
138	0xbca03d1e	-0.019560393
139	0x3cecf113	0.028923547
140	0x3d1580bd	0.036499728
141	0xbd64bf5b	-0.055846553
142	0xbda15255	-0.07877032
143	0xbd2917c7	-0.04128244
144	0xbcbdc0fc	-0.023163311
145	0xbd9632a8	-0.07333881
146	0xbd55d24d	-0.05220251
147	0x3d1ff344	0.039050356
148	0xbccf015e	-0.025269207
149	0x3d0003e7	0.03125372
150	0xbd87b34f	-0.06625997
151	0xbc745f23	-0.0149152605
152	0x3c92c4e7	0.017916156
153	0xbca3eedf	-0.020011364
154	0x3d2e194e	0.0425046
155	0x3d1fa986	0.03898003
156	0xbda9bfcb	-0.08288535
157	0xbc2883ff	-0.010285377
158	0xbcd06565	-0.025438974
159	0x3cac9535	0.021067241
160	0xbda08327	-0.07837515
161	0x3c7917ec	0.015203457
162	0x3d483bfc	0.04888533
163	0x3c932bc3	0.017965203
164	0x3d58cd52	0.052930184
165	0xbd6d72dd	-0.05797087
166	0xbd9991b2	-0.07498492
167	0x3d09b07b	0.03361557
168	0x3c3a58b4	0.011373688
169	0x3c0ce39e	0.00859919
170	0x3bce654e	0.0062986976
171	0x3d1a9fb6	0.03774997
172	0x3d71436a	0.05890218
173	0xbd934f91	-0.071929105
174	0xbd95f526	-0.07322149
175	0xbdb65b23	-0.08904102
176	0xbda6543f	-0.081215374
177	0xbd965b27	-0.07341605
178	0xbd7a6fb7	-0.061141696
179	0x3d0e827f	0.03479242
180	0xbdb69c97	-0.08916586
181	0x3cb266ec	0.021777593
182	0xbca84052	-0.020538483
183	0xbd320ee8	-0.043471247
184	0xbbe23dce	-0.0069043403
185	0xbd051784	-0.03249313
186	0xbd904c35	-0.07045785
187	0xbc6c10da	-0.014408315
188	0x3c88c45f	0.0166952
189	0x3c482117	0.0122149205
190	0xbd3fd69e	-0.046835534
191	0xbd9eef5e	-0.077604994
192	0x3bca5628	0.0061748214
193	0x3c536bfd	0.012904164
194	0x3d3ab1c7	0.045579698
195	0xbddaa848	-0.10676628
196	0xbe2da3c6	-0.16957006
197	0xbcbe9393	-0.023263728
198	0x3df4268f	0.11921417
199	0x3bb6f32c	0.0055831876
200	0xbc02ecb5	-0.007991006
201	0xbd5145f5	-0.051092107
202	0xbd5fd793	-0.054648947
203	0xbc9a9dfd	-0.018874163
204	0xbb16a17a	-0.002298443
205	0xbddde999	-0.10835571
206	0x3ce88ba9	0.028386908
207	0x3c248ae1	0.010042877
208	0xbd81a813	-0.06330886
209	0xbda9f8ee	-0.08299433
210	0x3d4e0d08	0.050305396
211	0xbd65ea65	-0.05613174
212	0xba8661d4	-0.0010252544
213	0x3b8cc17f	0.0042955275
214	0xbb2f6885	-0.002676518
215	0xbd718094	-0.058960512
216	0x3d831dc0	0.06402159
217	0xbca9dd69	-0.02073546
218	0xbc5f0f8f	-0.013614549
219	0xbd954c8a	-0.07289989
220	0x3d71659a	0.058934785
221	0xbc5c209b	-0.013435508
222	0xbdd29ba1	-0.1028359
223	0xbc34f4cc	-0.011044692
224	0x3d8ae2c6	0.06781535
225	0x3cef1de1	0.029189052
226	0x3dd11139	0.10208363
227	0x3d8c0333	0.06836548
228	0x3cad644d	0.021165991
229	0x3aa82a9a	0.0012830079
230	0x3cd3123a	0.025765527
231	0xbc89a0e7	-0.016800357
232	0xbd8a7be8	-0.067619145
233	0xbd36fa90	-0.04467255
234	0x3e106ef5	0.14104827
235	0x3bf5f264	0.007505702
236	0x3bed8cc2	0.0072494457
237	0x3e01a3ab	0.1266009
238	0x3b57ef5b	0.0032949063
239	0xbda74afb	-0.08168598
240	0xbcbfabaa	-0.023397285
241	0xbd7b5b61	-0.061366443
242	0xbd96ff9f	-0.073729746
243	0xbde4e69a	-0.11176796
244	0xbd135c9b	-0.035976987
245	0x3c48bb36	0.012251666
246	0x3afc7192	0.0019259921
247	0xbe3733d4	-0.17890865
248	0xbcce8906	-0.025211822
249	0x3d598d0c	0.05311303
250	0xbd9caae7	-0.076497845
251	0xbd6d1f51	-0.057891194
252	0xbdaf7a0c	-0.085682005
253	0x3d9ae114	0.075624615
254	0x3b4d98ab	0.0031371515
255	0x3d63b57a	0.05559299

rconvs.1.bias f4 [64]
0	0xbccecd35	-0.025244335
1	0x3dc77bbb	0.097403966
2	0xbdb96d09	-0.09054
3	0x3d5cfcc6	0.053952
4	0x3b1ccbd8	0.0023925211
5	0x3c61038b	0.013733755
6	0xbcb2f861	-0.021846952
7	0x3c2ebc26	0.010664975
8	0xbd497de0	-0.04919231
9	0x3c457000	0.012050629
10	0xbd863ddc	-0.065547675
11	0x3d1e771d	0.038687814
12	0xbd5ac1a9	-0.053407345
13	0x3c5b258b	0.01337565
14	0xbe18dc98	-0.149279
15	0xbdbd6b6c	-0.09249005
16	0x3a412968	0.0007368536
17	0xbc1b6f5c	-0.009486999
18	0xbd7ae5ae	-0.061254196
19	0x3ca7368d	0.020411754
20	0xbd887dcf	-0.06664621
21	0xbc324d63	-0.010882708
22	0x3cdda572	0.02705643
23	0xbd9e1bbe	-0.07720135
24	0xbc9c5a35	-0.019085983
25	0xbda5567d	-0.08073137
26	0xbd965c9c	-0.073418826
27	0xbd44159e	-0.04787218
28	0xbc96fc8a	-0.018430967
29	0xbd1ec63f	-0.03876328
30	0xbd72a815	-0.059242327
31	0xbd25c3bf	-0.04046988
32	0xbd457203	-0.048204433
33	0xbdad7574	-0.08469668
34	0xbd1a366f	-0.03764957
35	0x3d489f57	0.048980083
36	0x3dacd21a	0.08438511
37	0xbdb17967	-0.08665734
38	0xbcaade49	-0.020857947
39	0x3d3ab6b5	0.0455844
40	0xbbb39fe8	-0.005481709
41	0xbd356608	-0.044286758
42	0x3b89db8b	0.0042070798
43	0x3b00815a	0.001960835
44	0xbd74b131	-0.059739295
45	0xbd5ee491	-0.054417197
46	0xbd8430c8	-0.06454617
47	0xbe094276	-0.13404259
48	0xbde7a2f9	-0.113103814
49	0xbcb2bfe6	-0.02182002
50	0xbd36c49f	-0.044621106
51	0xbc2b938d	-0.010472191
52	0xbddd38a5	-0.1080182
53	0x3ce812c6	0.028329264
54	0xbd8bbaa8	-0.06822711
55	0x3d4edc7d	0.050503243
56	0x3d490278	0.04907462
57	0xbd825745	-0.063643016
58	0xbb5d9fda	-0.0033817203
59	0xbc903613	-0.01760391
60	0xbd6d4d12	-0.057934828
61	0x3cc01a12	0.023449931
62	0xbcb6b117	-0.02230124
63	0x3c0bd133	0.008533764

rconvs.2.weight f4 [64, 64, 3]
0	0x3b0b20f3	0.0021229356
1	0xbd3c5893	-0.04598291
2	0x3d2005b3	0.039067935
3	0x3ba32835	0.0049791583
4	0x3bc745c5	0.006081315
5	0xbd943c7e	-0.072381005
6	0xbd53223d	-0.051546324
7	0x3d855ce8	0.06511861
8	0xbd6e8743	-0.058234464
9	0xbbcc6022	-0.006237046
10	0x3cff2699	0.031146334
11	0x3d047d63	0.03234614
12	0x3d3be95c	0.045876846
13	0xbc1fc61c	-0.009751823
14	0xbca17916	-0.019711059
15	0xbd9a97fd	-0.07548521
16	0xbaac8221	-0.001316134
17	0xbc39b93b	-0.011335666
18	0x3b404403	0.0029337413
19	0xbce1df9a	-0.027572442
20	0xbdaa5234	-0.0831646
21	0x3d4b9c69	0.04970971
22	0x3c094586	0.008378392
23	0xbd6ed93a	-0.058312632
24	0xbdc3924a	-0.09549387
25	0xbce11ace	-0.027478602
26	0x3cca59df	0.024701057
27	0xbcfd188c	-0.030895494
28	0xbd3b4206	-0.04571726
29	0xbd137525	-0.03600039
30	0xbc5cffe9	-0.013488748
31	0x3c7a2b46	0.015269106
32	0xbe323e46	-0.17406568
33	0xbc9ea8ae	-0.019367542
34	0xbdce154f	-0.10062658
35	0x3b936dd8	0.0044991784
36	0x3d22eb84	0.039775386
37	0xbd59e0b2	-0.0531928
38	0xbd8ae691	-0.06782258
39	0x3d520a6e	0.051279478
40	0x3bf3d034	0.007440591
41	0xbd0b3ed3	-0.03399546
42	0xbd015cc8	-0.031582624
43	0xbd2d93c4	-0.04237725
44	0xbc92ca2c	-0.017918669
45	0xbc0e1fd6	-0.0086745825
46	0x3da0a1bd	0.07843349
47	0x3b0ca818	0.0021462496
48	0xbd1d9d29	-0.038479958
49	0x3cde2913	0.027119195
50	0x3c780d7d	0.015139935
51	0xbd9d26fe	-0.07673453
52	0x3cb67f7e	0.02227759
53	0xbdd7433a	-0.10510869
54	0x3cb045c4	0.021517642
55	0xbd72df81	-0.05929518
56	0x3ba1f648	0.004942689
57	0xbd166f2b	-0.03672711
58	0xbc8ea99e	-0.017414864
59	0xbd46a94e	-0.048501305
60	0xbd44cb2e	-0.04804533
61	0x3db971b1	0.09054888
62	0xbd0c4c34	-0.03425236
63	0xbd2ce92b	-0.042214554
64	0xbc8acfad	-0.01694473
65	0xbda629d5	-0.081134476
66	0xbdbbbc55	-0.09166781
67	0xbd9df954	-0.07713571
68	0x3cc637d3	0.024196541
69	0x3cc378d1	0.02386132
70	0xbdc545df	-0.096324675
71	0xbccb2b59	-0.024800943
72	0xbd916dd5	-0.07101027
73	0xbcc8d5bb	-0.024515977
74	0xbd34fde2	-0.044187434
75	0xbd1791c8	-0.037004262
76	0x3d121db8	0.035672873
77	0xbcddce4a	-0.027075905
78	0xbd821c7e	-0.06353091
79	0xbde1484d	-0.110001184
80	0x3d5dc6ea	0.054144777
81	0x3c9af758	0.01891677
82	0xbd80a2f0	-0.06281078
83	0x3cbb1aca	0.022839922
84	0x3c4b6cb1	0.012416051
85	0xbdbfdd97	-0.09368437
86	0xbccfb1c7	-0.025353326
87	0xba9c8d9d	-0.001194406
88	0xbd0a2e58	-0.033735603
89	0xbcb21554	-0.021738686
90	0xbcb8e1ee	-0.02256867
91	0x3da34844	0.07972768
92	0xbcccba04	-0.024991043
93	0xbd80a480	-0.06281376
94	0xbd053a7f	-0.03252649
95	0xbd8c6d8c	-0.06856832
96	0x3ca0f530	0.019648165
97	0xbdbfce9a	-0.09365578
98	0xbdb73bec	-0.08946976
99	0xbd3355f6	-0.04378315
100	0xbdb6b5d1	-0.089213975
101	0x3cac8c23	0.021062916
102	0xbd96e0b2	-0.07367076
103	0xbda10c12	-0.0786363
104	0xbc9a79f9	-0.01885699
105	0x3c8ff270	0.017571658
106	0xbd340afc	-0.043955788
107	0xbcb3eedc	-0.021964483
108	0x3d05d562	0.0326742
109	0xbc54262d	-0.012948555
110	0xbd84c84b	-0.06483515
111	0xbd3ef77e	-0.046622746
112	0xbcb6abae	-0.02229866
113	0xbd8e11ab	-0.06936964
114	0xbd8f1d42	-0.06988002
115	0xbc94bc4d	-0.018156195
116	0xbd8707c2	-0.065932766
117	0xbca6bfd6	-0.020355146
118	0x3d1b6e75	0.037947137
119	0xbd9913c0	-0.0747447
120	0xbd94dc2c	-0.07268557
121	0x3d30de3d	0.043180693
122	0x3d59e301	0.053195003
123	0xbdaba677	-0.0838136
124	0xbb944929	-0.004525323
125	0x3d0eb112	0.034836836
126	0xbd9d2317	-0.076727085
127	0xbb4f97df	-0.0031676216
128	0xbd246f17	-0.040145006
129	0xbbd224d8	-0.0064130835
130	0x3d5e3475	0.054249246
131	0x3d5c4678	0.05377814
132	0xbd646b75	-0.05576654
133	0xbba6243b	-0.005070237
134	0x3ca63c73	0.020292496
135	0x3c8b1aad	0.016980493
136	0x3b936a35	0.004498745
137	0x3c65558b	0.013997446
138	0xbd187d5f	-0.03722894
139	0xbd15b92c	-0.036553547
140	0x3db4ef1c	0.08834669
141	0xbc7f4b01	-0.015581847
142	0x3d6d2071	0.057892267
143	0xbd436f89	-0.04771379
144	0x3dff296e	0.12459074
145	0xbcdb7365	-0.026788423
146	0x3d0c0e0b	0.03419308
147	0x3d9648f8	0.073381364
148	0x3c12e39e	0.008965401
149	0x3db0a3f7	0.08625024
150	0xbd77742c	-0.060413525
151	0x3d509b0c	0.050929114
152	0xbc333958	-0.010938965
153	0x3dd9069e	0.10596965
154	0x3da7fd07	0.08202558
155	0xbd091def	-0.033475813
156	0xbd207a2d	-0.039179016
157	0xbcb9d8f3	-0.022686457
158	0x3cccd464	0.02500362
159	0x3cf3be72	0.029753897
160	0xbd84aff0	-0.0647887
161	0x3d8d88e3	0.06910875
162	0x3d0a681e	0.0337907
163	0x3d9a5636	0.07535975
164	0xbd5bb91b	-0.053643327
165	0x3cb01fe5	0.021499583
166	0x3cf55b6a	0.029950816
167	0xbd5714b6	-0.052509986
168	0xbc949af6	-0.018140297
169	0xbd0dfd5b	-0.034665447
170	0xbd0781aa	-0.03308264
171	0xbd800888	-0.06251627
172	0xbce33328	-0.027734354
173	0xbde049bd	-0.109515645
174	0xbd749cfa	-0.059720017
175	0xbe129d9b	-0.14317934
176	0xbcc4cf22	-0.02402455
177	0x3c503536	0.012707999
178	0x3c8b63e6	0.017015409
179	0xbd42a951	-0.047524754
180	0x3d10442a	0.035221256
181	0xbc9ee05c	-0.019394092
182	0xbba92354	-0.005161682
183	0xbcc78a3a	-0.024357904
184	0xbaab3fc8	-0.0013065273
185	0xbdb563eb	-0.088569485
186	0xbd223448	-0.03960064
187	0xbd713f63	-0.05889834
188	0xbc9d10a7	-0.01917298
189	0xbccb92d9	-0.024850296
190	0xbc833b40	-0.016019464
191	0x3c12898b	0.008943926
192	0xbd3a5042	-0.045486696
193	0xbd28ae2d	-0.041181732
194	0xbc80ce98	-0.015723512
195	0xbd1625a6	-0.036656998
196	0xbd1eaf17	-0.038741197
197	0xbd229303	-0.039690983
198	0x3cb841b4	0.022492267
199	0xbd0951e6	-0.03352537
200	0xbd7c5b05	-0.06161024
201	0xbd039164	-0.032121077
202	0xbda529b4	-0.08064595
203	0xbd106a57	-0.035257664
204	0xbdb3bc79	-0.08776183
205	0xbd8a34c5	-0.06748346
206	0xbd2920e6	-0.04129114
207	0xbd8c838a	-0.068610266
208	0x3d07406b	0.033020418
209	0xbd4ba410	-0.04971701
210	0xb89cc09f	-7.474538e-05
211	0xbd809e98	-0.06280249
212	0xbd82e9af	-0.06392228
213	0xbda39135	-0.079866804
214	0xbdb46cc0	-0.08809805
215	0x3b64f8dc	0.003493837
216	0x3ccf19da	0.025280882
217	0xbca2571b	-0.019816926
218	0xbd363325	-0.04448237
219	0x3d1a8a7e	0.037729733
220	0x3c04de62	0.008109661
221	0xbce40ae4	-0.027837224
222	0xbcb9dc15	-0.022687951
223	0xbd237f40	-0.039916277
224	0xbaca0393	-0.0015412442
225	0x3d0d41f1	0.034486715
226	0x3d2f5e48	0.042814523
227	0x3c94a278	0.018143877
228	0xbdac8361	-0.08423496
229	0x3c84c97f	0.016209362
230	0xbc60d7cc	-0.013723325
231	0xbda5beff	-0.0809307
232	0x3cef7075	0.029228428
233	0xbd99325d	-0.07480309
234	0x3d044912	0.032296248
235	0x3d5c5373	0.05379052
236	0xbdae7ad1	-0.08519519
237	0xbd945e64	-0.07244566
238	0xbdac7dda	-0.08422442
239	0xbd80d109	-0.0628987
240	0xbd884c14	-0.06655136
241	0xbd03851c	-0.032109365
242	0xbcc05bbb	-0.02348124
243	0xbd892fbf	-0.0669856
244	0x3d4a4676	0.049383603
245	0xbd48c8e1	-0.049019698
246	0x3d3afcb1	0.04565114
247	0x3d5c4cc8	0.05378416
248	0x3cd27f50	0.025695473
249	0x3d51669c	0.051123247
250	0xbd8751d3	-0.066074036
251	0x3c3ace20	0.011401683
252	0xbcbbce0b	-0.022925397
253	0x3b7c9396	0.0038540117
254	0xbd01e0d7	-0.031708565
255	0xbb3dd7c5	-0.002896772

rconvs.2.bias f4 [64]
0	0xbbb1673f	-0.005413919
1	0xbc244401	-0.010025979
2	0xbd41ea73	-0.04734273
3	0xbdaeb7c1	-0.08531142
4	0xbcea5734	-0.028606035
5	0xbc021c73	-0.007941353
6	0xbd969b65	-0.07353858
7	0xbcb55306	-0.022134315
8	0xbd507cff	-0.050900456
9	0xbdc02726	-0.09382467
10	0xbdb3b2db	-0.08774348
11	0x3de63254	0.11240068
12	0xbdaba2a7	-0.08380633
13	0xbdb36d0f	-0.08761036
14	0xbd1cc3a4	-0.038272515
15	0xbd542b88	-0.051799327
16	0xbd2d4b89	-0.042308364
17	0x3c939b00	0.018018246
18	0xbed7e4cb	-0.42166743
19	0xbd1a86d2	-0.03772623
20	0xbd66a49b	-0.056309324
21	0xbda39c55	-0.07988802
22	0x3c8dd54b	0.01731362
23	0xbd451ccc	-0.048123166
24	0xbda49012	-0.08035292
25	0xbd42dcd8	-0.047573894
26	0xbd985a8f	-0.07439148
27	0xbcc957e8	-0.02457805
28	0xbe10114b	-0.14069097
29	0xbc6ea8b7	-0.014566592
30	0xbcd69ae1	-0.026196899
31	0xbdc7b327	-0.097509675
32	0xbd7b000f	-0.061279353
33	0xbd37eaf0	-0.04490179
34	0xbc95b5ed	-0.018275226
35	0xbcb4291c	-0.021992259
36	0xbce4017e	-0.027832743
37	0xbd7d7ca5	-0.06188645
38	0x3d2cc6a5	0.04218163
39	0xbbd6b595	-0.006552408
40	0x3d0464cc	0.03232269
41	0xbd179967	-0.03701153
42	0xbdef4493	-0.11683001
43	0xbc86fa49	-0.016476767
44	0xbd223d15	-0.039609034
45	0xbca74a18	-0.020421073
46	0xbdc1a034	-0.094543844
47	0x3ca98946	0.02069534
48	0xbda0691e	-0.078325495
49	0xbc96a12c	-0.0183874
50	0x3c539f07	0.012916333
51	0x3a39c9b4	0.0007087246
52	0xbd4f9588	-0.050679713
53	0x3d6abf7e	0.057311527
54	0xbd87d132	-0.06631698
55	0xbd79ad21	-0.060956124
56	0xbd73087f	-0.059334274
57	0xbd942644	-0.07233861
58	0xbd36ce8c	-0.044630572
59	0xbd4b2825	-0.04959883
60	0xbd37b96a	-0.04485456
61	0xbd58594a	-0.052819528
62	0xbd83df1b	-0.06439038
63	0x3ca6ac23	0.020345753

rconvs.3.weight f4 [64, 64, 3]
0	0xbd45c607	-0.048284557
1	0xbd5f5034	-0.054519847
2	0x3d05a1a6	0.032624863
3	0x3d904c2a	0.07045777
4	0xbd8e67e1	-0.06953407
5	0xbbc326c5	-0.0059555494
6	0xbc042cd8	-0.008067332
7	0x39801c80	0.00024435297
8	0x3ba657a5	0.005076366
9	0xbd82c339	-0.06384892
10	0xbd8fd936	-0.070238516
11	0x3cd136b9	0.02553879
12	0xbc8c442e	-0.017122354
13	0xbd9b8887	-0.075944
14	0x3d210251	0.03930885
15	0xbd93339c	-0.07187578
16	0xbc2ec935	-0.010668089
17	0x3b1f7559	0.002433142
18	0xbe0c5e6e	-0.13707897
19	0xbd30906b	-0.043106478
20	0xbcd637fb	-0.02614974
21	0xbbab39fd	-0.0052254186
22	0xbd18e6fb	-0.037329655
23	0xbd936138	-0.071962774
24	0x3d27a07f	0.040924545
25	0x3c722929	0.014780321
26	0xbd8b0571	-0.06788147
27	0x3b877c7c	0.0041347127
28	0xbc55b61a	-0.013043905
29	0xbba87b48	-0.0051416494
30	0x3cac98db	0.02106898
31	0xbe51b26b	-0.20478217
32	0xbe05e8ff	-0.13077162
33	0xb9b2c928	-0.0003410068
34	0x3c05ad3b	0.008158977
35	0x3c8c6be0	0.017141283
36	0xbd797dcf	-0.060910996
37	0xbcec4db9	-0.028845655
38	0xbd2e08f9	-0.042489026
39	0xba610e09	-0.000858516
40	0xbd8830fa	-0.066499665
41	0xbd5bce83	-0.05366374
42	0xbcefd196	-0.029274743
43	0xbe04325c	-0.12909836
44	0xb98407c7	-0.00025182797
45	0x3c2e7568	0.010648109
46	0xbd0e7147	-0.034776
47	0xbd1e8b78	-0.038707227
48	0x3d36a8cd	0.044594575
49	0xbcad051c	-0.0211206
50	0x3ce6399f	0.028103648
51	0x3d17e1d8	0.037080616
52	0xbcde8d29	-0.02716692
53	0x3d39b1f8	0.04533574
54	0xbde0e8b6	-0.10981886
55	0x3e30c012	0.17260769
56	0x3d235766	0.03987827
57	0xbc9b186c	-0.018932544
58	0xbd5aecbb	-0.05344842
59	0x3ccc8dee	0.024970021
60	0xbd98e62a	-0.07465775
61	0x3d014a6f	0.031565126
62	0x3bead14e	0.0071660643
63	0x3b9e1357	0.004824083
64	0xbd8c4848	-0.06849724
65	0x3cef349c	0.02919989
66	0x3d15fef8	0.03662011
67	0xbd796140	-0.06088376
68	0xbd282faf	-0.0410611
69	0x3ca23861	0.019802274
70	0x3cec5278	0.028847918
71	0x3c169ff2	0.009193407
72	0x3ce3070d	0.027713323
73	0x3c75f0e0	0.015011042
74	0xbc2943dc	-0.01033112
75	0xbda0760e	-0.07835017
76	0xbd9b6bda	-0.075889304
77	0xbd3e6a75	-0.046488244
78	0xbd772d37	-0.060345855
79	0x38a056a7	7.645535e-05
80	0xbd9ab4bc	-0.075540036
81	0xbd18c4fa	-0.037297226
82	0x3d05c767	0.032660868
83	0x3d500c52	0.050793
84	0xbb110d5c	-0.0022133207
85	0xbc80c00d	-0.015716577
86	0x3c6b4a12	0.014360921
87	0xbc0a1ccb	-0.008429716
88	0xbd254e21	-0.040357713
89	0xbd9df600	-0.077129364
90	0x3b87581c	0.0041303765
91	0xbcf60864	-0.030033298
92	0xbc8c0db8	-0.017096385
93	0xbd1706a4	-0.036871567
94	0xbc3993f6	-0.011326781
95	0x3c72282b	0.014780085
96	0xbd6ac289	-0.05731443
97	0x3ce9c74a	0.028537411
98	0xbd9cd94f	-0.07658636
99	0xba8f54e8	-0.0010935338
100	0xbd13bcd4	-0.036068752
101	0xbd4331a3	-0.04765476
102	0xbd44ff26	-0.04809489
103	0xbd8f630e	-0.07001315
104	0xbd941267	-0.072300725
105	0xbcc6cfc6	-0.024268996
106	0xbdad8ea9	-0.08474476
107	0x3a8abb5a	0.00105844
108	0x3be9b2d2	0.0071319127
109	0x3c4f91d2	0.012669044
110	0xbdb917d5	-0.09037749
111	0x3c86bbcd	0.016446972
112	0x3c871a68	0.016492084
113	0xbd94d043	-0.07266285
114	0xbd491978	-0.049096555
115	0xbd913dac	-0.07091841
116	0xbd47a741	-0.04874349
117	0x3b909573	0.004412347
118	0xbd2befcd	-0.04197674
119	0xbdba1fc9	-0.09088094
120	0x3c6039fb	0.013685699
121	0x3c54a66f	0.012979134
122	0xbd108d33	-0.035290908
123	0xbd6fcdd3	-0.0585459
124	0xbd67d30b	-0.05659775
125	0xbcd09f30	-0.025466532
126	0xbaac86b1	-0.00131627
127	0x3d7ac683	0.06122447
128	0xbd47624c	-0.048677728
129	0x3d3ecba2	0.046580918
130	0xbd8bfb78	-0.06835073
131	0x3d2ae498	0.04172191
132	0x3cea6fa3	0.028617686
133	0x3d4e45c0	0.050359488
134	0xbd0a59db	-0.0337771
135	0xbd1613a8	-0.03663984
136	0xbd95bc8d	-0.07311354
137	0x3cad051f	0.021120606
138	0x3d2b62f9	0.041842435
139	0x3da5d264	0.080967695
140	0xbdd32442	-0.1030965
141	0x3d33d467	0.043903735
142	0x3d734dc6	0.059400342
143	0xbd21bd53	-0.039487194
144	0x3d29b0aa	0.041428246
145	0x3cac334e	0.021020558
146	0xbcea75a0	-0.028620541
147	0xbd8950bc	-0.06704852
148	0x3d093b51	0.033503834
149	0xbda025f5	-0.0781974
150	0xbda38a5c	-0.07985374
151	0x3cb7a032	0.022415254
152	0xbcad0984	-0.021122701
153	0xbda94a56	-0.082661316
154	0xbbb880d3	-0.0056305914
155	0xbd484712	-0.048895903
156	0xbd1adc1d	-0.037807573
157	0xbb00f2ce	-0.0019675973
158	0x3d29d266	0.041460417
159	0x3d4dfe6c	0.050291464
160	0xbc7df8d6	-0.015501222
161	0xbd83fcac	-0.06444678
162	0xbd26e829	-0.04074875
163	0xbd951e57	-0.072811775
164	0xbcd447a8	-0.025913075
165	0xbd193379	-0.037402604
166	0x3cbcfaed	0.02306887
167	0x3cd9e27b	0.026597252
168	0x3d224cfc	0.0396242
169	0x3c7096b8	0.014684372
170	0x3c58d433	0.013234186
171	0xbb8b1e3c	-0.0042455476
172	0x3b080cd3	0.0020759597
173	0x3dc17dde	0.094478354
174	0x3de5336f	0.11191451
175	0xbc07af4a	-0.008281538
176	0xbd08f3dd	-0.03343569
177	0x3d2bf856	0.04198488
178	0xbd4addec	-0.049528047
179	0x3a88bc05	0.0010432011
180	0x3d3c53da	0.045978405
181	0xbd9bf7bb	-0.0761561
182	0x3c73efb7	0.014888695
183	0x3ca51a11	0.020154031
184	0x3d4dbc35	0.050228316
185	0xbd9f6c76	-0.07784359
186	0xbc9d624e	-0.019211914
187	0x3c851924	0.01624734
188	0x3cc45414	0.023965873
189	0xbd86d7b5	-0.065841116
190	0xbbb67750	-0.0055684224
191	0xbd401057	-0.046890583
192	0x3cfa5937	0.03056012
193	0xbd584747	-0.05280235
194	0xbc35c81a	-0.011095071
195	0x3cb1b029	0.021690445
196	0xbc49cd39	-0.012316995
197	0xbd4ccd52	-0.050000496
198	0xbdad191f	-0.08452057
199	0xbca81c26	-0.020521235
200	0x3c60a046	0.013710087
201	0x3cfaf103	0.030632501
202	0xbd0c2948	-0.034219056
203	0x3cca8c7e	0.024725195
204	0xbb8d4dea	-0.0043122666
205	0xbda111de	-0.07864736
206	0xbd760f47	-0.060073163
207	0x3bc1a50c	0.0059095677
208	0xbdb8e252	-0.09027542
209	0x3bcc836f	0.006241254
210	0xbc555ef8	-0.013023131
211	0xbda97d48	-0.082758486
212	0xbce32b57	-0.027730627
213	0xbd2b8b75	-0.041881043
214	0x3a2e51f3	0.00066497846
215	0x3d2e128f	0.042498168
216	0xbd60b593	-0.054860663
217	0xbd8f317b	-0.069918595
218	0xbdb838d0	-0.08995211
219	0xbd56c9a6	-0.0524384
220	0x3cebf131	0.028801532
221	0x3cdbfcd9	0.026853966
222	0xbd8f18e4	-0.069871694
223	0xbd4c5997	-0.049890127
224	0xbd099687	-0.03359082
225	0x3cd57f67	0.026061727
226	0xbd90b934	-0.07066575
227	0xbd245e2c	-0.04012887
228	0xbd6aa9ec	-0.057290956
229	0x3ca631d2	0.020287428
230	0xbbf0b9ce	-0.0073463684
231	0x3d477966	0.04869976
232	0xbda12d93	-0.07870021
233	0xbd408ec6	-0.04701116
234	0xbd0ca5eb	-0.03433792
235	0xbd5ca937	-0.053872313
236	0xbdaff213	-0.08591094
237	0xbce2c42d	-0.027681435
238	0xbd1bc85f	-0.038032886
239	0xbdb1fafd	-0.0869045
240	0xbd47e3a0	-0.048801064
241	0xbda2af04	-0.07943538
242	0xbd7d2ff3	-0.061813306
243	0xbda06e84	-0.07833579
244	0xbca81636	-0.020518404
245	0x3a00030b	0.0004883266
246	0x3d025dc8	0.031827718
247	0x3c877295	0.01653413
248	0xbcf0b0d1	-0.029381188
249	0xbdb25c1b	-0.08708974
250	0xbc46d070	-0.012134656
251	0xbd6d686d	-0.057960916
252	0x3d02d33a	0.031939723
253	0x3cda49fe	0.02664661
254	0xbc8a87fc	-0.016910546
255	0x3d2d1116	0.042252623

rconvs.3.bias f4 [64]
0	0x3c3f93a2	0.011692913
1	0xbdb5cbd4	-0.08876768
2	0xbcc7f8db	-0.024410656
3	0xbd0c65b8	-0.034276694
4	0xbd88977c	-0.06669518
5	0xbca6c63d	-0.0203582
6	0xbe508e8c	-0.20366877
7	0x3c8e2c84	0.017355211
8	0xbd531bb4	-0.05154009
9	0xbdba62ea	-0.091008976
10	0xbd635223	-0.055498254
11	0xbc54d0d1	-0.012989239
12	0xbd7c0741	-0.061530355
13	0x3d7531cc	0.059861943
14	0xbdab569c	-0.08366129
15	0xbb76d147	-0.003766136
16	0x3d637098	0.0555273
17	0x3d4d271d	0.05008613
18	0xbc3c8807	-0.011507041
19	0xbdde38e3	-0.10850694
20	0xbd4db7f9	-0.050224278
21	0xbb679024	-0.0035333717
22	0x39237f9b	0.00015592428
23	0xbd623ff0	-0.055236757
24	0xbd78a13e	-0.060700648
25	0x3da0037e	0.07813166
26	0xbd514fbd	-0.051101435
27	0x3c232ed4	0.009959895
28	0xbd419478	-0.04726073
29	0x3cade3fa	0.021226872
30	0x3c66c3b9	0.01408475
31	0xbd31b226	-0.043382786
32	0x3aff85d9	0.0019494846
33	0xbd6c109c	-0.057633027
34	0xbc2cc60f	-0.010545268
35	0xbbf628b0	-0.0075121745
36	0xbd3a54a0	-0.04549086
37	0xbdb8ae60	-0.090176344
38	0xbdb1a5f1	-0.08674229
39	0xbd624522	-0.05524171
40	0xbd033456	-0.032032333
41	0xbd058771	-0.03259987
42	0x3d183fba	0.03717015
43	0xbd0a25e9	-0.03372756
44	0xbc0f7fa2	-0.008758457
45	0xbd73854a	-0.059453286
46	0xbda4487b	-0.08021637
47	0xbd945ae0	-0.072438955
48	0xbd4abb39	-0.049494956
49	0xbbe883d8	-0.007095795
50	0x3b5a1b73	0.0033280521
51	0xbd48b61a	-0.04900179
52	0x3d60f99f	0.054925557
53	0x3da9a395	0.08283154
54	0x3d691fe4	0.05691518
55	0xbd984bf2	-0.074363604
56	0xbc798b26	-0.0152309295
57	0x3c088486	0.008332377
58	0x3b9db46d	0.004812768
59	0x3cbec47a	0.023287047
60	0x3b20a586	0.0024512722
61	0x3cf3ad57	0.02974574
62	0xbd419d2a	-0.047269024
63	0x3bf47330	0.0074600205

rconvs.4.weight f4 [64, 64, 3]
0	0xbdb33e23	-0.08752086
1	0xbd9b8a5a	-0.07594748
2	0x3c7611b4	0.015018869
3	0xbd6824fc	-0.056675896
4	0xbcf92682	-0.03041387
5	0x3d497d4f	0.04919177
6	0xbda20c90	-0.07912552
7	0x3d186d6e	0.037213735
8	0x3df88725	0.12135152
9	0xbcb80deb	-0.022467574
10	0xba81858d	-0.000988172
11	0xbbdc99ea	-0.006732215
12	0xbd8a2afa	-0.067464784
13	0xbd34eb67	-0.04416981
14	0xbd43f44c	-0.0478404
15	0xbc90c2d2	-0.017671023
16	0xbd8a1d0e	-0.06743823
17	0x3cb2bbaf	0.02181801
18	0x3e24b828	0.16085875
19	0xbd961bcb	-0.0732952
20	0xbcd5ce6a	-0.026099402
21	0xbb22e747	-0.002485709
22	0x3d2296ae	0.03969448
23	0xbd3ac073	-0.04559369
24	0xbd5e6434	-0.05429478
25	0x3b8bac61	0.0042624925
26	0xbd459abc	-0.04824327
27	0xbd467925	-0.048455376
28	0xbcc76170	-0.024338454
29	0xbd6bdf70	-0.057586133
30	0xbdc0fd83	-0.094233535
31	0xbd88e133	-0.06683578
32	0xbd82ea77	-0.06392377
33	0x3e00f2e3	0.12592654
34	0x3dc451cd	0.09585915
35	0xbd625759	-0.055259082
36	0xbdd05b46	-0.10173659
37	0xbd20fda6	-0.039304398
38	0x3d158b04	0.03650953
39	0xbd22954a	-0.039693154
40	0xbd8554c1	-0.06510306
41	0xbd30820c	-0.043092772
42	0x3e09feb2	0.13476065
43	0x3e2061d5	0.1566232
44	0x3cd7f4a7	0.026361777
45	0x3e42cdd9	0.19023837
46	0xbbfe4113	-0.0077592223
47	0xbb2b1aa2	-0.0026108404
48	0xbc361381	-0.0111130485
49	0xbcaaf5da	-0.020869184
50	0xbdb5c0b7	-0.08874648
51	0x3cd443d3	0.025911247
52	0xbdb2ab25	-0.087240495
53	0xbe2493b7	-0.16071974
54	0xbde2cd3f	-0.11074304
55	0x3ca85871	0.020549985
56	0xbd2e22eb	-0.04251377
57	0x3c8d91aa	0.017281372
58	0xbdfc0974	-0.123064905
59	0x3c63f5db	0.013913597
60	0xbdde5a76	-0.10857098
61	0xbde0833c	-0.10962531
62	0xbdadecb5	-0.08492414
63	0x3d8cb37d	0.06870172
64	0xbcf3e46b	-0.029772004
65	0x3d9d3105	0.07675365
66	0x3d072a73	0.032999467
67	0x3c840dd0	0.016119868
68	0xbd3999ea	-0.0453128
69	0xbdad1598	-0.08451384
70	0x3c7bdde1	0.015372724
71	0x3d17609e	0.036957376
72	0x3d175147	0.036942746
73	0xbd894a22	-0.06703593
74	0x3b7ff607	0.0039056556
75	0x3d40cd98	0.04707107
76	0x3b72e5f9	0.0037063344
77	0x3df3884b	0.1189123
78	0x3dbbfee5	0.09179477
79	0x3d3b2323	0.045687806
80	0x3d32aaf9	0.043620083
81	0x3d31abd9	0.043376777
82	0xbd6d8642	-0.057989366
83	0x3d66e721	0.056372765
84	0xbdbe66ea	-0.09296973
85	0xbd068fb7	-0.0328519
86	0xbd752f68	-0.059859663
87	0x3cf804cc	0.030275725
88	0xbd16bdfa	-0.03680227
89	0xbdb71b22	-0.08940722
90	0x3a6c021b	0.0009002999
91	0xbd874c5b	-0.066063605
92	0xbd988a1f	-0.074482195
93	0x3ce30ac2	0.02771509
94	0x3d2c0795	0.04199942
95	0x3d3af7d8	0.04564652
96	0xbb6d5dfd	-0.0036219351
97	0xbc648ebe	-0.013950048
98	0xbc7f4736	-0.015580943
99	0x3bf93ca0	0.007606104
100	0x3d6a69e1	0.05722988
101	0x3d771010	0.060318053
102	0xbd930254	-0.071781784
103	0xbd6d8ed1	-0.05799753
104	0x3d801f03	0.06255915
105	0xbd70f8aa	-0.058830895
106	0x3d991b2b	0.07475885
107	0xbddb3970	-0.10704315
108	0xbcd2fc0f	-0.025754957
109	0x3da79e4b	0.08184489
110	0xbd6ab892	-0.057304926
111	0xbd5f3d43	-0.054501783
112	0xbdb0953b	-0.086222135
113	0xbcdc7228	-0.026909903
114	0xbd0671ce	-0.032823376
115	0xbd8b48ec	-0.06801018
116	0x3d271cf5	0.0407991
117	0xbd833d21	-0.06408144
118	0xbdbae3bd	-0.09125469
119	0xbb78e614	-0.0037978934
120	0x3d8032b1	0.062596686
121	0x3ccf8e22	0.025336329
122	0x3d86ebfc	0.06587979
123	0x3ba431cd	0.0050108195
124	0xbcea64a2	-0.028612439
125	0x3d1b84d7	0.037968483
126	0xbc23a12a	-0.009987155
127	0xbd81f6c0	-0.06345892
128	0xbd7c8409	-0.061649356
129	0x3d5c3c35	0.053768355
130	0xbdad90fa	-0.08474918
131	0xbd3f018f	-0.046632346
132	0xbd905cb9	-0.070489354
133	0xbdcc6ff7	-0.09982293
134	0xbdaf0a3d	-0.08546875
135	0x3bea872c	0.007157227
136	0xbd6ddc17	-0.058071222
137	0x3c83c2c5	0.016084084
138	0x3d6185de	0.055059306
139	0x3beffa40	0.0073235333
140	0x3e83da44	0.2575246
141	0xbd84b3c2	-0.064795986
142	0xbd33d629	-0.04390541
143	0xbc9ce7fa	-0.019153584
144	0xbdb30adf	-0.08742308
145	0xbd364e4b	-0.04450826
146	0xbd0fdef7	-0.035124745
147	0xba354177	-0.0006914357
148	0x3d4685e9	0.04846755
149	0x3c270647	0.010194368
150	0xbd64e9fa	-0.0558872
151	0xbd381823	-0.044944894
152	0x3ce0aee8	0.027427152
153	0xbd18766f	-0.037222322
154	0x3c704dba	0.014666969
155	0xbe0e7527	-0.13911878
156	0x3bc5769f	0.0060261036
157	0x3e003715	0.12521012
158	0xbd4d0020	-0.050048947
159	0x3ccab316	0.024743598
160	0xbd36c498	-0.04462108
161	0x3c11e854	0.008905489
162	0xbd4962b8	-0.04916641
163	0x399e6c7d	0.00030216938
164	0xbd359e8a	-0.044340648
165	0xbdd4cb55	-0.10390345
166	0xbc3299f2	-0.010900961
167	0xbc561a22	-0.013067754
168	0xbd4846ee	-0.04889577
169	0xbde0fff3	-0.109863184
170	0x3b1ed0fa	0.0024233446
171	0xbda6461d	-0.08118842
172	0xbcef49e1	-0.029210033
173	0xbd422d05	-0.047406215
174	0xbe2b3345	-0.16718777
175	0xbd964f6e	-0.07339369
176	0x3e03335f	0.12812565
177	0xbd7ad5dd	-0.061239112
178	0x3d0512d2	0.03248865
179	0x3d3986c9	0.045294557
180	0xbd959628	-0.07304031
181	0x3d5af285	0.05345394
182	0xbd7bcc83	-0.061474334
183	0xbd4dfba7	-0.050288823
184	0x3ccd17cc	0.025035761
185	0xbd253d74	-0.04034181
186	0xbb8c06a1	-0.004273251
187	0xbe069caa	-0.131457
188	0x3bdc49bf	0.0067226584
189	0xbd718350	-0.05896312
190	0xbc0a2e48	-0.008433886
191	0xbd97cd96	-0.07412259
192	0x3c2e6d29	0.010646143
193	0xbc7ac2e1	-0.015305252
194	0xbd11c1b7	-0.03558513
195	0xbc46d1bd	-0.012134966
196	0xbd895ede	-0.067075476
197	0xbc4bb8ac	-0.012434166
198	0xbd3723e7	-0.044711974
199	0x3d41bce4	0.04729928
200	0xbda94ce5	-0.082666196
201	0xbd96cf57	-0.07363766
202	0x397a88c6	0.0002389281
203	0xbd824388	-0.06360537
204	0xbd557dd5	-0.052121956
205	0xbd93bb03	-0.07213404
206	0xbbb6cdaa	-0.0055787163
207	0x3cd9cd55	0.026587168
208	0xbd391c61	-0.04519308
209	0x3c3bf4b2	0.011471914
210	0x3d256a02	0.0403843
211	0xbced2165	-0.028946588
212	0xbcf69a6f	-0.030102937
213	0xbd27158a	-0.040792026
214	0x3b1ff71b	0.002440876
215	0x3c1fa71f	0.009744435
216	0x3d0136c6	0.031546377
217	0xbd07df07	-0.03317168
218	0xbd329a40	-0.043604136
219	0x3d2e3b50	0.042537034
220	0xbdb4aba8	-0.08821803
221	0xbd6fbb69	-0.058528338
222	0xbe08af48	-0.13348114
223	0xbe225915	-0.15854295
224	0xbe259973	-0.16171817
225	0xbd3bbe67	-0.04583588
226	0xbd69d204	-0.057085052
227	0x3b1056cb	0.002202439
228	0x3bbaab8e	0.0056967204
229	0xbce978d8	-0.028500006
230	0xbd0ddf65	-0.034636874
231	0x3b64b029	0.0034895039
232	0xbbdf4d00	-0.006814599
233	0x3ceb72f2	0.028741334
234	0xbd023722	-0.03179086
235	0xbcc2f62d	-0.023799026
236	0x3cff247e	0.03114533
237	0x3d0689b5	0.03284617
238	0xbcf34ee6	-0.029700708
239	0x3c2980ed	0.01034568
240	0xbd92551e	-0.07145141
241	0xbce70152	-0.028198872
242	0xbc853e64	-0.016265102
243	0xbdb6cbbf	-0.0892558
244	0xbd147145	-0.036240835
245	0x3b98d59b	0.0046641356
246	0x3c80b5b9	0.015711652
247	0x3ae1179f	0.0017173177
248	0x39fab773	0.00047820396
249	0xbd389cba	-0.04507134
250	0xbd34055e	-0.04395043
251	0xbda2cbde	-0.07949041
252	0x3d4f2df7	0.050580945
253	0x3ca12f38	0.019675836
254	0x3cbc042e	0.022951212
255	0xbcff5f10	-0.031173259
