trained_models/pairs/HES1_HEYL_Model_state_dict.pt (torch, 550594 bytes, 22 tensors)

iconv.weight f4 [64, 4, 20]
0	0xbdb4200f	-0.08795177
1	0xbd4bdf06	-0.04977324
2	0xbcae65ac	-0.021288715
3	0xbc5c3550	-0.013440445
4	0x3d4a191b	0.04934035
5	0x3c562730	0.013070866
6	0xbd71221e	-0.058870427
7	0x3ce6a37e	0.028154131
8	0xbd9bcbf9	-0.07607264
9	0xbd32cfbf	-0.043655153
10	0xbc130f1d	-0.008975771
11	0x3d768f6f	0.060195383
12	0xbdc34d86	-0.09536271
13	0xbe06037d	-0.13087268
14	0xbd1f64e9	-0.038914595
15	0x3d971ed5	0.073789276
16	0x3d0a9a43	0.03383852
17	0xbc3e6162	-0.011619898
18	0xbc123837	-0.0089245355
19	0xbb7db149	-0.0038710407
20	0xbd80b244	-0.062840015
21	0x3dafd43e	0.08585404
22	0xbd23b11f	-0.039963838
23	0xbd9abed9	-0.075559326
24	0xbda4cd18	-0.08046931
25	0xbd454540	-0.048161745
26	0x3c635b60	0.013876766
27	0xbd01092e	-0.031502895
28	0xbd4772d1	-0.04869348
29	0xbceaa454	-0.02864281
30	0x3d8d2a05	0.0689278
31	0x3d6d0b8a	0.057872333
32	0x3dfe40bb	0.1241469
33	0x3e0bf6ca	0.13668361
34	0x3d317680	0.0433259
35	0xbc5338db	-0.012891973
36	0x3d2de48e	0.042454295
37	0x3d19f377	0.0375857
38	0x3d1688cf	0.036751565
39	0xbd9a5a0c	-0.07536706
40	0xbd697a93	-0.05700166
41	0x3d3cec39	0.046123717
42	0xbd947cd4	-0.072503716
43	0x3d1bd778	0.038047284
44	0x3d952128	0.07281715
45	0x3d878343	0.06616833
46	0x3cc4ffa2	0.024047676
47	0x3d5bbb89	0.053645644
48	0xbe1107e6	-0.1416317
49	0xbd0a5777	-0.03377482
50	0x3abc5f04	0.0014371579
51	0xbcbea4b6	-0.0232719
52	0xbe27bd73	-0.16380863
53	0xbc34ef65	-0.011043404
54	0xbd8c3502	-0.06846048
55	0xbde6b88d	-0.11265669
56	0x3d8365f3	0.0641593
57	0x3d3792eb	0.044817846
58	0x3c8b5b92	0.017011438
59	0xbce9fd47	-0.028563155
60	0xbda2f910	-0.07957661
61	0x3a8bc485	0.0010663426
62	0x3d017a88	0.031610996
63	0x3bbc255c	0.0057417583
64	0xbc6f22a1	-0.0145956585
65	0xbc118cf2	-0.008883702
66	0xbbe0a332	-0.006855392
67	0xbd033e20	-0.03204167
68	0xbd6ca52e	-0.057774715
69	0xbdba7a84	-0.09105399
70	0xbc277604	-0.010221008
71	0xbdfb0cc0	-0.12258291
72	0xbd87e966	-0.06636314
73	0xbd2c62d0	-0.042086422
74	0xbd5946cd	-0.053046037
75	0x3e082929	0.13296951
76	0x3dba044e	0.09082852
77	0x3c9f7164	0.019463249
78	0x3cf23144	0.029564507
79	0xbc5f27f3	-0.0136203645
80	0xbc652e27	-0.013988054
81	0xbc5a0369	-0.013306477
82	0xbe062e6b	-0.13103645
83	0xbe057a85	-0.13035019
84	0xbd2e2d81	-0.042523865
85	0x3a9311cf	0.0011220517
86	0x3d395b71	0.04525322
87	0xbd8c6e88	-0.0685702
88	0xbd0c8562	-0.03430689
89	0x3d767ed0	0.06017953
90	0xbc6f82b3	-0.0146185635
91	0xbd81f66a	-0.06345828
92	0xbd7f7869	-0.06237069
93	0xbced5fb7	-0.028976304
94	0x3cfeefc5	0.03112019
95	0xbc4b9eaf	-0.01242797
96	0x3d7e327e	0.06205987
97	0xbca36cb1	-0.019949289
98	0xbc90eee5	-0.017692039
99	0xbd37e55d	-0.044896472
100	0xbd0fd11f	-0.035111543
101	0xbc7be2ae	-0.015373869
102	0x3e2da34b	0.16956823
103	0xbe295595	-0.16536553
104	0x3d9ac4bd	0.07557056
105	0xbc7e6927	-0.015528
106	0xbcc93da5	-0.024565527
107	0xbd9994ed	-0.074991085
108	0x3a0dc4df	0.0005408059
109	0x3d94a430	0.07257879
110	0xbd6e25be	-0.058141463
111	0xbca5fbc1	-0.020261647
112	0xbd0ab56f	-0.033864435
113	0xbd5e56e1	-0.054282073
114	0x3cfabd2d	0.030607784
115	0x3d10f9f6	0.03539463
116	0x3d5069fb	0.05088232
117	0xbd448ff7	-0.047988858
118	0x3bcb89df	0.006211504
119	0xbcb63de8	-0.022246316
120	0xbd9c4f1a	-0.07632275
121	0xbcc8b035	-0.024498085
122	0xbe626160	-0.22107458
123	0x3e1b6f64	0.15179211
124	0x3cae198b	0.021252414
125	0x3c15ce48	0.00914342
126	0xbd383876	-0.04497572
127	0xbd97f65a	-0.07420035
128	0xbcc406c5	-0.02392901
129	0x3ca727bc	0.020404689
130	0x3c3ccdef	0.011523708
131	0x3c29ec8b	0.010371338
132	0x3c8af28c	0.016961358
133	0xbd34170e	-0.0439673
134	0x3d6e655a	0.058202125
135	0x3c23eb99	0.010004901
136	0x3cbfa6c0	0.023394942
137	0xbd0495a7	-0.032369282
138	0x3b6a6017	0.003576284
139	0xbcc9fce2	-0.024656717
140	0xbc2603ef	-0.010132774
141	0xbdc7834c	-0.0974184
142	0xbe25ab68	-0.16178668
143	0xbdf6bf13	-0.12048163
144	0x3d3882f1	0.04504675
145	0xbe0553fa	-0.13020316
146	0x3cb7471d	0.022372777
147	0xbd12c42d	-0.03583162
148	0x3cfd9ab4	0.030957557
149	0x3cfcb1cb	0.030846497
150	0xbda15f35	-0.078794874
151	0xbd49d399	-0.04927406
152	0xbd301016	-0.04298409
153	0xbd82e49e	-0.063912615
154	0xbc591f35	-0.013252069
155	0x3d7659e6	0.060144328
156	0x3d0b183e	0.033958666
157	0xbd297256	-0.041368805
158	0xbc0b9ed3	-0.008521753
159	0xbd46ca0b	-0.048532527
160	0xbdd60e8a	-0.10451992
161	0x3d717de3	0.058957946
162	0x3d2302bc	0.03979753
163	0x3caabc22	0.020841662
164	0xbdf40414	-0.1191484
165	0xbd96fe53	-0.07372727
166	0xbda8618c	-0.082217306
167	0xbd0b4bde	-0.0340079
168	0x3d6a6abf	0.057230707
169	0xbc62ad3f	-0.01383525
170	0x3c8024f9	0.01564263
171	0xbda085ee	-0.07838045
172	0x3dc13126	0.094332024
173	0xbd71dc00	-0.0590477
174	0x3d591ed7	0.053007927
175	0x3daa8cf9	0.0832767
176	0x3da7fbfb	0.08202358
177	0xbdc9402b	-0.09826692
178	0x3d973ceb	0.07384666
179	0x3d72a776	0.059241734
180	0xbd2c0340	-0.041995287
181	0x3d053115	0.03251751
182	0xbd8ae58f	-0.06782066
183	0x3d8e2e19	0.06942386
184	0xbcbf953c	-0.02338659
185	0xbd4e2c18	-0.05033502
186	0x3d3459f4	0.0440311
187	0xbdd55fd0	-0.104186654
188	0xbcf5501e	-0.02994543
189	0xbcf92d8f	-0.030417232
190	0xbc476951	-0.0121711055
191	0x3d369435	0.044574935
192	0xbdebf54b	-0.11521395
193	0xbd6a9026	-0.057266377
194	0xbdcaa2bf	-0.098943226
195	0xbcdf6f37	-0.027274711
196	0x3c3c6072	0.011497604
197	0xbbd41e74	-0.006473357
198	0x3cb2c90f	0.021824388
199	0x3d9e5b42	0.0773225
200	0x3d8084e9	0.062753506
201	0x3d385843	0.045006048
202	0x3b6d15fc	0.0036176434
203	0xbd8bdd73	-0.068293475
204	0xbdc08958	-0.09401196
205	0xbd2fbae7	-0.042902853
206	0x3d938034	0.07202187
207	0xbd046567	-0.032323267
208	0xbd374064	-0.044739142
209	0xbd3e2df1	-0.046430532
210	0x3d8fc360	0.07019687
211	0x3cb2241a	0.02174573
212	0x3d8b7dcc	0.06811103
213	0xbdb35f9e	-0.08758472
214	0x3d985f07	0.0744
215	0xbd45b9fd	-0.048273075
216	0xbd914e68	-0.07095033
217	0xbdfed26e	-0.1244248
218	0x3cbdc7ac	0.0231665
219	0xbdac67f2	-0.084182635
220	0x3d9ed4de	0.07755445
221	0x3ce15167	0.027504636
222	0xbd6bfd3a	-0.057614543
223	0x3de07d67	0.109614186
224	0x3d7e0ed2	0.062025853
225	0x3cd99bca	0.026563544
226	0x3d5d625d	0.054048885
227	0xbc8c9245	-0.01715959
228	0xbd84b8fd	-0.06480596
229	0xbaa6cc7d	-0.0012725737
230	0x3d955547	0.07291656
231	0xbdee158b	-0.11625203
232	0xbdd2520c	-0.102695554
233	0x3dac3cde	0.08410047
234	0xbd60abd2	-0.05485136
235	0xbdb8a015	-0.09014908
236	0xbd5976cf	-0.05309182
237	0x3d2c9dd6	0.04214271
238	0xbd73364e	-0.05937796
239	0x3db10a0d	0.08644495
240	0xbd4a87c2	-0.049445875
241	0xba9118ee	-0.0011070052
242	0xbde411a6	-0.11136179
243	0xbd4d4e6d	-0.05012362
244	0xbc26af3c	-0.010173615
245	0xbbc0039c	-0.0058598053
246	0xbc89f30b	-0.016839525
247	0xbd17736a	-0.0369753
248	0x3d8f6c09	0.07003028
249	0x3d1a9c26	0.03774657
250	0xbda5dfdd	-0.08099339
251	0x3d42093b	0.047372084
252	0x3d880421	0.066414125
253	0x3cabf34a	0.020990033
254	0xbdfe0edc	-0.12405178
255	0x3c0ab6fa	0.008466477

iconv.bias f4 [64]
0	0xbde00e76	-0.10940258
1	0x3d653fd6	0.05596908
2	0xbcbeb886	-0.023281347
3	0x3db8df8b	0.090270124
4	0xbd0876d7	-0.03331646
5	0xbda78feb	-0.08181747
6	0x3b18f73f	0.002334073
7	0xbd8bc536	-0.068247244
8	0x3d81d64e	0.063397035
9	0x3cc38b9f	0.023870287
10	0xbdd02b11	-0.10164464
11	0x3d7288c4	0.05921246
12	0xbbb2b5c2	-0.005453796
13	0xbd9cfeda	-0.076657966
14	0xbdef741f	-0.1169207
15	0x3d6c9745	0.05776145
16	0xbc71fd5a	-0.014769876
17	0xbde4a279	-0.11163802
18	0xbcb1a1ed	-0.021683658
19	0xbd3b8b13	-0.04578693
20	0xbd3edc10	-0.046596587
21	0xbdb46a20	-0.08809304
22	0xbd869703	-0.06571772
23	0x3ca6c756	0.020358723
24	0xbdf95f42	-0.12176372
25	0xbc41daaa	-0.011831919
26	0xbd274047	-0.040832784
27	0x3b6e51a9	0.0036364591
28	0xbd1d5aa3	-0.038416516
29	0xbd3ffdb1	-0.0468728
30	0x3cb2e8d7	0.021839542
31	0x3d2d7dd1	0.042356316
32	0xbde6e18c	-0.112734884
33	0xbdee195f	-0.11625933
34	0x3bfeb9c5	0.0077736103
35	0xbd7b60ef	-0.06137174
36	0xbdd06996	-0.10176389
37	0xbdfe6caf	-0.124230735
38	0x3d07e5c3	0.033178102
39	0xbdc36f29	-0.095426865
40	0x3d95b3fc	0.0730972
41	0xbd6184cb	-0.055058282
42	0x3d028ed4	0.031874493
43	0xbdd3d9a5	-0.10344247
44	0xbde2163a	-0.11039396
45	0xbd6bdaee	-0.057581834
46	0x3d928e2f	0.071560256
47	0xbe0e8e50	-0.13921475
48	0xbd9bde3f	-0.076107495
49	0xbdbd64e6	-0.092477605
50	0x3b97cd5a	0.004632634
51	0xbcb1b585	-0.021693
52	0x3ce4c55c	0.02792614
53	0x3cd5512f	0.026039688
54	0xbd44aa3e	-0.048013918
55	0xbc85373f	-0.016261695
56	0xbdc92d91	-0.09823144
57	0xbcc3e85e	-0.023914512
58	0xbdcfac24	-0.10140255
59	0xbbb752d7	-0.005594592
60	0xbcba4359	-0.022737192
61	0x3dac9740	0.08427286
62	0xbd0d6f06	-0.03452971
63	0x3d136cb5	0.035992343

rconvs.0.weight f4 [64, 64, 3]
0	0x3c57aa5b	0.0131631745
1	0xbd90e2d0	-0.07074511
2	0x3d32eee3	0.04368485
3	0xbd56244b	-0.052280705
4	0x3d379598	0.044820398
5	0xbd8e4891	-0.06947435
6	0x3d52b488	0.0514417
7	0xbc85f160	-0.016350448
8	0xbd1c1e3a	-0.038114764
9	0xbcf36af4	-0.029714085
10	0xbd5dd979	-0.054162476
11	0x3ccfefd2	0.02538291
12	0xbda3ad04	-0.079919845
13	0xbdac4672	-0.08411874
14	0xbd404676	-0.046942197
15	0xbb900a1e	-0.0043957373
16	0x3b379f53	0.0028018549
17	0x3d04d7cc	0.032432362
18	0xbda5a341	-0.08087779
19	0x3d18c543	0.0372975
20	0xbc420b41	-0.011843503
21	0xbd20b295	-0.03923281
22	0xbcd78c4a	-0.026312012
23	0xbd701542	-0.058614023
24	0xbda8c1ba	-0.082400754
25	0xbdb6ebbe	-0.08931683
26	0x3d1da821	0.03849042
27	0x3d5b1f00	0.05349636
28	0xbd8c3a26	-0.068470284
29	0xbb3d65f5	-0.0028899882
30	0x3d22024b	0.039552968
31	0x3ca83a82	0.020535711
32	0x3d0eb966	0.03484478
33	0xbcacdf54	-0.021102585
34	0xbd89a2bc	-0.06720492
35	0xbcbe2a8d	-0.02321365
36	0x3cd518e2	0.026012842
37	0xbba64bb9	-0.005074945
38	0xbd4ed93e	-0.050500147
39	0x3d498563	0.049199473
40	0x3d0ad1b8	0.03389141
41	0xbb1a6150	-0.0023556538
42	0xbd1d1929	-0.038354073
43	0x3d00dfc3	0.031463396
44	0x3cd881d0	0.026429087
45	0xbd2f9f43	-0.042876493
46	0xbc7e58b3	-0.015524077
47	0x3cab31d1	0.020897778
48	0x3a5483ee	0.0008106817
49	0xbb23833d	-0.002495005
50	0xbd678112	-0.056519575
51	0xbd89bb8c	-0.06725225
52	0xbb98fe15	-0.004668961
53	0x3a8400dc	0.0010071057
54	0x3cb22054	0.02174393
55	0xbd3c0973	-0.04590745
56	0x3a179d59	0.00057836395
57	0xbcb5a813	-0.02217487
58	0x3a46b8db	0.0007580646
59	0x3d10aed6	0.035322987
60	0xbcb81a85	-0.022473583
61	0xbd9e7ddf	-0.07738852
62	0xbdb7dc52	-0.0897757
63	0xbcefbe55	-0.029265562
64	0xbda48336	-0.08032839
65	0x3bf9e094	0.0076256488
66	0x3cd003d0	0.025392443
67	0xbd94d41a	-0.07267018
68	0x3c81aa7f	0.01582837
69	0xbc54eeef	-0.012996419
70	0xbd7ab1b6	-0.061204635
71	0xbd9f226d	-0.07770238
72	0x3d530e76	0.051527463
73	0xbbbad9ec	-0.005702248
74	0xbcca5aa1	-0.024701418
75	0xbcbef81c	-0.023311667
76	0x3b2e4224	0.0026589716
77	0x3c261948	0.010137863
78	0x3cc51673	0.024058556
79	0xbdb03ce8	-0.08605367
80	0xbc8a1785	-0.016856918
81	0x3d2ce517	0.042210665
82	0xbdc8bd31	-0.098017104
83	0xbd221c02	-0.03957749
84	0xbdc58934	-0.0964531
85	0x3c0a921a	0.008457685
86	0xbda508b1	-0.080582984
87	0xbc35d65f	-0.011098473
88	0xbd66aef9	-0.05631921
89	0x3d596cad	0.053082157
90	0x3cf4045b	0.029787233
91	0xbcbaea25	-0.022816727
92	0xbd8730b4	-0.06601086
93	0x3cc526e8	0.024066404
94	0xbd83dccc	-0.06438598
95	0xbd427769	-0.04747716
96	0x3beddaad	0.007258734
97	0xbdb7cf7f	-0.089751236
98	0xbdad0621	-0.084484346
99	0xbdc59c5f	-0.09648966
100	0xbd1e27f2	-0.038612314
101	0x3cbb1608	0.022837654
102	0xbcb62319	-0.022233533
103	0x3c7b1763	0.0153254
104	0xbbef2c00	-0.0072989464
105	0xbda9012e	-0.08252178
106	0xbd9791fa	-0.0740089
107	0xbd12119d	-0.03566133
108	0xbce398bb	-0.027782789
109	0x39def5b4	0.00042526203
110	0xbcf2513f	-0.029579757
111	0xbd444877	-0.04792067
112	0xbb51a3f7	-0.00319886
113	0x3d3f73a2	0.046741135
114	0xbd773398	-0.060351938
115	0x3c600943	0.013674083
116	0x3c82a8d3	0.015949642
117	0xb903bfa4	-0.00012564525
118	0xbda30056	-0.079590484
119	0xbd6d48bd	-0.057930697
120	0xbd863eb3	-0.06554928
121	0x3d116cc8	0.035504133
122	0x3a929868	0.0011184337
123	0xbb2a78a7	-0.0026011856
124	0xbd241417	-0.04005822
125	0x3cd3d6d3	0.025859272
126	0xbd8c557d	-0.06852243
127	0x3bacd76c	0.0052747037
128	0xbd9244e2	-0.071420446
129	0xbc2df559	-0.0106175775
130	0x3aed1b95	0.0018089885
131	0x3c0639e8	0.008192517
132	0xbdc933a7	-0.09824305
133	0xbd3b6210	-0.045747817
134	0xbb2e6e13	-0.0026615902
135	0x3c959010	0.01825717
136	0xbc64938f	-0.013951196
137	0x3cfa32cf	0.030541806
138	0x3d2da6ae	0.042395286
139	0xbc33553f	-0.010945617
140	0x3c37f275	0.01122724
141	0xbd3632cf	-0.04448205
142	0x3d44288d	0.047890235
143	0xbda3cf2a	-0.07998498
144	0x3b6c1609	0.0036023876
145	0xbc826f0e	-0.015922096
146	0xbc252349	-0.010079213
147	0x3d18b1e1	0.037279014
148	0xbd51d98f	-0.05123287
149	0xbd3c1a6b	-0.04592363
150	0xbd70cc79	-0.05878875
151	0x3b4d868f	0.003136072
152	0xbcf04393	-0.029329097
153	0xbdb3662f	-0.08759724
154	0xbd40dc96	-0.047085367
155	0xbd8f4f23	-0.06997516
156	0x3d4ba805	0.049720783
157	0xbd8d695f	-0.069048636
158	0x3d22df02	0.039763458
159	0xbdb8299a	-0.0899231
160	0xbd8b28d8	-0.067949
161	0xbdb1cb5a	-0.08681364
162	0xbd07755f	-0.03307092
163	0x3d53f848	0.05175045
164	0xbd8d9407	-0.069129996
165	0x3c137ba0	0.009001642
166	0xbd97c5cb	-0.07410773
167	0xbd399d61	-0.045316104
168	0xbdb21595	-0.08695523
169	0xbdb89ef0	-0.0901469
170	0xbcb6f00a	-0.022331256
171	0x3c4327b7	0.011911324
172	0xbd849665	-0.06473998
173	0xbd544ae6	-0.05182924
174	0xbda2b06a	-0.079438046
175	0xbdc633be	-0.09677838
176	0x3d231311	0.039813105
177	0xbd82ba72	-0.06383218
178	0xbd0b7d30	-0.034054935
179	0x3d09771b	0.033560853
180	0xbba0464f	-0.004891194
181	0xbd97cd2e	-0.07412182
182	0x3cb854d4	0.022501387
183	0xbd81c05a	-0.06335516
184	0xbdb146f2	-0.0865611
185	0x3b6778e0	0.003531985
186	0x3c666ad2	0.014063554
187	0xbd675c1a	-0.05648432
188	0xbdb24097	-0.08703726
189	0xbd5c704b	-0.05381803
190	0x3c9f89ef	0.019474952
191	0x3c14dd48	0.009085961
192	0x3b8d704b	0.004316365
193	0xbb953f17	-0.00455464
194	0xbd95778b	-0.07298192
195	0xb8406490	-4.5870023e-05
196	0xbd8d0190	-0.06885064
197	0xbc5ae1d9	-0.01335951
198	0xbcc82e6d	-0.0244362
199	0xbb7ee194	-0.003889178
200	0x3a60e161	0.0008578506
201	0xbd07bc09	-0.03313831
202	0xbb13a38a	-0.0022527897
203	0x3d1f5645	0.038900632
204	0xbcef3da5	-0.0292042
205	0xbdb22e3d	-0.087002255
206	0xbdbe908a	-0.093049124
207	0xbc02ab73	-0.007975447
208	0x3ca64919	0.020298528
209	0xbca6e743	-0.020373946
210	0x3d279da0	0.040921807
211	0x3c4d987e	0.012548564
212	0xbd262877	-0.040565934
213	0x3c9d2575	0.0191829
214	0x3ceea2fe	0.029130455
215	0xbbdffee0	-0.0068358034
216	0x3b3aac50	0.0028484054
217	0x3b5ff39e	0.0034172307
218	0xbd85ce59	-0.06533498
219	0x3d55e768	0.05222264
220	0x3ce73c41	0.028226973
221	0x3d043a22	0.032282002
222	0xbd1d7889	-0.03844503
223	0x3cf09798	0.02936916
224	0xbd98bbb1	-0.07457674
225	0xbca8404a	-0.020538468
226	0x3ca76737	0.020434959
227	0xbd3b7cfa	-0.045773484
228	0xbdb312a1	-0.087437876
229	0x3bb0bdf5	0.0053937384
230	0xbd0fea57	-0.035135593
231	0x3ce4ab93	0.027913844
232	0xbd5d7bd8	-0.054073185
233	0xbc475566	-0.012166357
234	0x3d0c9492	0.034321375
235	0xbd78f508	-0.060780555
236	0xbd837ea2	-0.06420638
237	0xbd36d4f6	-0.04463669
238	0xbdae528d	-0.08511839
239	0x3c00358d	0.0078252675
240	0x3cb1173e	0.021617528
241	0xbdb4a24e	-0.0882002
242	0xbd97a4f0	-0.07404506
243	0x3b37d8d7	0.002805283
244	0xbd72565e	-0.059164397
245	0xbbc56c7c	-0.0060248952
246	0x3d27582b	0.040855568
247	0xbd37358a	-0.044728793
248	0x3cc8221c	0.024430327
249	0xbd7edc6e	-0.062221937
250	0xbb5ec6ea	-0.0033993074
251	0xbd2adbd2	-0.041713543
252	0x3c02cf61	0.007984013
253	0xbd9aa568	-0.0755108
254	0xbcfa7c19	-0.030576752
255	0xbd40e6fe	-0.04709529

rconvs.0.bias f4 [64]
0	0xbd56b6f8	-0.052420586
1	0x3cb1e9b1	0.021717878
2	0x3c1884f3	0.009309041
3	0x3d062a19	0.03275499
4	0xbd43b358	-0.047778457
5	0x3d1d3699	0.038382147
6	0x3c55e733	0.0130556105
7	0x3cbabd66	0.02279539
8	0xbd86c5a6	-0.06580667
9	0xbbce1074	-0.0062885825
10	0xbaba7a95	-0.0014227206
11	0x3c716ff5	0.014736165
12	0xbc0efe1e	-0.008727578
13	0xbd875c79	-0.06609435
14	0xbd8cea13	-0.068805836
15	0xbd6c0a66	-0.057627104
16	0xb9959cba	-0.00028536265
17	0x3d0ace96	0.033888422
18	0xbd53b72b	-0.051688354
19	0x3d6f7ee8	0.058470637
20	0xbda87d31	-0.08227003
21	0x3d6942de	0.056948535
22	0xbd564808	-0.052314788
23	0xbc827b97	-0.015928073
24	0x3c0ab5da	0.008466208
25	0x3cee9450	0.029123455
26	0x3c428af9	0.011873954
27	0x3c1f4750	0.009721592
28	0x3cb9c0e2	0.022674982
29	0xbcdbdf3a	-0.026839841
30	0xbd1b93b4	-0.037982658
31	0x3cce39c1	0.025174024
32	0xbd431dfd	-0.04763602
33	0xbd5f11e8	-0.054460436
34	0x3d44d8c7	0.048058297
35	0xbdabcbf9	-0.08388514
36	0x3bcfa20a	0.0063364552
37	0x3c45c059	0.012069785
38	0xbceee7eb	-0.029163321
39	0xbc813ae0	-0.015775144
40	0x3d493c2c	0.04912965
41	0xbb6937a0	-0.0035586134
42	0x3d7bc280	0.061464787
43	0xbb7abca7	-0.0038259418
44	0x3cfc6c72	0.03081343
45	0xbd51531c	-0.05110465
46	0x3d111b8b	0.035426658
47	0x3db1bade	0.0867822
48	0xbc1d593b	-0.009603794
49	0x3ca36faa	0.019950707
50	0x3d285c30	0.04110354
51	0xbb9b2c58	-0.004735511
52	0xbac24a78	-0.0014823219
53	0xbcc63f64	-0.024200149
54	0xbd2bb6b6	-0.041922294
55	0xbd01b08e	-0.031662516
56	0xbca9af37	-0.020713432
57	0x3d03f74f	0.032218274
58	0xbd8b4ab0	-0.06801355
59	0x3c347dd2	0.011016326
60	0x3b27f27a	0.0025626705
61	0x3d1a4767	0.03766575
62	0xbc619512	-0.013768451
63	0xbd1e1968	-0.038598448

rconvs.1.weight f4 [64, 64, 3]
0	0xbd80822c	-0.06274828
1	0x3cc8c353	0.0245072
2	0xbd4da93f	-0.050210234
3	0xbd7072c9	-0.058703218
4	0xbd62a0cc	-0.05532913
5	0xbd84fc0e	-0.06493388
6	0xbd5834f5	-0.05278488
7	0x3d06ddae	0.032926254
8	0x3d4b082e	0.049568348
9	0x39e29586	0.00043217483
10	0xbd91647f	-0.07099246
11	0xba5d097f	-0.0008431896
12	0xbdde3ac6	-0.10851054
13	0xbd825d2b	-0.06365427
14	0x3adaf8c9	0.0016706224
15	0xbd836054	-0.064148575
16	0xbd2a7830	-0.041618526
17	0xbda3a504	-0.079904586
18	0xbda06c1f	-0.078331225
19	0xbd3ae93e	-0.045632593
20	0xbc0b0ee6	-0.008487439
21	0xbda19b4a	-0.07890947
22	0xbd0af46d	-0.03392451
23	0xbd40534f	-0.04695445
24	0x390ce9c1	0.0001343852
25	0xbcac844a	-0.021059174
26	0x3cfbd08d	0.030739093
27	0x3b7d837b	0.0038683105
28	0x3c85df12	0.01634172
29	0xbd7fa4bc	-0.062412962
30	0x3d4b5104	0.04963781
31	0x3b178cb8	0.0023124646
32	0xbdb9ed97	-0.0907852
33	0xbd7de3df	-0.061984893
34	0xbd68a51b	-0.05679808
35	0xbc008f12	-0.007846611
36	0xbccdea5b	-0.025136163
37	0xbd5fb09a	-0.05461178
38	0x3d465d73	0.048428964
39	0x3d21c306	0.03949263
40	0x3c0af33a	0.008480841
41	0xbbfc2ea3	-0.007695989
42	0xbd9c7725	-0.076399125
43	0xbdbf6d5d	-0.09347031
44	0xba53d86d	-0.0008081261
45	0x3c64ef56	0.013973078
46	0xbd6869e2	-0.056741603
47	0xbbdf4a22	-0.0068142572
48	0x3d02f205	0.03196909
49	0x3d598b0e	0.05311113
50	0x3b98bd55	0.004661242
51	0xbbc72ccc	-0.0060783383
52	0xbd308aad	-0.043101
53	0xbda9929e	-0.08279918
54	0xbd207255	-0.039171536
55	0x3ca33d7c	0.019926779
56	0x3b1d4483	0.0023997135
57	0xbcfd2b71	-0.030904504
58	0xbcdd586f	-0.027019707
59	0x3bdcbc4b	0.0067363135
60	0x3ce62fc5	0.02809895
61	0x3c36b9ab	0.011152665
62	0xbd8df788	-0.069319785
63	0x3d138f1d	0.036025155
64	0x3ca9e1ae	0.020737495
65	0xbdaed95d	-0.085375525
66	0x3c5ad357	0.013356051
67	0xbdaedd6f	-0.08538329
68	0xbd8b8f2a	-0.06814416
69	0xbd06b05a	-0.032883026
70	0x3d636fa9	0.05552641
71	0xbda6dea2	-0.081479326
72	0xbd1becec	-0.038067743
73	0xbdb83494	-0.089944035
74	0xbd76f9bf	-0.06029677
75	0x3d5e8b16	0.05433186
76	0x3cdffa95	0.027341167
77	0x3c63abba	0.013895923
78	0x3c745c44	0.014914576
79	0xbce43ceb	-0.02786108
80	0x3d2405d3	0.040044617
81	0xbd6e74f4	-0.058217004
82	0x3d35cbc6	0.044383787
83	0xbda0fee9	-0.0786112
84	0x3d4773d0	0.04869443
85	0xbd9ffcad	-0.07811866
86	0xbda9800d	-0.08276377
87	0xbd8923d3	-0.06696286
88	0xbbd48963	-0.0064861043
89	0x3baa85cd	0.0052039386
90	0x3cbea734	0.023273088
91	0xbd91db3b	-0.07121893
92	0x3d16c1af	0.036805805
93	0xbdb695e5	-0.08915309
94	0xbc8e9592	-0.017405305
95	0x3b2f339a	0.0026733638
96	0xbda84ff0	-0.08218372
97	0xbc5bfbec	-0.013426762
98	0xbdb92860	-0.09040904
99	0xbbf72285	-0.007541957
100	0xbd5b1320	-0.053485036
101	0x3cdb282c	0.026752554
102	0x3d33b3cb	0.043872636
103	0xbd7b187c	-0.061302647
104	0x3c9e56b3	0.01932845
105	0xbd14d6e2	-0.03633774
106	0xbda16a5f	-0.07881617
107	0xbbd237fd	-0.0064153657
108	0xbd7a51ab	-0.06111304
109	0xbd269d3c	-0.040677294
110	0xbd1f48fd	-0.038887966
111	0x3c844299	0.016145037
112	0xbd5ed51f	-0.054402467
113	0x3d8ceee2	0.06881501
114	0x3d23a4f2	0.039952226
115	0xbd5cb4db	-0.053883415
116	0xbd502554	-0.05081685
117	0xbd18fd4d	-0.03735094
118	0x3dabd94d	0.08391056
119	0xbdabb284	-0.083836585
120	0xbd94d61e	-0.07267402
121	0xbc950e56	-0.018195312
122	0xbda13121	-0.07870699
123	0xbcf1bda4	-0.029509373
124	0xbcacaf1e	-0.021079596
125	0xbd35903e	-0.044327013
126	0xbd58e796	-0.052955233
127	0xbdad7877	-0.084702425
128	0xbb018daa	-0.0019768276
129	0x3cd6d0dd	0.02622264
130	0x3d082bd5	0.033244926
131	0x3cee6b77	0.029103978
132	0xbd39eef0	-0.045393884
133	0xbd4a3d91	-0.04937512
134	0xbc527c16	-0.012846967
135	0xbca57225	-0.02019603
136	0xbce152b6	-0.02750526
137	0xbd85677d	-0.065138794
138	0xbd5f82d9	-0.054568145
139	0xbd905ef5	-0.070493616
140	0x3cc10136	0.023560148
141	0xbe92e988	-0.28693795
142	0xbc9ec30e	-0.019380119
143	0xbccf83ff	-0.025331495
144	0xbd1715ff	-0.03688621
145	0x3ce7f36a	0.028314311
146	0xbd1677e3	-0.036735427
147	0xbb792142	-0.0038014208
148	0x3d4b4f7f	0.04963636
149	0xbd6a6b31	-0.057231132
150	0xbda4cfc5	-0.080474414
151	0xbd40a768	-0.04703465
152	0x3d727e83	0.059202682
153	0x3b3e0f15	0.0029000689
154	0x398f8225	0.0002737205
155	0xbd038c0f	-0.032115992
156	0xbdb01e75	-0.08599559
157	0x3d1a41b1	0.037660304
158	0x3d1181d0	0.03552419
159	0xbd2c1578	-0.04201266
160	0x3d81adc7	0.063319735
161	0xbd0e33b6	-0.034717284
162	0xbd9b3236	-0.07577936
163	0x3d58fc5f	0.052975055
164	0xbd70b373	-0.058764886
165	0x3d81de79	0.063412614
166	0x3d81ed02	0.06344034
167	0xbbaa3d6e	-0.0051953113
168	0xbcf91f2f	-0.030410377
169	0xbc97392b	-0.018459877
170	0xbd8dac22	-0.06917597
171	0xbb2d53ed	-0.0026447729
172	0xbc862d54	-0.016379036
173	0xbd78cc42	-0.06074167
174	0xbd9f8c41	-0.07790423
175	0xbbe95beb	-0.007121553
176	0x3d089546	0.033345483
177	0x3c8fe718	0.017566249
178	0x3b9d9f68	0.0048102625
179	0xbd8d984e	-0.069138154
180	0xbcdb6fc0	-0.026786685
181	0xbcf32404	-0.02968026
182	0xbdb4b6c3	-0.088239215
183	0xbc30f3cf	-0.010800316
184	0xbca119bf	-0.019665597
185	0x3d17badd	0.03704344
186	0x3d281a58	0.04104075
187	0xbd270e6a	-0.04078523
188	0x3d3a90b3	0.045548152
189	0xbd9314ca	-0.071816996
190	0xbd91873a	-0.071058705
191	0xbd44b3a1	-0.04802287
192	0xbd17bf54	-0.0370477
193	0x3a69fec0	0.00089262053
194	0xbdb36009	-0.087585516
195	0xbd87901f	-0.06619286
196	0xbdac6d2d	-0.08419261
197	0xbcb7c7a0	-0.022434056
198	0xbcc55194	-0.024086751
199	0xbcc2a55a	-0.023760486
200	0xbdad867b	-0.08472916
201	0xbdd4537e	-0.10367487
202	0xbc803e3d	-0.015654678
203	0x3c04d4f3	0.008107412
204	0xbdccc572	-0.09998597
205	0xbdc21ba4	-0.09477928
206	0xbce1f1ed	-0.02758118
207	0xbd88c875	-0.06678859
208	0xbdd2acb7	-0.10286849
209	0x3c677f2a	0.014129439
210	0xbb1b945e	-0.0023739557
211	0xbdb34801	-0.08753968
212	0xbd76c035	-0.060241897
213	0xbd842251	-0.06451858
214	0xbd0b6626	-0.034032963
215	0xbcb9d57e	-0.022684809
216	0xbd756c5f	-0.059917804
217	0x3d12e004	0.03585817
218	0xbcda9082	-0.026680235
219	0x3b995fb3	0.0046805977
220	0xbd847830	-0.064682364
221	0xbd2ef23c	-0.04271148
222	0xbd34b13e	-0.044114344
223	0xbd977459	-0.073952384
224	0xbcfbffe1	-0.030761661
225	0x3ca5c131	0.020233722
226	0xbd90f086	-0.07077126
227	0xbd1e4fa8	-0.038650185
228	0xbd782236	-0.0605795
229	0x3d1c6094	0.03817804
230	0xbd6da8d7	-0.058022346
231	0xbd5507fb	-0.052009564
232	0xbd1494bd	-0.03627466
233	0xbdd75abf	-0.10515355
234	0xbc0f2720	-0.0087373555
235	0xbd9ef92e	-0.07762371
236	0xbdcac376	-0.099005625
237	0xbd2b785c	-0.04186283
238	0xbd04d1cf	-0.03242665
239	0x3d048e21	0.032362107
240	0xbcc53970	-0.02407524
241	0x3c408d18	0.011752389
242	0xbbd18243	-0.0063937022
243	0xbd1be54b	-0.038060468
244	0x3ce79d38	0.02827321
245	0x3ce1354e	0.027491238
246	0xbda11413	-0.07865157
247	0xbcc1b303	-0.02364493
248	0xbd0c6706	-0.03427794
249	0x3d0963c8	0.033542424
250	0xbd7dc4b6	-0.061955176
251	0xbcc1a36d	-0.023637498
252	0xbd8a85f2	-0.06763829
253	0xbc1f3a80	-0.009718537
254	0xbd15f172	-0.036607213
255	0xbd21ae39	-0.039472792

rconvs.1.bias f4 [64]
0	0x3d0b579c	0.034019098
1	0xbd18ff73	-0.03735299
2	0xbd83cb4c	-0.0643526
3	0x3cbbdd08	0.022932544
4	0xbc9eb0ac	-0.019371353
5	0x39b76013	0.0003497606
6	0xbc327c83	-0.010893944
7	0xbb49c9d4	-0.0030790465
8	0xbd9666b5	-0.073438086
9	0xbd7db054	-0.061935738
10	0x3d47ba97	0.04876193
11	0xbd65a800	-0.05606842
12	0xbdcb1ce6	-0.09917621
13	0x3ccb3876	0.024807196
14	0x3db5d582	0.08878614
15	0xbd0a0548	-0.033696443
16	0x3c9fcad2	0.019505892
17	0x3d006571	0.031346742
18	0xbdb788ac	-0.08961615
19	0xbcfead5a	-0.03108852
20	0xbcb672a3	-0.02227146
21	0x3d55d061	0.05220068
22	0x3a7511f5	0.0009348684
23	0xbdaa68a7	-0.08320742
24	0xbd97330b	-0.073827825
25	0x3ba780fd	0.005111812
26	0xbdc21917	-0.09477442
27	0xbcbd73c8	-0.023126498
28	0xbd07f0eb	-0.03318874
29	0x3ce60251	0.028077276
30	0xbcc3fdc2	-0.023924712
31	0xbb2ed00c	-0.0026674299
32	0x3da96ce5	0.08272723
33	0x3cfaa54f	0.030596403
34	0xbcc92f56	-0.024558704
35	0xbd5d108b	-0.053970855
36	0xbdc2e82a	-0.09516938
37	0xbdd07c9b	-0.101800166
38	0xbc3bd97e	-0.011465428
39	0xbc87c1fa	-0.016571987
40	0xbd31b016	-0.04338082
41	0x3d3cce43	0.046095144
42	0x3cf85fe3	0.03031916
43	0xbcb47c85	-0.022032032
44	0xbd543dfb	-0.05181692
45	0x3c858745	0.016299853
46	0xbbd82575	-0.006596262
47	0x3d079f4f	0.033110913
48	0xbd48cd9d	-0.049024213
49	0xbdb7c5b9	-0.089732595
50	0x3c3e5a2c	0.011618178
51	0x3c18aa58	0.009317957
52	0xbd3a9d36	-0.045560084
53	0x3c5079a4	0.012724314
54	0x3cc504f6	0.024050217
55	0xbd80b603	-0.06284716
56	0x3b9d8fe4	0.004808413
57	0xbd4daf90	-0.050216258
58	0x3ccaef45	0.024772296
59	0x3bcc4c60	0.0062346905
60	0xbd55822c	-0.052126095
61	0xbd01c297	-0.031679716
62	0xbd8432a0	-0.064549685
63	0xbdc7236b	-0.09723552

rconvs.2.weight f4 [64, 64, 3]
0	0xbd8c1987	-0.068408065
1	0x3d1a1892	0.03762109
2	0xbd4fa6d2	-0.0506962
3	0xbcda543f	-0.0266515
4	0x3c5ce5d8	0.013482533
5	0xbd4b941f	-0.049701806
6	0xbcb8b75b	-0.022548368
7	0x3d051d1a	0.032498457
8	0xbd2602f5	-0.040530164
9	0xbd58fb76	-0.052974187
10	0xbcc588d7	-0.024113102
11	0xbd24ba06	-0.04021647
12	0x3d443ad2	0.047907658
13	0xbc1f805c	-0.009735193
14	0x3d10a9dd	0.035318244
15	0xbda5ef8f	-0.08102333
16	0xbd8260e5	-0.063661374
17	0x3cb8af04	0.022544391
18	0x3c23e772	0.010003911
19	0xbd901785	-0.07035736
20	0x3d0daac5	0.034586687
21	0xbd27b383	-0.04094268
22	0xbb8fdef7	-0.004390593
23	0x395cfaa8	0.00021074212
24	0xbd5a2fc8	-0.053268224
25	0x3d427d59	0.047482822
26	0xbb74d1fa	-0.00373566
27	0x3d2677f3	0.040641736
28	0x3bd146fe	0.0063866368
29	0xbb976bfb	-0.0046210266
30	0xbccdfea5	-0.025145838
31	0xbdaf185b	-0.08549567
32	0xbc6ed72b	-0.014577667
33	0xbd6fbeaa	-0.05853144
34	0x3cae7ea0	0.021300614
35	0xbcfd1e38	-0.030898198
36	0xbd108b88	-0.035289317
37	0x3d211157	0.039323177
38	0xbc42e786	-0.01189602
39	0xbbd73c40	-0.0065684617
40	0xbd93a214	-0.07208648
41	0xbd9ddbef	-0.07707965
42	0xbc4ac0d8	-0.012375079
43	0xbbda9760	-0.0066708773
44	0xbdbe7287	-0.09299188
45	0x3c91469e	0.017733868
46	0xbd51898c	-0.051156566
47	0xbc6e48d1	-0.014543728
48	0xbdb34450	-0.08753264
49	0xbd5f9897	-0.05458888
50	0xbcb25b83	-0.021772152
51	0xbc9511ad	-0.018196905
52	0x3d42bfaf	0.047546085
53	0xbbe564a4	-0.0070005227
54	0xbd9467dd	-0.07246373
55	0x3d5915b7	0.052999225
56	0xbdc55df1	-0.096370585
57	0xbdb16c4e	-0.086632356
58	0xbc24cb51	-0.01005824
59	0x3cd96ccc	0.026541136
60	0x3bdf7d35	0.0068203458
61	0xbd8a6b27	-0.06758719
62	0x3d43c293	0.047792982
63	0x3d05ddbf	0.032682177
64	0xbd0c7b6b	-0.034297388
65	0xbd6593d4	-0.056049183
66	0xbd96b5ea	-0.07358916
67	0x3d0443d9	0.032291267
68	0xbd5261ad	-0.051362682
69	0xbd35eda7	-0.044416096
70	0xbd62b8a7	-0.05535188
71	0xbcbf0f64	-0.023322769
72	0x3cbd267b	0.023089638
73	0x3d57a4b3	0.052647304
74	0x3cf2d2bf	0.029641507
75	0xbd867a2a	-0.0656627
76	0xbd432802	-0.047645576
77	0xbd11eae3	-0.035624396
78	0x3c0b84d8	0.008515559
79	0xbd19f6c2	-0.037588842
80	0xbd3dcb2e	-0.046336345
81	0x3b537929	0.0032268262
82	0xbd56059f	-0.052251454
83	0x3be044f3	0.006844157
84	0xbd8c6d6d	-0.06856809
85	0x3c853097	0.016258521
86	0x3cea3053	0.028587496
87	0xbcfa2e27	-0.030539585
88	0xba7899d6	-0.00094833726
89	0xbc358116	-0.01107814
90	0xbd57eaff	-0.052714344
91	0xbd91e586	-0.07123856
92	0x3cc39af3	0.023877596
93	0xbd743f63	-0.059630763
94	0x3d0476cb	0.032339852
95	0xbd27e47d	-0.040989388
96	0x3cd97e2a	0.026549418
97	0x3c64dbca	0.013968417
98	0x3c7bcd09	0.015368708
99	0xbc575b1d	-0.013144282
100	0xbb314df3	-0.0027054518
101	0x3bdf2817	0.006810199
102	0xbd242d2c	-0.04008214
103	0x3c747760	0.014921039
104	0xbd9aac91	-0.07552446
105	0xbd8ac9c1	-0.06776763
106	0xbb4c182d	-0.003114234
107	0xbd5eaf9a	-0.054366685
108	0xbd402db1	-0.046918575
109	0xbc705c36	-0.014670422
110	0x3b4f1bba	0.003160222
111	0xbdb5f528	-0.088846505
112	0x3b5f47ef	0.0034069975
113	0xbb48c903	-0.003063739
114	0xbda0c626	-0.07850294
115	0xbd93c8a3	-0.07216003
116	0xbd89908c	-0.06717023
117	0xbda17438	-0.07883495
118	0x3c5ee5e0	0.013604611
119	0xbd6019b0	-0.054711998
120	0xbd3cac24	-0.046062604
121	0x3cb31fc6	0.021865737
122	0x3c1822f4	0.009285677
123	0x3b5f62cc	0.0034085987
124	0xbc6aa63a	-0.014321858
125	0xbd0277f6	-0.031852685
126	0x3b9ae359	0.004726809
127	0x3c7c4044	0.0153961815
128	0xbd1a698c	-0.037698314
129	0xbdaf4202	-0.08557512
130	0xb9c79afc	-0.0003807171
131	0xbd8dad32	-0.069178
132	0x3cd15f3a	0.025558103
133	0xbd84a583	-0.06476881
134	0x3d1e12a9	0.038592014
135	0xbc539974	-0.012915004
136	0xbc7534a2	-0.014966162
137	0xbcee7013	-0.029106176
138	0xbb35484f	-0.0027661507
139	0x3d416201	0.047212604
140	0xbd353442	-0.04423929
141	0xbd6d5534	-0.057942584
142	0x3d44b615	0.04802521
143	0x3caded53	0.021231329
144	0xbda00bb1	-0.0781473
145	0x3bd01495	0.00635011
146	0x3cdb39f5	0.026761035
147	0xbd05d23a	-0.03267119
148	0xbd9a5c6a	-0.07537158
149	0xbcc3ca1b	-0.023900082
150	0xbc79e639	-0.015252643
151	0xbaa432af	-0.0012527312
152	0xbcb5951e	-0.022165831
153	0xbd418cb7	-0.047253337
154	0xbc9cc71c	-0.019137911
155	0xbd818d8f	-0.06325828
156	0xbcc4d28e	-0.024026182
157	0x3d2d1d1e	0.042264096
158	0xbd2870db	-0.041123252
159	0x3ca1787f	0.019710777
160	0xbcfa1ca1	-0.03053123
161	0x3d0c2fe8	0.034225374
162	0x3cdbf937	0.026852233
163	0xbdb14170	-0.08655059
164	0x3b743002	0.003726006
165	0xbc5cb6ff	-0.013471364
166	0xbd32bdb3	-0.043637943
167	0xbdb6ea92	-0.089314595
168	0xbc953d2a	-0.018217642
169	0x3d512bd5	0.051067192
170	0x3b412b1c	0.0029475158
171	0xbd2dda32	-0.042444415
172	0xbcfd6f92	-0.03093699
173	0x398f839c	0.00027373142
174	0xbd03b218	-0.032152265
175	0x3b61a57a	0.0034430907
176	0xbd27700c	-0.04087834
177	0x3ca17a72	0.019711707
178	0x3bc2fa31	0.0059502353
179	0xbc3c53f5	-0.011494626
180	0xbdae7fc2	-0.085204616
181	0xbd5e6680	-0.05429697
182	0xbd8f3cf5	-0.069940485
183	0xbcc0459c	-0.023470692
184	0x3cb35f34	0.021895982
185	0xbd7500a2	-0.059815057
186	0xbbd80428	-0.0065922923
187	0xbdc6a8ff	-0.09700202
188	0x3d2e5133	0.042557906
189	0xbbdf3938	-0.006812241
190	0xbd5607fb	-0.052253705
191	0x3d2276c9	0.039664064
192	0xbda0b7f5	-0.07847587
193	0xbd902dd4	-0.07039991
194	0xbd7732f3	-0.060351323
195	0xbd84e5c4	-0.06489137
196	0xbd6baff9	-0.057540867
197	0xbd95a31b	-0.073065005
198	0x3b672bb2	0.0035273847
199	0xbc64dcf2	-0.013968693
200	0x3b2bb796	0.0026201955
201	0xbcf823b4	-0.030290462
202	0x3c7b420d	0.015335572
203	0xbd4e055b	-0.050298076
204	0xbd3add45	-0.045621175
205	0x3cb72f3a	0.022361387
206	0xbd1e118c	-0.038590953
207	0xbce35b1d	-0.027753407
208	0xbdaecfa7	-0.085357
209	0xbd7201be	-0.059083693
210	0xbda1149d	-0.0786526
211	0x3ccc45bb	0.024935594
212	0xbd731f96	-0.059356295
213	0x3c9083ab	0.01764091
214	0xbda3ad3a	-0.07992025
215	0xbd79fcf1	-0.06103224
216	0xbce74ed5	-0.028235832
217	0xbdbb9c28	-0.09160644
218	0xbaec931b	-0.0018049212
219	0x3cbb0209	0.022828119
220	0xbdb6c950	-0.08925116
221	0xbd870446	-0.06592612
222	0xbd6abcf7	-0.057309117
223	0xbd277bdf	-0.040889617
224	0xbd476b54	-0.04868634
225	0xbd0b758a	-0.03404764
226	0xbd1df073	-0.03855939
227	0xbd8f2139	-0.069887586
228	0xbdc0dd30	-0.09417188
229	0xbd2f7ef3	-0.042845678
230	0xbd982f63	-0.07430913
231	0xbd44f0d1	-0.048081223
232	0xbdcd8702	-0.10035516
233	0x3c7aeac8	0.015314765
234	0x3cd76b45	0.026296267
235	0xbd7cdd57	-0.061734524
236	0xbd837c3e	-0.06420182
237	0x3d1f422e	0.038881473
238	0xbcea30a8	-0.028587654
239	0xbd6e061f	-0.058111306
240	0xbcc73951	-0.024319323
241	0x3c09e17b	0.008415575
242	0xbb9ea6c4	-0.0048416574
243	0x3d1e7d3e	0.03869366
244	0xbd3eb436	-0.04655858
245	0xbd745d7f	-0.059659477
246	0x3cb45caa	0.022016842
247	0x3cd493fb	0.025949469
248	0x3bed3198	0.007238578
249	0xbd57f5b0	-0.05272454
250	0x3c4a8e29	0.012362995
251	0xbcefac09	-0.029256837
252	0x3d012405	0.03152849
253	0x3c4d2ef4	0.0125234015
254	0xbb68da2b	-0.003553043
255	0xbdb13d46	-0.08654265

rconvs.2.bias f4 [64]
0	0xbd780582	-0.060552128
1	0xbd291176	-0.041276418
2	0xbd9e7e9f	-0.07738995
3	0xbd870448	-0.065926135
4	0xbd0113e2	-0.031513102
5	0xbdc5e592	-0.09662928
6	0xbda128ef	-0.078691356
7	0xbc0f4cc2	-0.008746328
8	0xbbe5ee9e	-0.007016971
9	0xbcbe3832	-0.023220155
10	0x3c7f49e7	0.015581585
11	0xbd8844c1	-0.06653739
12	0xbd9f1364	-0.0776737
13	0x3d6063bd	0.054782618
14	0xbd6a61fe	-0.05722236
15	0x3d056364	0.03256549
16	0xbd7d91c1	-0.06190658
17	0xbca81a3a	-0.020520318
18	0xbc81ca2e	-0.015843477
19	0x3b960e1e	0.0045793196
20	0xbdb59c59	-0.088677116
21	0x3d11e1bd	0.03561567
22	0x3d0f1c97	0.034939375
23	0x3d513e1f	0.051084634
24	0xbd0f55c4	-0.0349939
25	0xbd024b72	-0.03181023
26	0xbda3e8cb	-0.08003386
27	0xbd8b112c	-0.06790385
28	0x3c1ce11c	0.009575155
29	0x3c1ed7dd	0.0096950205
30	0xbceb8ab2	-0.028752659
31	0xbd7a7fc1	-0.061156992
32	0xbc63fe81	-0.013915659
33	0xbd9b6c11	-0.075889714
34	0xbce1eb67	-0.027578069
35	0xbd616dcb	-0.055036347
36	0xbe558a07	-0.20853435
37	0xbdbd9b9a	-0.09258194
38	0x3d1c4e59	0.038160656
39	0x3c0d8c51	0.008639411
40	0xbcf64486	-0.030061971
41	0xbd966734	-0.07343903
42	0xbcf061eb	-0.029343566
43	0xbd455ed9	-0.048186157
44	0x3eaea460	0.34109783
45	0xbd61b7d6	-0.05510696
46	0xbcb2199f	-0.021740733
47	0xbd8e5c5a	-0.069512084
48	0xbd136704	-0.035986915
49	0xbdab23f5	-0.08356468
50	0xbd8a9e58	-0.06768483
51	0xbd424fa5	-0.047439236
52	0x3bb2094a	0.0054332362
53	0x3d0ec5af	0.034856495
54	0x3c36d7ce	0.01115985
55	0xbc67ff9d	-0.014160064
56	0xbd8a7006	-0.06759648
57	0x3c90ba26	0.017666887
58	0x3c4b5712	0.012410896
59	0x3cfa5d58	0.030562088
60	0xbb52b7ab	-0.0032152932
61	0x3d1e1818	0.038597196
62	0xbd1e52e7	-0.03865328
63	0xbc1917c4	-0.009344045

rconvs.3.weight f4 [64, 64, 3]
0	0xbc5991b9	-0.013279372
1	0x3c1b82ec	0.009491663
2	0xbcf8ede9	-0.030386882
3	0xbd8d3973	-0.06895723
4	0xbce8075f	-0.028323827
5	0x3d054ae9	0.032542143
6	0xbd321eb9	-0.04348633
7	0xbd2c36cb	-0.042044442
8	0xbd5748e2	-0.05255974
9	0x3d121d5c	0.03567253
10	0xbcdf2f6c	-0.027244292
11	0x3acb4fcf	0.0015511456
12	0x3e1e7aba	0.15476504
13	0xbcee9484	-0.029123552
14	0xbcbe3329	-0.023217754
15	0x3d28f526	0.041249417
16	0x3d4b5f38	0.049651355
17	0xbd739f92	-0.05947835
18	0x3ad4a11b	0.001622233
19	0x3cc360a4	0.023849793
20	0xbcb081de	-0.0215463
21	0xbc4b0413	-0.012391108
22	0xbd6c301b	-0.057663064
23	0x3d24740b	0.04014973
24	0x3d16481e	0.03668987
25	0xbd2e144d	-0.04249983
26	0xbd1b0fdf	-0.037856933
27	0x3d68020d	0.05664258
28	0x3c91d673	0.017802453
29	0xbd5ca6df	-0.05387008
30	0xbd9fd14f	-0.07803594
31	0x3d1ea054	0.03872712
32	0x3aab0fa7	0.0013050929
33	0x3c043353	0.008068877
34	0xbbfc654d	-0.0077025057
35	0xba955c3a	-0.0011395284
36	0xbd803cd5	-0.06261603
37	0xbdb11fe5	-0.086486615
38	0x3d0f2a3c	0.034952387
39	0xbd88805d	-0.06665108
40	0x3c1030db	0.008800711
41	0xbd0a0453	-0.03369553
42	0xbd89debd	-0.06731937
43	0x3d1dd231	0.038530532
44	0xbd784022	-0.060608037
45	0xbdaa47a9	-0.08314449
46	0xbb9df7a5	-0.0048207813
47	0xbd39abb5	-0.04532977
48	0xbd2a103f	-0.0415194
49	0x3d6b2b2d	0.057414223
50	0xbcd3d62b	-0.02585896
51	0xbd89a399	-0.06720657
52	0x3ca972c1	0.020684602
53	0xbc0c7bbc	-0.008574422
54	0x3b0e3563	0.0021699301
55	0xbb2dd8f5	-0.0026527022
56	0xbc6a20a1	-0.014290006
57	0xbda284c4	-0.07935479
58	0xbb120692	-0.0022281748
59	0xbd50631d	-0.05087577
60	0xbd6e4d15	-0.05817898
61	0x3b21880a	0.0024647736
62	0xbd9ec2aa	-0.07751973
63	0x3bd8f0fb	0.006620524
64	0xbd92dc38	-0.0717091
65	0xbd63b817	-0.055595484
66	0xbd2868c4	-0.041115537
67	0x3d598b95	0.05311163
68	0xbd92ff0c	-0.071775526
69	0xbcc8fe7f	-0.024535416
70	0xbd1d1360	-0.038348556
71	0x3c455ee4	0.0120465495
72	0xbd00f0eb	-0.031479757
73	0xbd0de8c8	-0.034645826
74	0xbd7c8656	-0.06165155
75	0xbd94831a	-0.07251568
76	0xbbc48170	-0.0059968755
77	0xbd1c2688	-0.038122684
78	0x3d6ba8ee	0.05753415
79	0x3c51e074	0.012809861
80	0xbae79bfb	-0.0017670387
81	0xbb9c7c6d	-0.004775575
82	0x3d0ac94a	0.03388337
83	0xbd582bc6	-0.05277612
84	0x3d4a2270	0.04934925
85	0xbc8fd660	-0.017558277
86	0xbda94128	-0.08264381
87	0xbd96c7e1	-0.073623426
88	0xbda3e283	-0.08002188
89	0x3c47a020	0.012184173
90	0xb96b15fd	-0.00022419538
91	0x3d0c1369	0.0341982
92	0x3d63dabc	0.055628523
93	0xbd10fc25	-0.035396714
94	0xbcc506f6	-0.02405117
95	0xbc94ccb5	-0.018164018
96	0xbc2a6ac5	-0.010401432
97	0xbcc271cf	-0.023735909
98	0x3bf6be24	0.0075299907
99	0xbd2b24f2	-0.04178328
100	0xbc8c5f56	-0.017135303
101	0x3c07c11c	0.008285787
102	0xbc523e12	-0.0128321815
103	0xbd33a29a	-0.04385624
104	0xbc52379c	-0.012830641
105	0x3c0541fd	0.008133409
106	0x3c9a28e2	0.018818323
107	0x3ca0b6bd	0.019618386
108	0x3d6f8f9c	0.058486566
109	0xbc8e27d3	-0.017352974
110	0x3cff7d1e	0.03118759
111	0xbcc9b8cd	-0.024624253
112	0xbda59587	-0.08085161
113	0xbbd41484	-0.006472172
114	0x3bda7cb0	0.006667696
115	0xbc365b1f	-0.011130123
116	0xbd9b62c0	-0.075871944
117	0xbcc5dde2	-0.024153654
118	0x3d9312fa	0.07181354
119	0x3d6150fb	0.05500887
120	0x3c2f0a00	0.0106835365
121	0xbdb71af3	-0.08940687
122	0xbbf429c1	-0.0074512665
123	0xbd6b07c3	-0.05738045
124	0xbdaa0066	-0.08300857
125	0xbd336f6e	-0.04380744
126	0xbd9761ac	-0.07391676
127	0x3d1d59dd	0.03841578
128	0xbd0ee834	-0.034889415
129	0x3c2f051d	0.010682371
130	0xbcb113f3	-0.021615958
131	0xbbe3cd29	-0.006951947
132	0x3d034304	0.032046333
133	0x3c222a3c	0.009897765
134	0x3d864567	0.06556206
135	0x3d4134a6	0.04716935
136	0xbd4295f1	-0.047506277
137	0x3c040409	0.008057603
138	0xbd46faae	-0.04857891
139	0xbd8c165f	-0.068402044
140	0xbdad26e0	-0.084546804
141	0xbb2bb92c	-0.00262029
142	0xbc99872d	-0.018741215
143	0x3db40817	0.087906055
144	0xbca16578	-0.019701704
145	0xbd7e34f3	-0.062062215
146	0x3aa68e95	0.0012707288
147	0x3b766715	0.0037598063
148	0xbdb02ac9	-0.086019106
149	0x3d1ccd44	0.038281694
150	0xbc6ff737	-0.014646343
151	0xbd5c022f	-0.05371302
152	0xbc96738c	-0.018365644
153	0xbd06fb97	-0.03295478
154	0xbd8f3275	-0.06992046
155	0x3ce7696c	0.028248511
156	0xbd66bed2	-0.056334324
157	0xbd160b86	-0.036632083
158	0xbd23352f	-0.03984564
159	0xbd05749a	-0.032581903
160	0xbcb95bb3	-0.022626733
161	0xbd3ed841	-0.046592955
162	0x3d22ac8d	0.03971534
163	0xbd829a64	-0.06377104
164	0xbdae3aac	-0.085072845
165	0xbcf010e1	-0.029304923
166	0x3d9a02f0	0.075200915
167	0x3bf5dc1e	0.0075030467
168	0xbd866b83	-0.06563475
169	0x3c9b7b54	0.018979706
170	0xbd31439d	-0.04327737
171	0xbcd49d3f	-0.025953887
172	0xbd117c14	-0.03551872
173	0xbd758adf	-0.05994689
174	0x3d3f1a1f	0.04665577
175	0xbdc13201	-0.094333656
176	0xbc8cacd0	-0.017172247
177	0xbd3dc9e9	-0.046335135
178	0xbb3f2c06	-0.0029170527
179	0xbd48d88d	-0.049034644
180	0x3c23cc5c	0.009997454
181	0xbd12ae5b	-0.03581081
182	0x3b5e384b	0.0033908065
183	0xbd976f03	-0.07394221
184	0xbd8b3e4e	-0.06798993
185	0x3b9d089c	0.004792286
186	0xbdabe97c	-0.08394143
187	0xbccce034	-0.025009252
188	0xbd23a478	-0.03995177
189	0xbdb18370	-0.08667648
190	0xbd86916f	-0.06570708
191	0xbba6ea4c	-0.0050938483
192	0x389b9829	7.419318e-05
193	0xbdd138dc	-0.10215923
194	0xbd936a88	-0.071980536
195	0xbdbf19c1	-0.09331084
196	0x3ce939f5	0.028470019
197	0x3d0f6243	0.03500582
198	0xbc31a933	-0.010843563
199	0xbdb6b43d	-0.089210965
200	0xbd5d8d86	-0.054090045
201	0x3c41ea51	0.011835651
202	0xbdc12a52	-0.094319
203	0xbd75219a	-0.059846498
204	0xbc8cdb56	-0.017194431
205	0xbd17163c	-0.03688644
206	0xbc1ba666	-0.009500122
207	0x3c2a32c7	0.010388083
208	0xbd78a490	-0.060703814
209	0x3ca871bb	0.020562043
210	0xbd601546	-0.054707788
211	0xbc9536ce	-0.01821461
212	0xbcec8f4c	-0.028876923
213	0xbd5bcd9e	-0.05366289
214	0xbd8f7113	-0.07003989
215	0xbd89bad2	-0.06725086
216	0xbcf46f84	-0.029838331
217	0x3cffe827	0.031238629
218	0x3c8f4319	0.01748805
219	0xbc1a2e1d	-0.009410408
220	0xbd86c8bc	-0.06581256
221	0xbd437714	-0.047720984
222	0xbc92e802	-0.017932896
223	0x3c1f716f	0.0097316345
224	0x3d20e506	0.039280914
225	0xbd47822b	-0.048708122
226	0xbd097562	-0.03355921
227	0xbdaac94d	-0.08339176
228	0xbdb8cbc4	-0.0902324
229	0x3c49a4a4	0.01230732
230	0xbd9d0e4b	-0.07668742
231	0xbd3d5737	-0.046225753
232	0xbd10546c	-0.03523676
233	0xbc77a968	-0.015116073
234	0xbcb6e5d5	-0.02232639
235	0xbce44e32	-0.027869318
236	0xbc91aa1a	-0.017781306
237	0xbd892b80	-0.0669775
238	0xbd9a520d	-0.07535181
239	0xbdc543e9	-0.096320935
240	0xbd54d937	-0.051964965
241	0xbd113ba6	-0.035457276
242	0xbd8f159d	-0.06986544
243	0xbdc840d4	-0.0977799
244	0xbc1ff500	-0.009763002
245	0x3d149497	0.03627452
246	0xbd744855	-0.059639294
247	0xbd82a16d	-0.06378446
248	0x3d14f2db	0.036364418
249	0xbdc4412d	-0.09582744
250	0xbd9ea56b	-0.07746395
251	0x3cebe5bf	0.028796075
252	0x3c46464f	0.012101724
253	0xbdc355c9	-0.095378466
254	0xbd62c96b	-0.05536787
255	0x3ba42a1a	0.0050099017

rconvs.3.bias f4 [64]
0	0xbd140197	-0.03613433
1	0x3cab4667	0.020907594
2	0xbc24aa2f	-0.010050341
3	0x3d3659f3	0.044519376
4	0xbdb7c1b9	-0.089724965
5	0x3cfabee2	0.030608598
6	0xbdbd7b8e	-0.09252082
7	0xbd784a7e	-0.060617916
8	0xbdaaf213	-0.08346953
9	0xbd559803	-0.052146923
10	0xbdb24fe3	-0.087066434
11	0xbdc3369f	-0.095319025
12	0xbd3133e1	-0.043262366
13	0x3daf02c2	0.08545448
14	0xbc763cac	-0.015029114
15	0xbd3702ae	-0.04468029
16	0xbd3bd2c9	-0.045855317
17	0x3c6d5ca7	0.014487422
18	0xbd6910f6	-0.05690094
19	0xbd907461	-0.070534475
20	0xbd42a090	-0.047516406
21	0xbca1545a	-0.019693542
22	0xbd954fe6	-0.0729063
23	0xbda35f48	-0.07977158
24	0xbd1ff286	-0.039049648
25	0xbb09cbe1	-0.0021026062
26	0x3b760588	0.0037539918
27	0x3ac5460a	0.001505078
28	0xbd4f5397	-0.050616827
29	0xbdb87c53	-0.09008088
30	0x3d3b673f	0.04575276
31	0xbd8f234c	-0.06989154
32	0x3d029ca6	0.031887673
33	0xbf30413d	-0.68849546
34	0xbc3ef480	-0.011654973
35	0xbb075487	-0.0020649747
36	0xbd77d0ef	-0.06050199
37	0xbc4933b9	-0.012280398
38	0x3bbee9f1	0.005826228
39	0xbd200e39	-0.039076064
40	0xbd92ba98	-0.07164496
41	0xbdbfe4f1	-0.09369839
42	0x3d0fd557	0.035115566
43	0xbd3c31e8	-0.04594603
44	0xbdc3d42f	-0.09561955
45	0xbd1d2111	-0.038361613
46	0xbd9f6847	-0.07783561
47	0x3a896e9c	0.0010485235
48	0xbe2677a5	-0.16256578
49	0x399a843b	0.00029471688
50	0xbdf745b1	-0.120738395
51	0x3b0e8117	0.0021744424
52	0xbd2a7157	-0.041611996
53	0xbd859753	-0.065230034
54	0xbd14bb35	-0.036311347
55	0xbb67fc61	-0.0035398232
56	0xbd2a94c3	-0.041645776
57	0xbd17dea5	-0.037077565
58	0x3d0fe745	0.035132665
59	0x3c556fa2	0.013027104
60	0xbd44ae08	-0.04801753
61	0x3b9c6c3b	0.0047736443
62	0xbd87c15b	-0.066286765
63	0xbcccddd9	-0.025008129

rconvs.4.weight f4 [64, 64, 3]
0	0xbdb54b36	-0.08852236
1	0x3d283dff	0.04107475
2	0xbb2ea68b	-0.002664956
3	0xbd55c783	-0.052192222
4	0x3d340d73	0.04395814
5	0x3b8ecdb5	0.0043580183
6	0x3bc6dcdf	0.0060688104
7	0xbd83d4c8	-0.06437069
8	0xbd66a934	-0.05631371
9	0xbc2da59a	-0.0105985645
10	0xbd8cf709	-0.06883056
11	0xbd20045a	-0.03906665
12	0xbd0e80fe	-0.034790985
13	0xbd9e7e19	-0.07738895
14	0xbdc7dd4c	-0.09759006
15	0x3d4172e0	0.047228694
16	0x3cbd8371	0.023133965
17	0xbd69040e	-0.056888632
18	0x3c10fe47	0.008849687
19	0xbce28a90	-0.027653962
20	0xbcfee742	-0.031116132
21	0xbda7d891	-0.08195604
22	0x3c81331c	0.015771441
23	0xbda521c1	-0.08063079
24	0x3bcd3ff9	0.0062637297
25	0xbcbb2136	-0.022842985
26	0x3d11b999	0.03557739
27	0xbd9d34af	-0.07676064
28	0x3d1e71c6	0.03868272
29	0xbd15b929	-0.036553536
30	0xbd130602	-0.0358944
31	0xbc7122f7	-0.014717809
32	0xbd944b7d	-0.07240961
33	0xbb8940ac	-0.0041886177
34	0x3cc7ce4a	0.024390358
35	0xbd0e6a78	-0.034769505
36	0x3d34abff	0.04410934
37	0x3d26bf3f	0.04070973
38	0x3cd2945b	0.025705507
39	0xbd184370	-0.03717369
40	0xbbd0de46	-0.0063741533
41	0xbd8eb43c	-0.06967971
42	0x3cec1a2d	0.028821075
43	0xbd9ebc50	-0.077507615
44	0xbdbd4607	-0.09241872
45	0x3d36bd52	0.044614144
46	0xbbed3b85	-0.0072397613
47	0xbd87fa13	-0.06639495
48	0xbd3636ed	-0.044485975
49	0xbcf316be	-0.02967393
50	0x3d26069e	0.040533654
51	0xbd81a8c4	-0.063310176
52	0xbd8ef009	-0.06979377
53	0xbc50039f	-0.012696176
54	0xbc54d16b	-0.012989382
55	0xbac0d84b	-0.0014712898
56	0xbce4f444	-0.027948506
57	0x3cc7b74d	0.024379397
58	0xbd715ca6	-0.058926247
59	0xbd820c74	-0.063500315
60	0xbd905ec6	-0.070493266
61	0xbd8e1162	-0.06936909
62	0xbd3022ba	-0.043001868
63	0xbb666d94	-0.0035160528
64	0xbcd7a80f	-0.026325254
65	0x3d0a7edd	0.033812393
66	0xbd7454cd	-0.059651185
67	0xbc32a556	-0.010903677
68	0x3c9eef51	0.019401224
69	0xbcb58ad7	-0.02216093
70	0xbd5e0fc4	-0.054214254
71	0xbdb47477	-0.088112764
72	0x3d37c99a	0.044869997
73	0xbcd28796	-0.025699418
74	0xbdbdab5b	-0.09261199
75	0xbd1cca5e	-0.03827893
76	0xbd778859	-0.060432766
77	0xbdb50f6d	-0.08840833
78	0xbd354c0c	-0.044261977
79	0x3d571214	0.052507475
80	0xbdc68dfd	-0.09695051
81	0xbb6aa688	-0.0035804827
82	0x3c233648	0.009961672
83	0xbd901823	-0.07035854
84	0xbbcc44aa	-0.0062337713
85	0xbd8b914b	-0.06814822
86	0x3cf27535	0.029596904
87	0xbc894243	-0.016755229
88	0xbd200652	-0.039068528
89	0xbd933cef	-0.071893565
90	0xbcf2574e	-0.029582646
91	0x3cc01938	0.023449525
92	0xb84406c0	-4.6736328e-05
93	0xbd9f118a	-0.07767017
94	0xbce6acbd	-0.02815854
95	0xbbbb8b02	-0.005723358
96	0xbd66a804	-0.056312576
97	0xbd92c3c1	-0.07166243
98	0x3d2872b5	0.04112502
99	0x3d0caf13	0.03434665
100	0xbc753b16	-0.0149677005
101	0xbd8c0e19	-0.068386264
102	0xbd79269c	-0.060827836
103	0xbc812735	-0.015765766
104	0x3cdf83c3	0.027284509
105	0x3b8a3397	0.004217576
106	0xbd0e5dce	-0.034757428
107	0xbc9d6117	-0.019211335
108	0xbd972255	-0.07379595
109	0xbd17211c	-0.03689681
110	0x3d26a2a8	0.040682465
111	0xbaaee6b2	-0.0013343899
112	0xbd35c08f	-0.04437309
113	0xbbb814e0	-0.005617723
114	0x3d3714e2	0.04469765
115	0xbd4c486b	-0.04987375
116	0xbccabb83	-0.024747616
117	0xbc2f319d	-0.010692981
118	0xbc42cacb	-0.01188917
119	0xbdc9bb22	-0.09850146
120	0xbd8cda72	-0.06877603
121	0x3b802a45	0.003911289
122	0x3ce5d4fd	0.028055662
123	0x3988c908	0.0002608972
124	0x3c85126e	0.01624414
125	0x3ce1c55b	0.027559927
126	0xbd6b95e2	-0.057515986
127	0x3cfb7c04	0.030698784
128	0xbd811b86	-0.06304078
129	0x3d49d771	0.049277727
130	0xbc85456d	-0.016268456
131	0xbd6e43ab	-0.058170002
132	0xbd544bc7	-0.05183008
133	0xbb171424	-0.0023052776
134	0x3cebc25a	0.028779197
135	0xbabb93dc	-0.0014311033
136	0x3d1d87d4	0.038459614
137	0xbc9e250d	-0.019304777
138	0xbdab865f	-0.083752386
139	0x3b48e4dd	0.0030653991
140	0xbc35e6b8	-0.011102371
141	0xbdb1de79	-0.086850114
142	0xbc00f09e	-0.007869868
143	0x3d44999e	0.047998063
144	0x3c2f82f9	0.010712379
145	0xbd9681a7	-0.07348948
146	0xbd1be1a0	-0.03805697
147	0xba2898d7	-0.00064314663
148	0xbd84e0e2	-0.064882055
149	0xbd4a6aaf	-0.049418148
150	0xbda36a61	-0.079792745
151	0xbd10dc64	-0.03536643
152	0xbd807a94	-0.0627338
153	0xbda501db	-0.080569945
154	0xbdaa7c81	-0.083245285
155	0xbbb37b2b	-0.0054773293
156	0xbd7f3fde	-0.062316768
157	0xbd4305b0	-0.047612846
158	0xbccd4fe1	-0.025062503
159	0xbb7f9579	-0.0038999005
160	0xbd7019d5	-0.058618385
161	0xbd8a4d11	-0.067529805
162	0xbda1b5e0	-0.07896018
163	0xbd7ffc2e	-0.062496357
164	0xbd262d9d	-0.040570844
165	0x3d354a45	0.044260282
166	0x3c9434a2	0.018091504
167	0xbc233fa5	-0.0099639045
168	0xbda8adf9	-0.08236308
169	0xbd95aee4	-0.07308748
170	0x3c22263f	0.009896814
171	0xbdafcfa5	-0.08584527
172	0x3cb05cf9	0.021528708
173	0xbd7cfef5	-0.061766583
174	0x3b7fb801	0.0039019587
175	0xbc57119a	-0.013126755
176	0xbc348b40	-0.011019528
177	0xbd1a6a93	-0.037699293
178	0xbd4aa448	-0.049473077
179	0x3c538b94	0.012911696
180	0xbd51346a	-0.051075377
181	0xbd88b86b	-0.066758
182	0xbd11c2a5	-0.035586018
183	0x3b0e09b5	0.0021673266
184	0x3d3fb90c	0.046807334
185	0x3c904398	0.017610356
186	0xbd23d62b	-0.03999917
187	0xbd673b0a	-0.05645279
188	0xbdc46033	-0.09588661
189	0xbda652d4	-0.08121267
190	0xbcea2543	-0.02858222
191	0xbc59052a	-0.01324586
192	0xbdb60578	-0.08887762
193	0xbdb115b1	-0.086467154
194	0x3d477703	0.048697483
195	0xbdbcdc18	-0.09221667
196	0xbce1bc32	-0.027555559
197	0xbcd7b284	-0.02633024
198	0xbda63d9e	-0.08117221
199	0xbcd82b33	-0.026387786
200	0xbac56bf9	-0.0015062086
201	0xbd15a8bf	-0.036537882
202	0xbdc60b66	-0.09670143
203	0x3c7cffb1	0.015441821
204	0xbcbf8735	-0.023379901
205	0xbd6ce8e7	-0.0578393
206	0xbd109910	-0.03530222
207	0xbd3dccb8	-0.046337813
208	0xbd3b7398	-0.045764536
209	0x3d210a7a	0.03931663
210	0xbd78a4c5	-0.06070401
211	0xbc7984e7	-0.01522944
212	0xbd128471	-0.035770837
213	0xbc8251d5	-0.015908161
214	0x3c7ce865	0.015436267
215	0xbd9b0b25	-0.07570485
216	0xbcadecf4	-0.021231152
217	0x3c527878	0.012846105
218	0x3cf47b98	0.02984409
219	0x3d13de5e	0.036100738
220	0xbdb1c856	-0.08680789
221	0xbdb4353d	-0.08799217
222	0xbb77bf15	-0.0037803103
223	0xbc138c15	-0.009005566
224	0x3d599859	0.053123806
225	0xbbad5cbd	-0.0052905963
226	0x3c3c0ec9	0.011478134
227	0xbd4556a4	-0.04817833
228	0xbdadbc6f	-0.084832065
229	0xbd3e1da9	-0.046415005
230	0xbd608ae8	-0.05481997
231	0xbd827bb6	-0.06371252
232	0xbd87c4eb	-0.06629356
233	0xbd8cf652	-0.06882919
234	0x3bfda74d	0.007740891
235	0xbd985a11	-0.07439054
236	0x3d3d52ea	0.04622165
237	0xbd9cce2f	-0.07656514
238	0xbd9b5960	-0.07585406
239	0xbd7be702	-0.061499603
240	0xbd5bb702	-0.053641327
241	0xbd2b4c53	-0.041820835
242	0xbd341ef2	-0.043974824
243	0xbd5a177e	-0.05324506
244	0xbd17d7a9	-0.037070904
245	0xbd78b3d7	-0.060718384
246	0xbdc96c2c	-0.09835085
247	0x3d1549f5	0.036447484
248	0x3c8b68c9	0.017017739
249	0x3cff37cf	0.031154541
250	0xbdcaac0a	-0.09896095
251	0x3d50acb0	0.050945938
252	0xbc9d04b1	-0.019167276
253	0xbc12757c	-0.008939143
254	0x3d03613d	0.032075156
255	0x3cba4d3c	0.022741906
