trained_models/pairs/MYOD1_MYOG_Model_state_dict.pt (torch, 550620 bytes, 22 tensors)

iconv.weight f4 [64, 4, 20]
000000 41 3a 9f 3d 32 52 af ba f8 ec 26 3d 30 a6 16 3e
       0.07774783 -0.0013375937 0.040753335 0.14711833
000010 21 51 04 be 05 85 25 be 4b ca 46 be 2c bb d9 bd
       -0.12921573 -0.16164024 -0.19413106 -0.10631403
000020 27 e4 94 bd 11 a0 54 be f6 53 a6 bd a7 95 ac bb
       -0.07270079 -0.20764185 -0.08121483 -0.0052668634
000030 bf 08 1d 3d 0a d8 a0 3d 00 c5 16 3d 20 4a e2 3d
       0.03833842 0.07853706 0.036808968 0.110492945
000040 66 e0 0d be 39 b8 eb bc a5 92 e6 3a bb 19 62 bd
       -0.13855132 -0.028774368 0.0017591311 -0.05520032
000050 7f 0e c1 bd d0 14 32 bd e4 ce b9 bd dc db c1 bd
       -0.09426593 -0.04347688 -0.090726644 -0.09465763
000060 d3 69 9f 3d 81 60 a8 3d 0f 3c d9 39 86 f3 cb bd
       0.07783856 0.08221532 0.00041434212 -0.09958558
000070 2a 27 3d be be 69 0a be d3 e4 2d bb b2 15 19 be
       -0.18471971 -0.135169 -0.0026534095 -0.14949682
000080 c2 06 14 3e 30 20 08 be e2 a4 34 bc d4 1e 62 bd
       0.14455703 -0.13293529 -0.011025639 -0.05520518
000090 ae 2e a2 bd 7e 13 e0 3c 6f 2a 62 be b9 c9 87 bd
       -0.0791906 0.027353045 -0.220865 -0.066302724
0000a0 67 de ec 3c 84 f4 45 be 97 12 1a 3d d7 e0 21 be
       0.028914643 -0.19331557 0.037615385 -0.15808426
0000b0 bf 0f 87 bd ab c0 b8 bd c5 42 22 3d 33 7b c2 3c
       -0.065948 -0.090211235 0.039614458 0.023740387
0000c0 5c 0a 7c 3d 60 f7 ac 3d 3a f9 65 be 04 9e c7 bd
       0.061533317 0.084456205 -0.22458354 -0.09746936
0000d0 d2 93 22 be cc b6 b2 bd 0e 25 4c bc 3f af e1 3c
       -0.15876701 -0.08726272 -0.012460006 0.027549384
0000e0 c6 90 3f bd 7b ee 20 bd d1 9c 99 bd 21 34 c0 bd
       -0.046768926 -0.039289933 -0.075006135 -0.09384943
0000f0 54 4d bf bd d3 f3 d3 bd fc bf 48 bd 22 ad 57 bc
       -0.09340921 -0.1034924 -0.049011216 -0.013163837
000100 40 dd cc 3c c7 73 4c 3d 1d 76 03 3d b9 8b 6f bd
       0.025007844 0.0499151 0.032095063 -0.05848286
000110 08 a8 44 be 2c ef 77 3b 3e 49 3d bd cd 76 c6 3d
       -0.19204724 0.0037831767 -0.046212427 0.09690628
000120 30 38 9f bd 29 49 c0 b9 40 27 10 be cb a1 8d bd
       -0.07774389 -0.00036675602 -0.14077473 -0.06915625
000130 e2 78 71 bd ee b7 52 bd bb cc c6 bd bf ae 03 3d
       -0.058953173 -0.05144494 -0.09707018 0.032149073
000140 d4 46 a1 ba db 6d f6 3c 4d 7d cf 3c 72 e7 bc 3c
       -0.0012304434 0.03008168 0.025328303 0.02305958
000150 98 e3 d7 bd f9 54 b8 3c dd 15 36 3d 44 c4 2d bd
       -0.10541457 0.022501456 0.044454444 -0.0424235
000160 f0 00 2d bd e6 5b 10 3d ad fe ac 3d 7e 03 b9 3b
       -0.042237222 0.03524389 0.08447013 0.0056461683
000170 c3 d5 cd bb 41 0a 91 be 40 e3 17 3d 63 26 12 be
       -0.006281586 -0.28328136 0.037081957 -0.14272456
000180 a8 f0 71 bd df 4f 00 be 55 57 ce bd 33 3d 5b 3d
       -0.0590674 -0.12530468 -0.10075251 0.05352516
000190 2d 1d 50 bb 0c 89 10 3c ba 44 cd bc ed 5f c4 3c
       -0.0031755671 0.008821737 -0.025057185 0.023971522
0001a0 ef a9 86 3d 68 26 62 bd bb 4a 7d 3d 57 ae 7f 3c
       0.06575381 -0.05521241 0.061838847 0.015605531
0001b0 03 ee 00 3d 71 30 28 bb 5b 24 07 bd fe 55 89 bd
       0.031476986 -0.002566364 -0.032993656 -0.06705855
0001c0 8c 6a b5 3c 9a 02 e8 3d 76 d8 0b be db 96 84 bc
       0.022145532 0.11328621 -0.13656792 -0.016185215
0001d0 14 e7 36 3d 89 08 a1 bd f5 91 04 bd ef 96 0e 39
       0.044653967 -0.07862956 -0.032365758 0.00013598402
0001e0 b9 75 f9 3c 73 ec 87 3d 0e 32 42 bd 3d 6f 26 bc
       0.030451642 0.06636896 -0.047411017 -0.010158357
0001f0 b4 89 73 3d 5a 3c 7e bd 7a 96 19 3b 65 d1 8e bd
       0.059457496 -0.062069274 0.0023435638 -0.069735326
000200 67 21 44 bd e6 99 69 3c 9a 07 5b 3d 8b fc 54 bc
       -0.047883417 0.014257884 0.053474046 -0.012999664
000210 6c ff 69 bd a9 55 45 3e ec 50 73 be 35 6a e5 3d
       -0.057128355 0.19270958 -0.23761338 0.11201898
000220 e0 c5 e1 3c be 11 ee bc cd 4f 98 bd 7a 17 1e 3d
       0.027560174 -0.029061195 -0.07437096 0.038596608
000230 88 53 ce bc e6 89 86 bc ff 42 c0 bc 3b da c2 3d
       -0.025186315 -0.016423177 -0.023469446 0.095142804
000240 68 86 ac bd 40 aa e3 3c f4 a0 50 3d 97 dc ff 3c
       -0.084240735 0.027791142 0.050934747 0.031233115
000250 a8 4d b2 ba 8b ed ad 3d 80 09 b7 bc 02 34 02 be
       -0.0013603466 0.08492573 -0.022343397 -0.12715152
000260 81 b7 f1 bd 81 75 01 be b3 a2 1e 3e ce 1a 1c 3d
       -0.11802579 -0.1264248 0.15491752 0.0381115
000270 a0 46 17 bc 3b f7 f1 bd 00 bc 5b bd 7d eb 57 bc
       -0.009233147 -0.118147336 -0.053646088 -0.013178703
000280 83 fb 2f bd 93 02 9b 3c 97 60 71 bd b9 a7 94 bd
       -0.04296447 0.018922126 -0.058930006 -0.07258553
000290 9c ab dc bc 79 0f 28 bd ed 1b c4 bd d1 2e ac 3d
       -0.026937298 -0.04103038 -0.09575639 0.08407367
0002a0 6e 49 34 3e ff 7b 3c bf e8 28 88 3e ab fc 9f be
       0.17606136 -0.73626703 0.2659371 -0.31247458
0002b0 f4 2f 86 be 7e 0b 26 bf 64 31 1a bf 15 4c 76 be
       -0.2620846 -0.64861286 -0.60231614 -0.2405246
0002c0 7c dc 98 bd 28 a3 80 bd c1 ce cd bd 0c b0 95 bd
       -0.07463929 -0.062811196 -0.10049201 -0.07308969
0002d0 e5 ba 37 bd 5d d9 5e bc 93 aa aa bd 6e 24 d7 bd
       -0.04485597 -0.013601628 -0.08333316 -0.10504995
0002e0 b6 37 c6 bc 9e bb 90 bd a7 05 0e bd 8a 2e 9e be
       -0.024196487 -0.07067035 -0.03467336 -0.3089488
0002f0 62 9c 55 be 77 9c 94 3e c2 90 46 bf 3d 6c a8 be
       -0.20860437 0.29025623 -0.7756463 -0.3289508
000300 3c f0 5f 3e bc 50 b4 be 8f 71 5f bf 9b 30 e4 bc
       0.21868986 -0.35217845 -0.8728265 -0.027855208
000310 e9 34 e4 bc f7 b1 0c be 44 5d a6 bc 0f ae 9f bd
       -0.02785726 -0.13739763 -0.020308144 -0.07796871
000320 e2 32 48 bd f6 7f 3c bb df 25 a2 bd e6 a3 99 bd
       -0.04887665 -0.0028762794 -0.079173796 -0.07501964
000330 17 46 f8 bc d3 0d 22 bc 4c 3b 9f bd ac ab d9 bc
       -0.030306859 -0.009890991 -0.07774982 -0.026571117
000340 d2 f3 a4 bd 46 4b 42 bf cd a4 09 bf 94 d3 38 3e
       -0.080543175 -0.7589611 -0.5376709 0.1804946
000350 5e fb 20 be 2f b6 30 bf 5c a6 97 3e d6 44 e6 bd
       -0.15720889 -0.6902799 0.2961911 -0.11243598
000360 25 f1 3a be 01 32 a1 bd e5 27 50 bd 85 9b 6f bd
       -0.18256052 -0.078708656 -0.050819296 -0.058497924
000370 06 0f 5b bc 0b 00 29 bc df 2f b3 bd 81 bb ab bd
       -0.013370281 -0.010314952 -0.08749365 -0.08385373
000380 59 c9 96 bd 90 e1 b8 bd c8 ae 5a bd a2 a8 a2 be
       -0.07362623 -0.09027398 -0.05338934 -0.31769282
000390 7b 72 98 be bf f5 1f bf 55 d0 5d bf 20 e9 c5 be
       -0.29774842 -0.62484354 -0.86646014 -0.38654423
0003a0 70 ca 65 be d3 dc bf 3e ff ec 32 bf fd 40 ba 3d
       -0.22440505 0.37473163 -0.6989288 0.09094427
0003b0 f6 43 de 3d 97 80 b9 bd f7 8b 30 bc b6 2d 3e bd
       0.10852806 -0.0905773 -0.010775558 -0.046430312
0003c0 6b 90 50 3d 62 ac ed 3c 42 8e 3f 3d e5 b7 aa bd
       0.050918978 0.029012863 0.046766527 -0.08335856
0003d0 8b 91 51 bd 3d 23 ed 3d f7 54 16 3d e3 b7 66 3c
       -0.05116419 0.11578987 0.036702123 0.014081928
0003e0 67 2e 68 bc 94 44 69 bd d1 5e 04 bc a1 40 72 bb
       -0.014171219 -0.056950167 -0.008079247 -0.0036964791
0003f0 d2 6c a1 bd 94 da 72 bb b8 04 f1 3c 11 ac 53 bc
       -0.07882084 -0.0037056552 0.029421195 -0.012919442

iconv.bias f4 [64]
000000 70 c6 13 be 6f 9c 89 bc 17 64 2e bd 2f 94 94 bd
       -0.14431167 -0.016798226 -0.042575922 -0.07254826
000010 40 9f 0a bd ca 5f 85 bd 27 6b 8d bd 86 10 a9 bd
       -0.03384328 -0.06512411 -0.06905203 -0.08255105
000020 06 36 cf 3c bc 9b 83 bd 5b e5 a2 bd a9 d1 9e bd
       0.025294315 -0.06426188 -0.07953902 -0.07754833
000030 63 70 56 bd 15 13 13 be cb ca d8 3c 3a 79 c5 bd
       -0.052353274 -0.14362748 0.026463887 -0.09642263
000040 ef d3 c2 bd dc 67 0f bd 98 1e 26 be d9 2d bc bd
       -0.095130794 -0.035011157 -0.16222608 -0.09188432
000050 3f 21 93 3d 78 55 6f bc 8c 30 9a 3d 69 8e c8 bd
       0.071840756 -0.01460778 0.07528791 -0.097927876
000060 82 45 f7 bd 8b 3b 54 bd 92 a3 29 be 52 d5 92 bd
       -0.120738044 -0.051814597 -0.16566303 -0.07169594
000070 6a 4e 01 be 40 f4 66 3a 08 29 9f bd 44 3e 7d 3d
       -0.12627569 0.00088102 -0.07771498 0.06182696
000080 7e 34 ea bd bc 41 a7 bd 71 3c 87 bc 23 f8 a9 bc
       -0.11435793 -0.08166835 -0.016508313 -0.020748204
000090 94 03 14 be 3e 5e 16 3d e0 1a 22 be d1 96 66 bd
       -0.1445449 0.03671097 -0.15830564 -0.056296173
0000a0 9b 59 38 be df 31 a2 bc 04 d8 82 3d 16 f3 13 be
       -0.18002932 -0.019799171 0.06388858 -0.14448199
0000b0 50 e5 e9 bd ca c1 4e 3c b4 59 bf bc aa 2b 93 3d
       -0.11420691 0.012619445 -0.023358203 0.07186063
0000c0 44 8e e8 bd b8 4c 0e be 83 8e f3 bb db c5 de 3c
       -0.1135526 -0.13896453 -0.00743276 0.027193954
0000d0 34 21 b5 3c e2 f0 fc bd 7f 97 da bc 71 44 0d be
       0.022110559 -0.12350632 -0.026683567 -0.1379564
0000e0 6e 4e c1 bd 0e d7 d3 3c 84 4d 26 3d 48 d0 4d bd
       -0.094387874 0.025859382 0.04060127 -0.05024746
0000f0 83 a3 1b be e1 5f 39 bd 1b 15 1a bb e8 0c 37 3d
       -0.15199094 -0.045257453 -0.0023511115 0.044690043

rconvs.0.weight f4 [64, 64, 3]
000000 c7 cb 11 bd 20 e6 23 3d 88 ea 9a 3c 49 20 eb bc
       -0.035594728 0.040014386 0.018910661 -0.028701918
000010 e2 3d 73 bd 4e e1 07 3d 1d cc 79 bd 6f e5 85 bd
       -0.059385188 0.03317385 -0.060985673 -0.065379016
000020 f2 ef 07 bd 5c 8f 28 bd c3 9c 9f bd a9 5a 98 bd
       -0.033187814 -0.041152343 -0.07793572 -0.07439167
000030 2c 68 97 bd 60 a3 89 bd ab 05 49 3b bf 8c 9d bb
       -0.07392916 -0.067206144 0.0030673544 -0.004808038
000040 09 d4 7b bd d6 a7 94 bd ea c6 db bc f4 95 c4 bc
       -0.06148151 -0.07258575 -0.026828248 -0.023997284
000050 ca 2c b6 bd b3 98 3e bd 01 cd bf bd cd d7 ee 3c
       -0.088952616 -0.046532344 -0.09365273 0.029155636
000060 0a ca a1 bd 47 0a 0f bd f6 57 20 3d e9 8f 53 bd
       -0.07899864 -0.03492191 0.039146386 -0.051650915
000070 06 75 8a bd 30 3f 0e 3d 12 47 21 3d ba b3 1c 3c
       -0.06760602 0.03472823 0.03937442 0.0095643345
000080 3f 67 c1 3c 79 d6 2d bd 25 7e a0 bd 68 59 ae 3c
       0.023608802 -0.042440865 -0.0783656 0.021282867
000090 90 e9 be bd e4 76 bf bd 2f d7 5d bd 8d c3 e7 b9
       -0.09321892 -0.093488485 -0.054160293 -0.0004420545
0000a0 ef a7 52 bd ce dd fb 3a 69 68 c9 bc 32 b7 92 bd
       -0.051429685 0.0019215883 -0.02458592 -0.07163848
0000b0 26 80 ab 3c 43 69 5a bd e0 ab 0b bd ea 65 d8 3c
       0.02093513 -0.05332304 -0.03409946 0.026415784
0000c0 85 db 04 3d e2 e2 c1 bc af dd 25 3d 10 db 10 3d
       0.032435913 -0.023667756 0.040494617 0.035365164
0000d0 75 0b 34 3d 64 29 27 3d 5f e8 aa bd 67 cb da bc
       0.04395624 0.040810958 -0.083451025 -0.026708318
0000e0 c4 64 bc bd 11 87 da bc 99 3e fd 3c 97 02 bf bc
       -0.09198907 -0.026675733 0.030913638 -0.023316665
0000f0 b3 e9 5d bd 61 3a 7b bb 28 4a 69 bd 64 09 c4 bc
       -0.05417795 -0.0038334357 -0.056955487 -0.023930259
000100 cf a3 5c bc d9 49 5c 3a 7b d9 56 bd 31 37 2d 3c
       -0.013466789 0.0008403338 -0.0524535 0.010572241
000110 3f 8e 6f bb bd e9 9c bd 7f 94 9c bd 09 d1 2f 3c
       -0.003655329 -0.076617695 -0.07645511 0.01073099
000120 f0 ff 9d bd 8e a7 63 3c 2b b0 6e 3c 77 fd 62 3c
       -0.07714832 0.013894929 0.014568369 0.013854376
000130 34 f4 f7 3c 10 01 0d 3d ba ed 3e bd b9 34 69 bd
       0.030267812 0.03442484 -0.046613432 -0.056935046
000140 f2 19 cb bd 50 de eb bc c8 47 a4 bd b5 45 b4 bd
       -0.09917058 -0.02879253 -0.08021504 -0.08802358
000150 5e a1 c8 bd e1 f6 2e 3d b8 7d 26 3c eb 89 8f bc
       -0.09796403 0.04271591 0.01016181 -0.01752182
000160 93 cb 8b bd af 4f 2e 3d 79 93 4b bc e9 42 53 bb
       -0.06825938 0.04255646 -0.012425297 -0.0032235926
000170 b5 af e0 bc ea ca a6 bd d2 54 9a bb a8 ab 76 bd
       -0.027427534 -0.081441715 -0.0047098184 -0.060222298
000180 79 7a 98 bd b2 ac a0 bd 66 75 94 bd 70 c8 a6 bc
       -0.07445235 -0.07845439 -0.072489545 -0.020359248
000190 59 b4 3d bd 38 51 ba bd 21 b9 98 bd 76 db 1f bd
       -0.04631457 -0.090975225 -0.074571855 -0.039027654
0001a0 2b 6c 11 bd f5 7b 3c bd 3f c6 41 bc 93 38 03 3d
       -0.035503548 -0.046016652 -0.011827051 0.032036375
0001b0 95 4b 15 bd 54 45 1a 3d 83 e4 de 3c c3 4b 12 bd
       -0.036449034 0.037663773 0.027208572 -0.035716783
0001c0 9d 87 8b bb e4 d4 5c bd 20 67 b7 3c 36 d1 dc 3a
       -0.0042581097 -0.053913966 0.022388041 0.0016847018
0001d0 e9 2f aa 3c 57 db 2d bd 30 cc 42 bd fc fb da 3c
       0.020774798 -0.042445507 -0.04755801 0.026731484
0001e0 30 9c ba bd 0f 7d 8b 3c b6 10 ee 3c bb 5b f8 3c
       -0.09111822 0.017027406 0.029060703 0.030317178
0001f0 d2 b1 38 3d d8 17 f2 3b 14 4c 92 3c be 41 17 bd
       0.045091458 0.0073880963 0.017858543 -0.03692793
000200 bb b5 eb 3c 19 95 eb 3c 93 72 18 bd 69 eb ed bc
       0.02877318 0.028757619 -0.03721864 -0.029042916
000210 01 68 5a bd 81 db e3 3c bc 7c a2 bc 71 90 cc 3c
       -0.053321842 0.027814629 -0.019834869 0.024971219
000220 52 96 28 bd 2b 99 f4 3c 72 98 a0 bc cc eb ac bd
       -0.04115898 0.029858192 -0.019603942 -0.08443412
000230 11 d3 da 3c 87 72 07 3d ce 24 be bd 7b 02 c5 bd
       0.026711972 0.033068206 -0.09284364 -0.09619614
000240 29 e1 7b bd 94 22 d1 bc 18 d7 a7 bd b7 a2 46 bd
       -0.061494026 -0.025529183 -0.08195323 -0.04849502
000250 67 b7 66 bd c1 e8 9a bd b1 0e 8a bd 1c 52 8e 3b
       -0.05632725 -0.075639255 -0.067410834 0.0043432843
000260 af 95 cb bb 6b 6b c9 3c b3 be e4 bc 2f 2a 80 bd
       -0.006212912 0.024587354 -0.027922964 -0.06258046
000270 36 fe 76 bd 21 fd 6e bd 14 d3 23 3d 56 6b 22 bc
       -0.06030103 -0.05834687 0.03999622 -0.009913286
000280 76 67 fd 3c 28 11 c8 bd ed 5f 52 bd 1a d2 ec 3c
       0.030933123 -0.09768897 -0.051361013 0.028908778
000290 70 b2 21 3c 69 79 4e 3b 94 18 9a bd ed 5f b2 bd
       0.009869203 0.0031505472 -0.07524219 -0.08709703
0002a0 00 c1 3b bc be ba f4 bc 05 97 8a bd 69 ae 1c 39
       -0.011459589 -0.029874202 -0.06767086 0.00014942292
0002b0 f1 35 30 bb 01 4e c9 bd bc 8a 96 bc 9d 5b 88 bd
       -0.002688762 -0.09829331 -0.0183767 -0.06658099
0002c0 19 3a 90 bd 6b e8 58 bd 77 6a 1e bd a4 b8 68 3c
       -0.07042331 -0.052956026 -0.03867575 0.014204178
0002d0 47 b5 b2 3b 98 2d 98 bd 2c 06 95 3c 9d 91 0d 3d
       0.005453739 -0.07430571 0.01819142 0.034562696
0002e0 23 2f 8a bd 6a 88 ee 3c 22 eb bf bd 9f 34 18 bd
       -0.06747272 0.029117782 -0.0937102 -0.03715956
0002f0 b2 26 78 bd 95 ba c1 3c ff f0 ec bc 5b ab a6 bc
       -0.060583778 0.02364854 -0.02892351 -0.02034538
000300 40 e5 dc 3c db 4e 80 3c 92 db ae bd ad 57 05 3d
       0.026964784 0.015662601 -0.085379735 0.032554317
000310 c1 46 53 3d 7e c0 fe bc 4b 95 ab bc 3a 3f 62 bd
       0.051581148 -0.031097647 -0.020945212 -0.05523608
000320 0d 0e e7 bc 6f a5 83 bd ab 83 97 3b 46 72 be bd
       -0.028204942 -0.06428038 0.0046238503 -0.0929914
000330 a5 08 17 be 08 7c 1c bd 9c e4 b6 3d 6e 7c a8 bd
       -0.14749391 -0.038204223 0.089303225 -0.08226858
000340 07 a8 86 bd 20 6a c6 bd 64 1f 69 bd bf 54 0a 3d
       -0.065750174 -0.096882105 -0.056914702 0.033772226
000350 27 18 c7 bd d2 bb 92 bc 7c 42 ee 3b ab 66 98 bd
       -0.097214036 -0.017911825 0.007271109 -0.07441457
000360 c7 8f 9f bd e2 48 b3 bd b6 6c b0 bd 9b 76 78 bc
       -0.07791095 -0.08754136 -0.08614485 -0.0151649965
000370 91 8b 21 bd ac ba 06 3d 57 1f 75 bd c2 ce 16 3d
       -0.03943974 0.032892868 -0.05984434 0.036818273
000380 3e c0 02 bd f4 9d 85 bd a6 43 ad bd ea 28 8e bd
       -0.031921618 -0.06524268 -0.084601685 -0.069413975
000390 d1 c9 b4 bc 9c 79 06 3d 16 b2 06 3d 12 73 55 3d
       -0.02206889 0.03283082 0.03288468 0.052111693
0003a0 fc ee 3a 3d 57 1c 95 bc 72 cb 30 3c 0f c2 10 3d
       0.04563807 -0.01820199 0.010790693 0.03534132
0003b0 89 3b 77 3c 78 f4 55 3c f6 99 9f bd 63 4e 30 3d
       0.015089878 0.013058774 -0.077930376 0.043043505
0003c0 76 59 30 3d 48 d8 a3 bd fb 9e 0e bd 28 f7 13 bd
       0.043054067 -0.08000237 -0.034819584 -0.03612438
0003d0 2e fa f0 bc 55 1b 13 bd dc b7 16 bc 64 0a 84 bd
       -0.02941617 -0.035914738 -0.009199109 -0.06447294
0003e0 6b 3b 48 bc f0 4f 6d bd 1f 31 70 bd 5b 8f 96 3c
       -0.012221198 -0.057937562 -0.058640596 0.018378904
0003f0 47 d1 a1 bd e6 6f a7 bc 7c 52 eb bd 5b 06 47 bc
       -0.079012446 -0.0204391 -0.11490342 -0.012147511

rconvs.0.bias f4 [64]
000000 89 1d cf bc 38 68 89 bb 6a 65 34 bd 95 31 99 3c
       -0.025282638 -0.004193332 -0.04404203 0.0187004
000010 49 15 78 bd c4 7f 5f bd f3 3f 34 bd 9e 7e c5 bc
       -0.060567174 -0.054565206 -0.0440063 -0.024108227
000020 39 5e 9b bb 3e 97 3b bd 0f 0e 92 bb 58 79 46 bb
       -0.004741457 -0.045798533 -0.0044572423 -0.003028473
000030 d3 21 3f bd c5 f9 8c bd 41 08 f0 bc 5c a7 80 bd
       -0.046663117 -0.06883577 -0.02930081 -0.06281921
000040 3d ae 7e 3c 66 1b 7b bd 1c ad 34 bd 21 5d 86 bd
       0.015544471 -0.061305426 -0.044110402 -0.06560732
000050 02 ea 89 bd 4b a9 6f bd 79 ad f7 bb 55 4c 19 bc
       -0.067340866 -0.05851106 -0.0075585213 -0.009356578
000060 79 93 57 3d c7 cc c3 3d f7 2d ca bd 82 51 b4 bc
       0.052630875 0.095605426 -0.09872048 -0.022011522
000070 b6 e7 a0 3c cd 84 6c bd 7a ba f3 bc e5 e1 64 bd
       0.019641738 -0.057743836 -0.029752005 -0.055879492
000080 ff 85 b5 bd 8b 9c e6 3a 64 6c b8 3b 8a bb 5e bd
       -0.08863448 0.0017594261 0.0056281555 -0.05437807
000090 a4 40 6d bd 06 77 72 bd e9 5b 24 bc 52 c1 64 3c
       -0.057922974 -0.05919554 -0.010031679 0.013962107
0000a0 5f ea a8 bd 42 46 c1 bc c8 82 07 3a ce 71 24 bc
       -0.08247828 -0.023593072 0.0005169329 -0.010036899
0000b0 65 07 84 bd c7 d3 67 3d 17 3a 93 bb 19 10 75 bd
       -0.06446723 0.05659845 -0.004493009 -0.059829805
0000c0 ee ed c1 bb 61 22 08 bd 03 f7 a6 3c 82 a5 6b 3b
       -0.005918256 -0.03323591 0.020381456 0.0035956805
0000d0 13 5d 10 3b 79 4f d0 bc d4 30 18 bd dd 36 d9 bc
       0.0022028133 -0.02542852 -0.03715594 -0.026515419
0000e0 c3 4c 90 3b e6 d9 62 bd af 3d f4 3c 68 33 87 bd
       0.004403682 -0.055383585 0.02981457 -0.06601602
0000f0 0a 8a 33 bd 7a ca 6f bd 34 98 10 3c 54 cc 8c bd
       -0.043832816 -0.058542706 0.008825351 -0.0687491

rconvs.1.weight f4 [64, 64, 3]
000000 59 5e 27 bd 2d 49 10 bd 3e d4 10 3b 6a 78 a6 bd
       -0.04086146 -0.035226036 0.0022099162 -0.08128436
000010 89 ef ce bd 2a 6b 9c ba e4 ae a7 3c 96 85 9f 3b
       -0.101042815 -0.0011933793 0.020469137 0.0048682196
000020 7b d6 1f bd 03 fa df bc ff ab 1a 3d 6b 82 8d 3c
       -0.039022904 -0.027340895 0.037761685 0.017274102
000030 a3 67 16 bd 35 73 df bd ce fa e4 bd 4a 9f 7d bd
       -0.03671993 -0.10910646 -0.1118065 -0.061919488
000040 03 9e d8 bc 83 9f bd bd 68 be 40 bd a3 16 e8 b8
       -0.026442533 -0.0925894 -0.047056586 -0.000110668385
000050 fb ce 53 bd 5d b3 d7 3c 53 03 1c bd 34 14 0a 3d
       -0.051711064 0.026330644 -0.038089108 0.033710673
000060 06 1e a7 3b a2 7a 93 bd 21 da c5 bc 4f 0b 0b 3c
       0.0051000146 -0.07201125 -0.024151864 0.008486583
000070 44 0a a0 ba 7f 4f 9d bd 8d 0b c7 bd f6 f8 a9 bd
       -0.0012210091 -0.07681178 -0.09719 -0.08299439
000080 5f 1b cf bc 21 ca 2c 3c b2 86 9a bd 97 1a cf 3c
       -0.025281606 0.010546238 -0.07545222 0.025281234
000090 c3 f8 c8 3c 12 0b 9b bd 85 0c 87 bd 33 ac a7 bb
       0.024532681 -0.07570471 -0.06594185 -0.0051169633
0000a0 4b 76 10 bd 1b 1b 15 3d c0 3a 52 bd e1 30 92 bd
       -0.035269063 0.036402803 -0.05132556 -0.07138229
0000b0 4d d2 7d bb 55 01 2c 3d 44 3e 6f bd ba cc 14 bd
       -0.0038730085 0.041993458 -0.05840899 -0.036328055
0000c0 03 58 ce 3c b9 d8 3f bb e5 46 83 bd 65 f4 d6 3c
       0.025188452 -0.0029273464 -0.064100064 0.026239583
0000d0 94 91 93 bd dc 9f 85 3c 35 bf 1f bd 79 53 6b bc
       -0.07205501 0.016311578 -0.03900071 -0.014363163
0000e0 d5 62 9c bd 0d aa 8e bb 2c 40 9b 3c 91 d1 aa bd
       -0.07636038 -0.0043537677 0.018951498 -0.08340753
0000f0 e4 74 62 bd 3d c2 c7 bc 12 47 6c bc 12 a0 39 3c
       -0.055287257 -0.024384612 -0.014421241 0.011329668
000100 f6 f8 c4 bd 35 d3 8d bd 14 a7 8d bc 32 85 09 bd
       -0.09617798 -0.0692505 -0.017291583 -0.03357429
000110 3c f2 f1 bc 53 1e 88 bd 5c 37 a1 bd 36 05 d0 bd
       -0.029534452 -0.06646409 -0.07871887 -0.10157244
000120 57 0f d8 bd 82 9d f7 bc e2 3f ed bd 6a 35 87 bd
       -0.10549801 -0.030226473 -0.1158445 -0.06601985
000130 c6 ce 23 3d 89 84 67 3b 1a 53 18 3d 1e 76 65 bd
       0.039992116 0.00353268 0.037188627 -0.05602085
000140 19 e1 16 bc 95 2f 0c 3d f6 d0 5b bb 68 09 84 bb
       -0.009208941 0.034225065 -0.0033541298 -0.0040294416
000150 e7 1a b9 bd e2 fd d4 3b 57 7c 72 bd 03 89 d2 bd
       -0.09038334 0.0064999918 -0.05920061 -0.10280039
000160 35 de 25 bd e4 62 a8 3c 74 dd 32 3d a0 88 55 3c
       -0.040495116 0.020554967 0.043668225 0.013033062
000170 a1 c8 27 bc ea 19 de 3c d6 66 cd 3b fd 17 cb 3b
       -0.010240705 0.027111966 0.0062683625 0.006197928
000180 44 fb 30 bd 52 bc 0f bd 90 a1 94 bd 6d 12 89 3c
       -0.043208376 -0.035091706 -0.07257378 0.016732419
000190 d3 1a 89 bd fb 55 4f 3c 5c 19 87 3c 3c f4 23 bd
       -0.066945694 0.012654777 0.016491584 -0.040027842
0001a0 28 12 c9 3c 80 ad cd bd 4f 6e cf ba 34 26 85 bd
       0.02454479 -0.10042858 -0.0015825721 -0.06501427
0001b0 38 7c a9 bd 2a 35 ab bd 4d d6 c4 bc 4f 04 3c bc
       -0.08275646 -0.083597496 -0.024027968 -0.011475637
0001c0 f8 83 87 bd 18 1e 70 bd a9 84 43 bc ba 48 32 bd
       -0.06616968 -0.05862245 -0.011933484 -0.04352639
0001d0 9e e6 c5 3c ca ed bd bd 62 de 49 bd 53 b1 d9 3c
       0.024157818 -0.0927387 -0.049284346 0.026573813
0001e0 8a 87 c7 bd ba bb a8 bd 7d 65 8f bc 64 0f 9e b9
       -0.09742649 -0.08238931 -0.017504448 -0.00030147575
0001f0 ee d5 96 bb ff 48 29 bd 59 d2 6e bd 71 61 2d bd
       -0.004603139 -0.04132938 -0.058306072 -0.042329255
000200 42 09 b4 bd ac 27 b9 bd 0a 6f bf bd 7a 87 a8 bd
       -0.08790828 -0.0904077 -0.09347351 -0.08228965
000210 33 62 f0 bb cc 02 89 bd 02 b2 b8 bc 10 cb 30 3d
       -0.007335925 -0.066899866 -0.022545818 0.043162405
000220 39 48 78 bd a8 d2 0a 3d 85 3e 15 bd 00 08 82 3c
       -0.060615752 0.033892304 -0.036436576 0.015872955
000230 c0 8e 10 3d 40 7c b4 bd 3e 59 09 ba 78 fb 0e bd
       0.035292387 -0.08812761 -0.00052394334 -0.034907788
000240 5e c4 55 bc fa 5c a4 bd bb f1 f8 bc e9 64 fe bc
       -0.013047306 -0.08025546 -0.030388704 -0.031053977
000250 a6 8d 26 3c 44 4b b3 bd 5e 1e c0 bd 08 44 75 bc
       0.010165608 -0.0875459 -0.09380792 -0.014969833
000260 38 65 ac 3c 0a 20 42 bd ac 0a 28 bc 48 97 8e 3c
       0.021044359 -0.047393836 -0.010256451 0.01740612
000270 e8 8c bb bd 9c 2e d4 bd eb 12 2f bd 28 8c d1 bd
       -0.09157735 -0.103604525 -0.04274265 -0.10231811
000280 5e b8 bd 3c 13 f3 b7 bc a2 fc 86 b7 07 c2 7c bd
       0.023159202 -0.022454774 -1.6091686e-05 -0.061708476
000290 b4 02 6c 3c 78 7c bf 3c 5b 39 65 ba 78 d1 72 3c
       0.014404941 0.023374781 -0.00087442034 0.014820449
0002a0 60 ce ac bd 56 5b d0 3b c8 73 5f 3c b7 3b bb bc
       -0.084378004 0.0063585443 0.013638444 -0.022855623
0002b0 50 39 b1 bd dd 4a 9a bd f0 b1 b5 bd a1 f6 f5 3c
       -0.086535096 -0.0753381 -0.088718295 0.030024828
0002c0 9a cb 65 bd 77 b2 18 bd 31 4c bf bc d6 f0 9f bd
       -0.056102373 -0.037279572 -0.02335176 -0.07809608
0002d0 e9 db 10 3d bb 9f 28 bd 38 39 19 bc dd d4 79 bd
       0.035365973 -0.041167956 -0.009352021 -0.060994018
0002e0 4a 74 89 bd d3 d3 27 bc b1 d6 5b bd 28 e7 b8 bd
       -0.067116335 -0.010243374 -0.053671543 -0.090284646
0002f0 b3 8c 68 bd e6 e8 2c bd bc f2 69 bd ef 83 16 bd
       -0.056774806 -0.042214297 -0.057116255 -0.036746915
000300 b8 88 86 bd f3 5d c5 bd 6f d8 ca bc 52 4c 68 bd
       -0.06569046 -0.0963706 -0.024761407 -0.05671341
000310 ad 31 1d bd 04 2b 0c bb 03 78 ac bd 02 39 9f 3c
       -0.038377453 -0.0021387944 -0.08421328 0.019436363
000320 a4 2b 59 bd 15 c9 12 bd da 34 d5 bd 91 46 84 3c
       -0.053020135 -0.035836298 -0.10410471 0.01614693
000330 d1 63 c8 bd ce d4 fa bc aa d6 c6 bc d5 b0 32 bb
       -0.097846635 -0.030619051 -0.024272282 -0.0027266045
000340 12 78 97 bd f0 74 f7 bc 7d 58 c7 3b 34 fb 4d bd
       -0.073959485 -0.030207127 0.0060835467 -0.050288394
000350 6a e1 07 bd 27 e4 bd bd 03 f2 83 3b 22 5f a2 bc
       -0.033173956 -0.09272032 0.004026653 -0.019820753
000360 d4 9d ac bd 5a 50 d4 bb c1 83 38 bd c7 12 1b 3d
       -0.08428541 -0.006479305 -0.045047525 0.037859704
000370 53 de c4 bd 36 0a af 3c e1 cd c4 bd 38 7a 8e bc
       -0.096127175 0.021367174 -0.09609581 -0.017392263
000380 e4 04 e2 3b b6 60 b6 3c 1e 12 9b ba ce 8e 92 3c
       0.0068975557 0.022262912 -0.0011830961 0.01789036
000390 79 4d c2 bd 94 7b 98 bd 84 52 ab bb 04 20 60 bd
       -0.09487433 -0.07445446 -0.0052283425 -0.054718032
0003a0 d5 18 8a bd 06 93 88 bd fd 54 11 bd ef be 45 bc
       -0.067430176 -0.066686675 -0.03548144 -0.012069448
0003b0 42 b0 ea 3c 3e 10 e9 3b 12 4f 91 3b d5 78 56 bb
       0.0286485 0.007112532 0.0044344747 -0.003272583
0003c0 3b 13 64 bd 19 82 ac bc 1a 3e 1c bd eb 5d 8c bd
       -0.055682402 -0.02105813 -0.038145162 -0.06853851
0003d0 6f a1 4f bd 31 41 bf bd c7 16 ba bd 50 c6 45 bd
       -0.050691064 -0.09338606 -0.09086376 -0.04828483
0003e0 3b ed dd 3c 7b 42 c0 3b eb fd c0 3c 62 e1 2d bc
       0.02709066 0.0058673 0.023558578 -0.0106128175
0003f0 65 e8 a6 bd d3 12 7b bc 15 6d a4 bd e9 ef 8b 3c
       -0.081497945 -0.015324312 -0.08028618 0.017082172

rconvs.1.bias f4 [64]
000000 3c f0 33 bd d7 0c 88 bd 26 10 7f bd 4a a2 40 bd
       -0.043930277 -0.06643074 -0.06227126 -0.04702977
000010 73 a8 44 bd 28 f2 b1 bd 18 e0 ad bd 7a b6 8f bd
       -0.04801221 -0.08688766 -0.08490008 -0.070172265
000020 e3 18 7a bd 81 ee 02 bd 36 91 9c 3c 44 9a a2 bd
       -0.06105889 -0.031965736 0.01911221 -0.0793958
000030 b2 16 a1 bc 54 c1 76 bd bc b2 3b bd 87 63 33 bd
       -0.019664142 -0.060242966 -0.04582475 -0.04379609
000040 87 26 8e bd 6b a7 9c bc 9a 22 83 bd 91 cd 15 3d
       -0.06940942 -0.0191228 -0.06403084 0.036572997
000050 66 62 97 be 85 4c 91 3b 6e d4 cc 3c 27 20 9e bc
       -0.2956726 0.0044341707 0.025003638 -0.01930244
000060 83 79 2e bd 69 30 f9 3b ea ef 16 bd 7c aa 92 bd
       -0.04259635 0.007604648 -0.036849894 -0.071614236
000070 54 ad 78 bd fc b2 e2 bc a0 b9 a2 bd 63 66 0c bd
       -0.060712174 -0.027673237 -0.079455614 -0.03427733
000080 1f d2 7c 3a 6a 0d 30 3d 93 cd 2c bd 85 66 99 bd
       0.00096443476 0.042981543 -0.04218824 -0.07490257
000090 59 97 5a bd e3 79 63 be a4 f2 57 bd af 80 b3 3c
       -0.053366993 -0.22214465 -0.052721635 0.021911947
0000a0 6e ce c9 bc 2e dd 5b bd dd 6c 70 bc a8 a1 1d bd
       -0.024634566 -0.05367773 -0.0146743925 -0.038484246
0000b0 3e 2c b1 bd 23 e1 3c 3d 95 40 b8 bc 7e e9 cf bc
       -0.08651017 0.046113145 -0.022491733 -0.025379892
0000c0 a5 e1 78 be 10 1f a9 bd a0 be be bd 46 76 36 bd
       -0.24304827 -0.08257878 -0.093137026 -0.044546388
0000d0 c4 bb fe bd 53 e4 9a bc 10 f6 b8 bd 4f 98 5e bd
       -0.12438157 -0.018907702 -0.09031308 -0.05434447
0000e0 c2 15 d2 bc e6 04 6b bc f9 07 17 3d 07 cd d2 bd
       -0.02564514 -0.01434443 0.036872838 -0.10293012
0000f0 c4 ca c7 bc 11 bb a9 bd bb f7 3c bb 2f c4 97 bd
       -0.024388678 -0.08287633 -0.0028834182 -0.07410466

rconvs.2.weight f4 [64, 64, 3]
000000 06 5d 7e bc 8d 5d eb 3c a5 0a 95 bd 3b d3 4b bc
       -0.015525108 0.028731132 -0.07277421 -0.012440498
000010 fa a3 12 bd 09 52 04 3e a1 e3 a1 bd 90 d8 09 bd
       -0.03580091 0.12921919 -0.07904745 -0.033653796
000020 e7 f2 84 bd 9c 16 5b bd b5 15 6c bd 86 42 b1 bb
       -0.064916424 -0.05348836 -0.05763789 -0.0054095415
000030 e7 9c db bd db 0b f3 bd 93 12 9c bd 7b 03 5f bd
       -0.10723286 -0.118674956 -0.0762073 -0.05444668
000040 ef 0f 31 3d b2 25 eb bd 1b a0 05 bd a0 c8 59 bd
       0.043228086 -0.11481799 -0.03262339 -0.053169847
000050 13 fd ab bc ad de b4 bc 7f 40 12 bd b4 f7 2c bd
       -0.020994699 -0.022078836 -0.03570604 -0.042228416
000060 72 f7 3c bd 99 44 cf 3c 6b e9 3b 3d 6e e6 10 3d
       -0.04613442 0.025301265 0.0458769 0.035376005
000070 c1 90 78 bd 5d 85 ba 3c 41 89 8e bb a1 9a 91 3d
       -0.060684923 0.02276867 -0.004349858 0.07109571
000080 6e c7 d6 3c 5d c0 62 bb fd 77 54 3d 62 75 ff bc
       0.026218142 -0.003459952 0.051872242 -0.031183902
000090 e7 dd aa 3c 5c 58 d3 3c 2c 7f 8f 3c 83 b5 99 bd
       0.020857764 0.025798969 0.017516695 -0.07505324
0000a0 ab 96 94 bd 8a 6f 1a bc 8d 2c 2e 3d 38 9f aa bc
       -0.072553 -0.009426007 0.042522956 -0.020827875
0000b0 68 76 27 3c a3 15 64 bd c3 d7 92 bb cb fc a4 bd
       0.010221101 -0.055684697 -0.004481287 -0.08056029
0000c0 0a 29 b3 bd bd 58 61 bc 70 f0 41 bc ea f6 45 bd
       -0.08748062 -0.013754067 -0.01183711 -0.04833118
0000d0 63 33 14 bd e6 bd 1e bd 8a 3c 58 3d d4 5e 54 bd
       -0.03618182 -0.03875532 0.05279211 -0.051848248
0000e0 96 b7 fe bd 73 0b eb bd e5 76 2d 3d 93 18 56 3c
       -0.1243736 -0.11476793 0.042349715 0.013067382
0000f0 fc 4b c5 bd bd 88 79 bd 81 4c 21 be ae 2f 25 bd
       -0.096336335 -0.06092142 -0.1575184 -0.040328674
000100 0b 46 81 bd 3b 4b a6 bd 41 68 88 bd ac ce c0 3d
       -0.06312188 -0.08119818 -0.0666051 0.094144195
000110 95 bb b1 bd 40 d2 3d bd 45 b5 d1 bc f1 a4 77 bc
       -0.086783566 -0.04634309 -0.025599131 -0.015115009
000120 ab 72 19 bd 29 d4 2d be d9 61 60 bd 18 f4 83 3a
       -0.03746287 -0.16975464 -0.054780815 0.0010067252
000130 23 43 a5 ba 86 7a a0 bd f7 ff 3a bd a0 fe 09 bd
       -0.0012608509 -0.078358695 -0.045654263 -0.033690095
000140 db 54 40 3a 18 f3 57 3d 36 34 52 3d 80 f9 46 bc
       0.0007336863 0.052722067 0.051319323 -0.012144446
000150 f5 8a a8 bd 49 00 bf 3a 05 e0 61 bd 1a 21 46 3d
       -0.08229629 0.0014572229 -0.055145282 0.04837141
000160 7d 3b fb 3c b3 a3 26 bd 2b 86 56 3c 60 e0 b9 3c
       0.030668015 -0.04068346 0.013093512 0.022689998
000170 ed e6 a1 bc 79 38 57 3d d2 74 c9 3c e1 91 c6 bd
       -0.019763434 0.05254409 0.024591837 -0.09695793
000180 98 50 2d bd 36 05 d8 3b 9c d5 bd bd a9 39 a1 bd
       -0.04231319 0.006592418 -0.092692584 -0.07872326
000190 90 5b 99 bd ec 4d 55 bd e9 df 43 bd f2 31 53 bc
       -0.07488167 -0.052076265 -0.04782096 -0.012890326
0001a0 18 41 18 3c e3 0f 81 bd 63 29 02 bd 84 a8 9d bd
       0.009292863 -0.06301858 -0.03177775 -0.076981574
0001b0 f0 d5 53 bd 73 40 61 bd 62 70 6d bd 94 df 4d 3c
       -0.0517177 -0.054993104 -0.057968505 0.012565512
0001c0 44 9d 31 bd 48 93 a1 bd 65 3c 46 3d c8 7c 3e bd
       -0.04336287 -0.0788942 0.04839744 -0.04650572
0001d0 7d 21 1c 3d 94 72 95 3c ee bd 38 3d 25 aa 65 3d
       0.038117874 0.018243112 0.045103006 0.056070466
0001e0 bc 66 9c bd b2 8c 82 bd a2 6e 95 bd fa cb 08 3c
       -0.076367825 -0.06374492 -0.07296492 0.008349413
0001f0 ad d2 f0 bc 27 8c 87 bd e0 14 86 bd c3 e8 dd bd
       -0.029397333 -0.06618529 -0.0654695 -0.108354114
000200 01 4a 41 bd da 24 07 3c 90 a0 98 bd fe ac ae bd
       -0.047189716 0.008248532 -0.074525 -0.085290894
000210 9c bf ae bb 9a c7 91 bc a5 fc 27 bd fd 3f b1 3c
       -0.0053329 -0.017795373 -0.041012425 0.021636957
000220 ff 9f 87 bc 4a 68 c4 bd 7f 73 ea bc 52 20 ea 3c
       -0.016555784 -0.09590204 -0.028619526 0.028579865
000230 a0 d8 57 bc 27 28 b2 bc 40 34 85 bd 09 62 79 bd
       -0.013174206 -0.021747662 -0.065041065 -0.06088451
000240 f4 6b 01 bd 3b c0 14 bd 82 41 96 bd 31 31 5c bc
       -0.031597093 -0.036316138 -0.073367134 -0.0134394625
000250 78 6d 32 bd 21 72 38 bd b5 ec 37 bc 67 8f 92 bd
       -0.04356143 -0.045030717 -0.011225869 -0.07156258
000260 0a d3 d1 bb 40 7f 82 3d fe 11 90 3b 5b 91 84 bd
       -0.0064033316 0.06371927 0.004396676 -0.06473037
000270 ce 80 41 bd 6b ce b1 bd e0 d9 f5 bd 25 1e 94 3c
       -0.04724198 -0.08681949 -0.12004447 0.01808078
000280 af 20 08 bb 0d 4c b7 bd c6 bd 49 bd 92 79 7e 3c
       -0.0020771434 -0.089500524 -0.049253248 0.015531914
000290 ad fd e8 bd 02 66 dc bc 33 1f 5a 3b f0 23 81 bb
       -0.1137651 -0.02690411 0.0033282756 -0.0039410517
0002a0 e8 54 a8 bb 5c db ef bd 53 71 a7 3d 30 66 32 3d
       -0.0051370747 -0.11711761 0.08175912 0.043554485
0002b0 95 62 5e 3c ec 7a ba bd 38 81 d8 ba 93 ee f4 bc
       0.0135733085 -0.09105477 -0.0016518002 -0.029898917
0002c0 ae 2e 4c bc 08 44 f2 bc a0 be d5 3c c4 5c 77 bd
       -0.012462301 -0.029573455 0.026091874 -0.060391203
0002d0 9c d7 2f bd aa b4 0e 3d c2 93 6b bd 87 73 c5 bd
       -0.04293023 0.034840263 -0.05751396 -0.09641176
0002e0 e6 95 92 3c c9 a0 eb 39 4e fb db bc 1b ca 7d 3b
       0.017893743 0.00044942487 -0.02685323 0.00387252
0002f0 39 45 de bc b0 c4 69 bd 28 8e 45 3b 14 52 a0 bd
       -0.027132617 -0.05707234 0.0030144546 -0.07828155
000300 b6 1b b3 bd e4 2a 89 bd 92 99 2f bd 1b a8 be bd
       -0.0874552 -0.06697634 -0.042871065 -0.09309407
000310 88 89 e8 bc 5c ac bc bd b4 1c 7e 3b fc d7 5b bd
       -0.028385893 -0.092125624 0.0038774433 -0.053672776
000320 f4 7a de bb 8c 9c e0 3c dc d5 8d bd 81 7a 8a ba
       -0.0067895595 0.027418397 -0.06925556 -0.0010565073
000330 8e d4 90 bd 2c 98 25 bd c9 46 b0 3c db df 58 bd
       -0.070717916 -0.040428326 0.021518128 -0.05294786
000340 30 c9 89 bd 6c f8 72 3c d1 ff be bd 7a 24 4e bc
       -0.067278266 0.014829736 -0.09326137 -0.012581939
000350 9e b3 86 3c 80 ca 70 bc e7 dd 64 bb 8e 5d 97 3b
       0.01644307 -0.014696717 -0.0034922303 0.004619307
000360 ae 19 4c bd ce 31 b5 bc 2b d0 b5 bd bb ac 69 bd
       -0.049829178 -0.022118475 -0.088775955 -0.057049494
000370 0d 0c 2d bd f7 99 4a bc 9b 79 f8 bc ad c1 a6 bd
       -0.04224782 -0.01236581 -0.030331424 -0.081424095
000380 48 89 78 bd f7 61 8d bc 42 7c e2 bc bc 5a cb bc
       -0.060677797 -0.017258627 -0.027647141 -0.024823539
000390 a6 4b a7 bd 3e 18 7b 3c b0 ad 8e bd 30 f2 7a bd
       -0.08168726 0.015325604 -0.06966722 -0.061266124
0003a0 cf bf f6 3c 89 56 b1 bd ac f8 ac bd e4 1d 08 bd
       0.030120758 -0.086590834 -0.08445868 -0.03323163
0003b0 2c bd 9c bd 78 51 ec bc 41 8a e5 bc 26 68 83 bc
       -0.07653269 -0.028847441 -0.028020026 -0.016040873
0003c0 25 69 fb 3c 49 29 01 bd fb 92 ad 3c e4 b7 03 3d
       0.030689785 -0.031533513 0.02118825 0.032157794
0003d0 22 ed 3d bd 73 f5 67 bd 14 bf 1f 3d c7 9c d1 bc
       -0.046368726 -0.056630563 0.039000586 -0.025587453
0003e0 c5 2c 8c bd 86 8d d6 3c d5 f4 bc bd fa 0b 62 bd
       -0.068444766 0.02619053 -0.092263855 -0.055187203
0003f0 e9 5c ca bc 12 cd d8 bc 7f b3 9e bc 5d 62 8b 3c
       -0.024702506 -0.026464973 -0.0193727 0.017014677

rconvs.2.bias f4 [64]
000000 de ab ac bd aa f0 ab bd 04 0b 1c be 94 54 ac bd
       -0.084312186 -0.083955124 -0.15238577 -0.084145695
000010 c3 b6 26 bd 97 f3 87 bc ee 31 85 bd 7f 73 69 bd
       -0.04070164 -0.016595645 -0.06503664 -0.05699491
000020 7d e1 88 bd 31 47 ae bd ad f0 00 3d 3d 97 31 bc
       -0.066836335 -0.085096724 0.031479526 -0.010839281
000030 f5 7d b0 3a 3e f5 6c bb bf 53 49 bc e0 2b 00 bd
       0.0013465272 -0.0036156918 -0.012288033 -0.031291842
000040 47 ba bb bd 89 4a c5 bb a7 78 a9 3b e5 ff 1e bb
       -0.09166389 -0.006020848 0.0051718536 -0.0024261412
000050 2a 0c f7 bc 99 57 68 bd 81 86 83 bd 9b 45 84 bd
       -0.030157167 -0.056724165 -0.06422139 -0.06458589
000060 22 93 11 be c9 ba 57 bd 44 5d 2c be 2a ad 84 bd
       -0.14216283 -0.052668367 -0.16832453 -0.06478341
000070 4c 0f 01 be 7d b4 a8 bd 7a 76 b8 bd da 48 5f bd
       -0.12603492 -0.082375504 -0.090069726 -0.054512836
000080 eb ac b6 bd 43 3e 1e 3d 4f e5 09 be df d8 49 bc
       -0.089197 0.038633596 -0.1346638 -0.0123197725
000090 0e 85 08 bd b9 80 4d bd 61 5a 3e bd 92 d5 80 3c
       -0.033330016 -0.050171588 -0.04647291 0.015726838
0000a0 c6 42 4c bd 7d 4c be bc cf 20 96 bd 8a 85 29 bd
       -0.049868368 -0.023229832 -0.073304765 -0.04138712
0000b0 ae 40 8c bd c4 1e 73 bd fd 45 b7 3c c4 3e ab 3c
       -0.06848274 -0.059355512 0.02237224 0.020903952
0000c0 dc 6a a2 bd 84 e0 35 be f7 bf 8f bd 33 88 53 bd
       -0.07930538 -0.17761427 -0.07019036 -0.05164356
0000d0 1a 48 ce bc 92 dc d6 3c 14 37 80 bc 96 f3 2e 3c
       -0.025180865 0.026228223 -0.015651263 0.010678193
0000e0 45 b0 f9 bb 14 de 53 bb 84 04 18 bd 67 5f 8d bc
       -0.00761989 -0.0032328414 -0.03711368 -0.017257405
0000f0 d7 d2 15 bd b4 f5 8f bc 01 24 cc bd c8 f3 0f bd
       -0.036578026 -0.017573215 -0.09967805 -0.035144597

rconvs.3.weight f4 [64, 64, 3]
000000 28 f0 9c 3e 07 b3 2c be c9 e1 33 3f fd f4 23 3c
       0.30651975 -0.16865169 0.70266396 0.01000714
000010 3e 4a b9 be a2 06 4b bd cc 96 91 be f6 75 d3 3d
       -0.36189455 -0.049566872 -0.2843536 0.10325234
000020 d7 d0 29 be a6 7c 02 3e 8a a3 49 3d 12 75 10 3e
       -0.16583572 0.12742862 0.04922823 0.14107159
000030 11 a3 0b bd 3d e6 97 3d 16 ae ea bc 18 08 36 3d
       -0.03409106 0.07416961 -0.028647464 0.044441313
000040 5d a1 d4 bd 39 76 02 3f ba 36 6e 3d bb 25 91 3d
       -0.1038234 0.50961643 0.05815766 0.07087275
000050 85 f8 f5 3d 11 87 42 3e 40 5b 6b 3e 00 43 63 3e
       0.12010292 0.18996836 0.22984028 0.22193527
000060 e3 63 06 3d d0 ba e3 be 6c 07 7d 3d 32 94 42 be
       0.032810103 -0.44478464 0.061774656 -0.19001845
000070 25 55 23 be 85 d9 35 be 3c f7 3c 3e 4a 0d 73 3e
       -0.15950449 -0.17758758 0.18453687 0.23735538
000080 27 58 7e 3e 26 ba cb 3d df c5 a1 3c 0d 72 1c 3e
       0.24838315 0.09947614 0.019747673 0.15277882
000090 f6 89 1b 3e 1e ef 48 3e 93 98 0d 3e 1f 49 96 bd
       0.15189347 0.19622466 0.13827734 -0.073381655
0000a0 79 eb 2c bd fd 9e ac be 8a f6 22 be 8e ef 30 3d
       -0.04221675 -0.33715048 -0.1591436 0.043197207
0000b0 58 94 c3 bd 15 49 06 be 42 e8 7a 3d 1c 13 c8 be
       -0.09549779 -0.13113816 0.061256655 -0.3907708
0000c0 11 28 88 3e ea eb 56 be 98 cb ff 3e 6d ee 97 3c
       0.26593068 -0.20988432 0.49960017 0.018546307
0000d0 f3 d4 84 3d 73 48 3c 3e 35 a8 f7 3d cb d9 87 be
       0.06485929 0.18387012 0.1209263 -0.2653335
0000e0 62 ad 4d 3e a5 8e ed bd 66 34 7e 3e 0b 98 b9 bd
       0.20085672 -0.11599473 0.24824676 -0.09062203
0000f0 a2 71 36 bd 9d 2c fd bc b3 83 7d bd d3 fe e8 3d
       -0.044541962 -0.030905062 -0.061893176 0.11376729
000100 87 ba 53 3d e8 20 84 3d 94 81 72 be df 8a c6 bd
       0.05169156 0.06451589 -0.23682243 -0.09694456
000110 71 7f 98 bd 44 5b 07 be fd 80 ac bc 90 7b e3 bd
       -0.074461825 -0.13218409 -0.0210576 -0.11107552
000120 da 8c c2 be 0e 88 05 be 4b e5 8d be c3 31 03 bd
       -0.37998086 -0.13040182 -0.27714 -0.03202988
000130 b8 52 92 3d 04 23 81 bd eb fa 1c 3f 2f fc 30 3e
       0.071446836 -0.06305507 0.6132037 0.172837
000140 28 8a 7f 3f 8a 63 10 3d 79 14 ea 3d 41 51 0e be
       0.99820185 0.035251178 0.11429686 -0.13898183
000150 17 d0 a3 3b 1c 2c 38 3d 6c c3 8d 3d bf 93 29 3b
       0.0049991715 0.04496394 0.069220394 0.0025875417
000160 e2 3a 28 be 7e 10 e8 bd 6a e4 73 3d ab 4f 1e be
       -0.16428712 -0.11331271 0.059544004 -0.15460078
000170 a6 f8 bc bc 20 4d 81 3d 57 76 03 bd 0a e1 88 bd
       -0.023067784 0.063135386 -0.03209528 -0.06683548
000180 4e fc 18 3e d3 ed 1f 3d 8e 52 a9 3d 70 12 af 3e
       0.14939997 0.039045166 0.08267699 0.34193754
000190 38 e5 ee 3c b8 c9 78 3e 29 dd c9 be a5 bb 50 be
       0.029162034 0.242957 -0.39426544 -0.2038408
0001a0 5b c2 40 bf a5 87 5b bc 22 52 0d 3e 9f 7c 56 ba
       -0.7529656 -0.013399039 0.13800862 -0.0008182022
0001b0 0e e8 02 be 27 c3 54 3e ac f1 07 3d 6e 8f 8f be
       -0.12783834 0.2077757 0.03318946 -0.28039116
0001c0 56 67 7b be 56 e8 ba be fd 01 25 3f 5e 9d 2f be
       -0.24551138 -0.36505383 0.6445616 -0.17149875
0001d0 69 93 4d 3f 86 c2 4d be f8 3e 10 be b1 2b a8 be
       0.80303055 -0.20093736 -0.1408652 -0.32845834
0001e0 28 4b 7a be 8f f7 17 3e 08 f7 0a bf 8a d2 06 bd
       -0.24442732 0.1484053 -0.5428319 -0.03291563
0001f0 60 a3 f0 3b 77 a9 eb bc ac ba 8b bc 71 ae 62 bd
       0.0073436946 -0.02876733 -0.017056786 -0.05534214
000200 7b d2 57 3a 35 ac c7 3b 18 db 6d bc cb 93 89 be
       0.0008232963 0.0060935267 -0.014517568 -0.2687057
000210 36 84 7f bc eb 40 57 3d 9c b7 20 be 6e 0d 4c 3d
       -0.015595486 0.052552145 -0.15695041 0.049817495
000220 78 2f 16 bd e6 14 10 be 1e f5 43 3e f2 ed ca bc
       -0.036666363 -0.14070472 0.19136474 -0.024771664
000230 70 e3 bf 3e 90 49 9a 3d fc 97 a1 bd d2 03 38 3e
       0.3747821 0.07533562 -0.07890317 0.17970207
000240 3a 72 18 be df 08 9b be 66 09 01 be 8e 78 d9 3e
       -0.14887324 -0.30280206 -0.12601241 0.42474788
000250 08 2a 85 3e 3d 76 5b 3f f9 da 16 be 41 d2 2b bd
       0.2600863 0.8572729 -0.14731969 -0.04194856
000260 ec 17 20 bd 0c 63 8c bc ca a6 01 3e 15 4c 8b bd
       -0.039085314 -0.017137073 0.12661281 -0.06801621
000270 03 61 b8 3d 91 b1 c0 be 8c ad 33 3e 66 e9 68 bc
       0.090028785 -0.37635472 0.17546672 -0.014215803
000280 49 95 96 bc 47 91 be bd 57 de b2 bd 5f 52 49 bc
       -0.018381732 -0.09305053 -0.08733814 -0.012287705
000290 0b bf 0a bd f9 b3 64 3c f5 df 46 3d 97 56 87 be
       -0.0338736 0.013958924 0.048553426 -0.2643325
0002a0 2c bb 08 be 8b 2d dd bd 5f a5 54 be aa 5c 22 3e
       -0.1335265 -0.10799702 -0.20766209 0.15855661
0002b0 8f 4f 2f bc a0 43 88 3e 79 dc 31 3e ff b3 6f 3e
       -0.010700121 0.26614094 0.1736926 0.23408507
0002c0 b7 c5 bb 3e e5 c1 10 3d 81 16 ba 3d 8c 2b 3f 3e
       0.36674282 0.035341162 0.090863235 0.18668956
0002d0 f0 b1 a6 be de 7f 4e be e3 32 a3 be 59 25 15 3e
       -0.3255763 -0.20165965 -0.3187476 0.14565028
0002e0 e9 e6 3a 3e 80 24 97 be cc 9a 4f be 6f 26 48 be
       0.18252148 -0.29520035 -0.20273894 -0.19545911
0002f0 f9 8a 65 be bb be 58 be 76 28 a3 3d 72 78 0c bf
       -0.22416295 -0.21166508 0.07966702 -0.54871285
000300 20 90 38 3d 8d bb 37 bd 8b f4 41 bd a6 19 8f bd
       0.045059323 -0.044856597 -0.047352355 -0.06987314
000310 3e 56 2d bd ff 88 99 bc 96 e3 1f 3d 93 bc 8a 3c
       -0.042318575 -0.018742083 0.039035402 0.016935622
000320 5e c4 f0 bc a4 74 cd bc 9a 26 7b bd 1d ca e3 bc
       -0.02939051 -0.025080033 -0.06131611 -0.027806336
000330 a9 58 af bd 1a 64 c2 bd af 09 1c bd e5 f6 27 3d
       -0.085618325 -0.09491749 -0.038095172 0.04100694
000340 35 3b 31 3d db be a7 bd 69 08 7f bd a6 1a 1c 3d
       0.043269355 -0.081907 -0.06226388 0.03811135
000350 5b 86 df 3c bd c3 ec bb 65 7b 8f bb 4f 00 14 3d
       0.027285745 -0.0072254823 -0.0043787234 0.036133107
000360 ab 8b 56 bd c6 52 43 bd e9 6d 9a bd 59 e8 d4 bc
       -0.05237929 -0.04768636 -0.07540495 -0.025989698
000370 da eb c3 bd 03 ef d4 3c 6e 51 9b bd 89 97 8f 3c
       -0.095664695 0.025992876 -0.07583891 0.017528312
000380 92 ab 2a bd b5 32 68 bd ac c7 1d bd 30 1f d3 3c
       -0.04166753 -0.056688983 -0.0385205 0.025771707
000390 a5 e8 b8 3b fc c9 c1 3c 83 a4 55 bb 64 e8 89 bd
       0.0056429678 0.023655884 -0.0032599277 -0.06733778
0003a0 62 a5 53 bd 87 42 8f bd 0f e5 8f bd eb e2 1a 3d
       -0.051671393 -0.06995111 -0.07026111 0.037814062
0003b0 f3 14 a4 bc 9d d9 85 3a d4 a3 a8 bd 6b 7a 24 bc
       -0.02002952 0.0010211949 -0.08234373 -0.010038952
0003c0 f5 1d f1 bc 82 68 b5 bd 5d ae e8 bc 73 d1 b2 bd
       -0.02943323 -0.08857824 -0.028403455 -0.087313555
0003d0 10 da 7b 3b b0 80 7c ba 72 de af bc 06 fb 2f 3d
       0.0038429536 -0.0009632213 -0.021468375 0.042964004
0003e0 e0 b5 9c 3c 1d d0 92 bb 7e 72 dc 3c 2f 21 95 3c
       0.019129694 -0.0044803754 0.026910063 0.0182043
0003f0 d5 a6 7f 3c dc bd 8b 3c 54 b3 8c bd 85 2e 87 bd
       0.015603741 0.017058305 -0.068701416 -0.0660067

rconvs.3.bias f4 [64]
000000 39 a3 9c 3d 64 34 33 bd d8 ee 9d bd 3e e6 46 3c
       0.0764832 -0.043751135 -0.077115715 0.012139855
000010 a3 61 5e bd ba e3 c1 bd 61 69 60 bb c2 df 05 bd
       -0.054292332 -0.094672635 -0.0034242498 -0.032684095
000020 ba 93 bc bd 64 b1 d0 bd 3f 5b 7a bc 55 29 38 3d
       -0.09207864 -0.101900846 -0.015280544 0.044961292
000030 dd 60 d6 3c 23 8f 8e 3c cc c9 7a bd 78 ca 87 bd
       0.026169235 0.017402237 -0.061227605 -0.06630415
000040 8e f5 ff bd 5d 13 ce 3d 72 70 ae bc a3 e6 31 3d
       -0.12498008 0.10062287 -0.021293852 0.043432843
000050 69 f9 2d be 37 1d a9 bd 89 78 08 3b 64 47 ac bd
       -0.16989674 -0.082575254 0.0020823798 -0.08412054
000060 c0 01 cc bd dd 9a 98 3d 37 8c 39 bd 57 63 b2 bc
       -0.09961271 0.07451413 -0.045299735 -0.021775885
000070 6e 9a 08 be 46 4b cf bd ac ff 41 bd 07 1d 92 bd
       -0.1334016 -0.10121779 -0.04736297 -0.07134443
000080 f6 21 3f bd c2 62 3c bc d7 d7 9d bd 8b 78 83 3c
       -0.046663247 -0.011498155 -0.07707184 0.01604869
000090 03 89 8e 3c 2b 91 40 bd 0f f8 8b bc a2 7f 69 3c
       0.017399317 -0.047013443 -0.017086057 0.014251621
0000a0 5e e4 21 bd bd dc 09 bd 01 f8 2e bd 5f 88 ba bd
       -0.03952443 -0.033657778 -0.042716984 -0.09108042
0000b0 c5 df 5d 3c a3 22 7e bd e7 04 93 bd 9d 2b 0f 3c
       0.01354212 -0.06204475 -0.071786694 0.008738426
0000c0 77 dc e2 bd e3 92 e1 bd 9e e6 a3 3c a2 f6 4d bb
       -0.110772066 -0.110143445 0.020007428 -0.0031427522
0000d0 37 19 1a bd 6b fe 72 bd f9 c0 e6 bc 4b 68 fe bc
       -0.037621703 -0.059324663 -0.028168188 -0.03105559
0000e0 aa ef 24 3c 6a ca 64 b9 bd 11 04 3d 32 64 aa bc
       0.010066906 -0.0002181918 0.03224348 -0.02079973
0000f0 3c 4d d3 bc 4c 06 59 bc 61 0e 29 bd 75 4d ca bd
       -0.025793664 -0.01324613 -0.04127348 -0.09878055
