trained_models/MYOD1/MYOD1_Model_state_dict.pt (torch, 512090 bytes, 22 tensors)

iconv.weight f4 [64, 4, 20]
000000 c0 33 0f bd 0b 03 ec be 6a 90 04 3e 2b 79 38 be
       -0.034961462 -0.46096072 0.12945715 -0.18014972
000010 3b 91 96 be 52 5d 1e 3e 0e 94 82 3d 8f b9 3f be
       -0.29407677 0.15465286 0.063758954 -0.18723129
000020 a9 50 41 bc ae cb df be 56 ac 6a 3d bb e4 d5 3b
       -0.011799016 -0.43710083 0.05729326 0.006527511
000030 67 21 d8 bd 47 08 01 3e 1b 43 7e 3c 2e b9 64 3c
       -0.10553246 0.12600814 0.015518929 0.013960166
000040 a4 96 ba bd ae 09 1d 3c ea 80 26 bc e3 96 c6 3d
       -0.09110764 0.009584827 -0.010162571 0.09696748
000050 cc af 91 bd 97 7d 47 3e 08 67 ff be 50 a3 76 3d
       -0.07113609 0.19481502 -0.49883294 0.06021434
000060 fe b6 a3 3e bc 6f ed be 3e 25 3c be f5 30 5f 3e
       0.3197555 -0.4637431 -0.18373582 0.2179602
000070 71 27 b0 bd 1c e9 98 be 7a ee 94 bd ce d1 17 be
       -0.08601273 -0.29865348 -0.07272048 -0.14826128
000080 06 de 58 bd 67 33 28 3e c0 e2 b7 bc 35 cb ae be
       -0.052946113 0.16425858 -0.02244699 -0.3413941
000090 e7 c3 d7 3d 9e 91 96 3d 17 3a cf bc 10 33 97 be
       0.10535412 0.07351993 -0.025296254 -0.29531145
0000a0 11 6a e1 be af 49 f0 bc ad 42 84 be 2b d7 35 be
       -0.44026235 -0.02933201 -0.2583212 -0.17757861
0000b0 3b ce d9 be 4c 41 3b be cb 8d ed bd 2e a0 da bd
       -0.42540154 -0.18286628 -0.115993105 -0.10675083
0000c0 c3 c9 e7 bd 63 25 ec be 02 e0 70 3c 79 34 14 3e
       -0.1131778 -0.46122274 0.014701845 0.14473142
0000d0 dc 11 4e ba 94 86 dd be 12 3b bd bb 6a c7 c6 3c
       -0.00078609376 -0.43266737 -0.005774864 0.02426501
0000e0 4c f1 db bd 13 63 f0 be 9e 75 57 bc 40 85 5f 3d
       -0.10739383 -0.46950588 -0.013150601 0.054570436
0000f0 b7 a7 ac bd b5 bd 45 be 31 02 df 3d b4 80 19 be
       -0.084304266 -0.19310649 0.1088909 -0.14990503
000100 3c 4a f5 be 7e 1c 4b 3e ea 9f 39 be 0e 4f 2f be
       -0.479082 0.19835088 -0.18127409 -0.1712
000110 58 9c a5 be bc 07 b7 3e 1a b5 a0 be b9 1d 18 be
       -0.32345843 0.35748088 -0.3138817 -0.14855088
000120 e6 36 c4 be 5a 69 9d be a1 a6 15 be ca 28 11 3d
       -0.38323134 -0.3074444 -0.14614345 0.03543929
000130 fc 78 e7 bd 70 04 e1 bd 24 0c 11 bd 58 08 2c bc
       -0.11302373 -0.109871745 -0.03541197 -0.010500036
000140 33 16 23 be 9f 73 1c 3d 64 6c 28 bc 43 5f 2d be
       -0.15926437 0.038196202 -0.010279749 -0.1693087
000150 9d ef 83 be 7a b9 98 bf 0d d7 b1 bf 1c 25 3f be
       -0.25768748 -1.1931603 -1.3893753 -0.186665
000160 52 c6 6e bf a3 8c 7b bf a4 73 d2 3c cf 43 de bd
       -0.9327136 -0.9826147 0.025689907 -0.10852777
000170 40 37 85 be a9 66 26 bd 44 ac 0f 3e 07 02 38 3d
       -0.26018715 -0.040625248 0.14030558 0.04492381
000180 5e 25 c6 bd 5d 3d ba bd 7f 5b 9f bd d8 60 fb bd
       -0.09675096 -0.09093735 -0.07781123 -0.12274331
000190 32 09 31 be 73 2f 8e be 3c da b1 be 3c 96 30 bf
       -0.17288664 -0.27770576 -0.34736812 -0.6897924
0001a0 07 c1 c1 bf 2c d5 ba bf e8 e9 b1 bf b6 24 a8 3e
       -1.5137032 -1.4596305 -1.3899508 0.32840508
0001b0 a1 9a 53 bf 9d 08 80 bf b2 b3 68 bf 35 5f a0 be
       -0.8265782 -1.0002629 -0.90899193 -0.31322637
0001c0 82 e8 39 3e 8d 09 91 3d 03 9b 5a be 5e ed dc bb
       0.18155101 0.070819 -0.21348195 -0.0067421636
0001d0 cb 66 08 be 9d 24 d5 bd 9f 18 fe 3b 3a f5 69 bb
       -0.13320462 -0.10407374 0.0077544 -0.0035699145
0001e0 17 3e 85 be 5a a5 23 be 1c bf 57 3e b7 db dc 3d
       -0.26023933 -0.15981045 0.21068996 0.10784095
0001f0 31 39 82 3e 5f 27 f3 3e 8c 17 db 3e ac b3 b9 bf
       0.2543426 0.47490975 0.42791402 -1.4507957
000200 06 d6 08 3f 58 07 70 3e 10 f3 e6 3d 3e 44 df 3d
       0.53451574 0.23440301 0.11276829 0.10901688
000210 f4 c9 1b bf 83 e9 a3 be 91 56 94 be 8f 71 9c bd
       -0.6085503 -0.32014093 -0.28972295 -0.07638847
000220 85 70 ec bd 0f ae 6a 3b 13 a6 1a bd 56 a7 c3 bc
       -0.11544899 0.0035809313 -0.037756037 -0.023883503
000230 d3 28 e9 bd dd 66 4b be 4e c6 cf be b5 1c 9d bd
       -0.1138474 -0.19863458 -0.40580982 -0.07671491
000240 ce 1d 9e bf 8a 83 a6 bf 9e 19 d9 bf af fd 67 be
       -1.2352846 -1.3008893 -1.6960943 -0.22655366
000250 e9 e5 6c bf c7 42 09 be b4 10 27 be 84 80 8c be
       -0.92538315 -0.1340438 -0.16314965 -0.274418
000260 eb a3 e5 bd a9 9c 98 3d 9c 0a 1a 3e bd 2b df bc
       -0.112129055 0.074517556 0.1504311 -0.027242536
000270 ba b4 54 be 0d 50 57 be d7 2f 54 bd 85 3f e5 bd
       -0.20772067 -0.2102663 -0.051803436 -0.11193756
000280 f1 c5 9f be aa 1e 71 be d3 ba a6 bd 1a 99 9c bd
       -0.31205705 -0.23546854 -0.08141103 -0.07646389
000290 10 15 42 be 35 88 67 be a4 7e 27 bf b8 66 fd be
       -0.18953347 -0.22610553 -0.65427613 -0.4949243
0002a0 f5 79 0a 3f 3b dc 65 bf aa 5a fd be 0c 28 7e bf
       0.5409234 -0.8978917 -0.49483234 -0.99279857
0002b0 90 e5 27 bf 56 c6 65 be 73 52 08 bf 47 b9 e2 bc
       -0.6558466 -0.2243894 -0.5325081 -0.027676238
0002c0 47 60 5c 3d c2 b0 57 bd 66 8e 17 be d9 4f 62 be
       0.053802755 -0.052658804 -0.14800414 -0.22100772
0002d0 6c be c6 bd e2 c6 37 bd 01 85 d2 3c 49 5c dd 3b
       -0.09704289 -0.044867404 0.025698187 0.006755386
0002e0 d1 b3 25 bd 4e ea e1 3c 36 85 94 3d 53 9c e5 bd
       -0.04045469 0.027577545 0.072519705 -0.11211457
0002f0 ac 15 92 bf 46 97 63 bf f1 bc 7e bf e7 dc 44 bf
       -1.1412864 -0.889027 -0.9950705 -0.7689957
000300 4e 7e 82 bf d0 37 84 bd 46 9b a7 3d 9c 03 9a be
       -1.0194795 -0.06455958 0.08183913 -0.3008088
000310 f9 89 c3 bd d9 e9 4a bd 3b 35 48 be f1 5e 5f 3d
       -0.095478006 -0.04953942 -0.19551556 0.054533903
000320 6b ab f5 bc f6 2d 4b bc 0b b0 e7 bd 9d c8 bc be
       -0.029988965 -0.012401095 -0.113128744 -0.36871806
000330 96 92 84 be 85 96 88 bd 8c dd d5 be 7f 68 75 3e
       -0.25893086 -0.06669334 -0.4177059 0.23965643
000340 69 5e cd be 94 47 6d bf 8a e1 8e bf 8b d5 dc 3e
       -0.40111092 -0.92687345 -1.1162579 0.4313167
000350 63 83 d8 3e 4f 7f 9d be 1c ba 9b be ac 5f dc bc
       0.4228774 -0.3076119 -0.30415428 -0.026901089
000360 2c c6 32 bd e0 95 4d bd 13 2e 13 bd ca 58 c5 bd
       -0.043646023 -0.05019176 -0.03593261 -0.09636076
000370 af e6 72 be 96 70 20 be 71 6a 31 be d5 e0 50 bb
       -0.23720811 -0.15667948 -0.1732576 -0.0031872292
000380 fd bf fd 3d 36 8f a1 bd b1 8d cf 3d fe 87 26 be
       0.123901345 -0.078886434 0.10134447 -0.16262814
000390 1a 9b 56 bf d0 36 f7 3e 68 57 a0 3e fd 88 4c bf
       -0.83830416 0.48284006 0.31316686 -0.7989653
0003a0 76 3a 9d bf 2d 54 84 bc 16 6f 34 3e 60 22 d0 be
       -1.2283466 -0.01615342 0.17620501 -0.40651226
0003b0 11 2c bb bd 2a 10 9f bd b0 7e 27 be b8 88 cf bd
       -0.091392644 -0.07766755 -0.16356921 -0.10133499
0003c0 c1 7b 26 3e f8 af 82 3d 0d 1f 12 3e 16 bf 7f bd
       0.16258146 0.063812196 0.14269657 -0.062438093
0003d0 b2 e2 44 3e 4d 99 a1 bd d9 e1 93 3d 7c 7a 8c ba
       0.19227102 -0.07890568 0.072208114 -0.0010717656
0003e0 7a 2e 25 bd eb 93 8f 3e 3b 3d 3f bd 24 ca 6b bd
       -0.040327527 0.2804254 -0.046689253 -0.057565823
0003f0 ed 91 88 be 00 77 3a be 04 01 50 be f8 b6 f3 bd
       -0.26673833 -0.18209457 -0.20312887 -0.11900133

iconv.bias f4 [64]
000000 b7 70 1c be 60 82 55 be 53 62 99 be bc ae 32 3d
       -0.15277372 -0.20850515 -0.29957828 0.04362367
000010 ed c0 e5 bd 94 f7 96 be b0 59 4b bb 8a 8c d8 3c
       -0.11218438 -0.29485762 -0.00310288 0.026434202
000020 ef b7 87 be 2b 4e 24 bd c3 98 58 bd b0 76 d7 bd
       -0.26507518 -0.04011361 -0.05288006 -0.10520685
000030 b3 fa 3c be b7 bb 5b be ad 83 87 be 9f e7 07 be
       -0.18455009 -0.21458326 -0.26467648 -0.1327195
000040 0d 20 a6 3c a5 5f 0f bd 38 18 78 bb 9a a3 f3 3d
       0.020278955 -0.035003323 -0.0037856232 0.11896439
000050 1f 71 e1 bd 9e 06 8c bd c1 69 fe bd 7e b0 48 3c
       -0.11007904 -0.068372 -0.12422515 0.01224911
000060 da b2 b1 be b1 56 b9 bd e3 45 cc bd df 89 95 be
       -0.34706765 -0.09049738 -0.09974267 -0.2920675
000070 57 52 08 3b 2a 4f 0e bd 28 ea d3 bd b6 b5 90 be
       0.0020801031 -0.034743465 -0.10347396 -0.28263634
000080 d9 22 0c be e9 8b 31 be 48 36 56 be cc d1 ab 3d
       -0.13685168 -0.17338528 -0.20919144 0.08389625
000090 4b 18 09 bd 6d 17 e4 bd cb 0f 9e bd b4 00 0c bb
       -0.033470433 -0.111372806 -0.07717856 -0.0021362724
0000a0 d0 02 7f be 03 3b dd bd df 11 9a be e8 4a 84 be
       -0.24903417 -0.10802271 -0.3009176 -0.258384
0000b0 17 fd 4d bd df 37 92 bd 98 fe 63 bd b8 eb 4f bd
       -0.050290193 -0.07139563 -0.05566272 -0.05076191
0000c0 07 3d 85 bc e5 30 e7 bd 4b 4e 51 be 83 4a 0c 3d
       -0.016264452 -0.11288623 -0.20440023 0.034250747
0000d0 44 0d cf bc 71 25 4f be 52 d2 f0 bd cd ee d4 3b
       -0.02527488 -0.20229127 -0.117588654 0.006498194
0000e0 74 9b cd bd 01 0c 29 bd 8e 00 8e bd a8 f4 25 bd
       -0.10039416 -0.041271213 -0.069336995 -0.040516526
0000f0 4f 7f 4b be cb 38 70 be ad 77 3a be 5c 79 c5 bd
       -0.19872783 -0.23459165 -0.18209715 -0.09642288

rconvs.0.weight f4 [64, 64, 3]
000000 31 a1 c7 bd 9f 6e 11 3d c0 aa 6e bd 23 25 bb 3c
       -0.09747542 0.035505887 -0.05826831 0.022844857
000010 15 8e 13 3d c1 07 86 3c f6 5a 2e bd 89 50 21 3d
       0.03602417 0.01636112 -0.042567216 0.039383445
000020 7f 54 19 3d 60 75 3b 3c 9d 3c 5c bd 67 82 f6 bc
       0.037434097 0.011441559 -0.053768743 -0.030091478
000030 7c 62 b9 bd ca e7 ee 3c 5f b2 67 3c 48 ad aa bd
       -0.090519875 0.02916326 0.014141648 -0.08333832
000040 84 d3 49 bd 19 3f b9 bd 6c 58 ab bc e7 36 4b bd
       -0.049273983 -0.09045238 -0.020916186 -0.049612906
000050 98 69 42 bd 9c af a5 bd 78 58 00 bb db 14 c9 bd
       -0.047463983 -0.080901355 -0.0019583981 -0.09818431
000060 ae 81 ae bc 32 de cd bc e9 cb 0b 3d 5c 6a 87 bd
       -0.02130207 -0.025130365 0.03413001 -0.06612083
000070 f3 0b 13 be 36 61 74 bd 76 cb 45 3c a9 6e ca b8
       -0.14360027 -0.05966302 0.012072435 -9.652723e-05
000080 df bd c5 bb 99 3c 88 bd f7 73 49 bb 59 1f 73 3d
       -0.0060345973 -0.06652183 -0.0030739286 0.059356067
000090 7a c2 8d 3c 8c 28 85 bc 6f df aa 3c 51 7a aa bd
       0.017304648 -0.016254686 0.020858495 -0.08324111
0000a0 ee 94 c8 bd 51 5a 57 bd 1c 4f 5e bd e9 c2 08 3d
       -0.09794031 -0.052576367 -0.054274663 0.033389006
0000b0 57 c8 7b 3d c5 3f bc bd 25 bb 0b 3b 5d 7a e9 3c
       0.061470356 -0.091918506 0.0021321264 0.02850073
0000c0 bd 40 98 bc a2 ed 59 bc 82 f7 95 bd 0d be 80 bd
       -0.018585557 -0.013301285 -0.07322599 -0.06286249
0000d0 da 94 48 3b ef 81 91 bd 8d ba a4 bd 77 d5 94 bd
       0.00306063 -0.07104861 -0.08043394 -0.07267278
0000e0 20 e0 ca 3c e8 c2 a2 bd 2c 92 eb bc f6 14 b0 bd
       0.024765074 -0.07947332 -0.028756224 -0.08597748
0000f0 77 61 d4 3c 88 1c 6d bb fd 27 54 3b e8 cb f1 bd
       0.025925381 -0.0036180336 0.0032372468 -0.1180647
000100 5b d7 19 bd 6b 3f 7b bd 98 ca 40 bc 7f 0f ec 3a
       -0.037558895 -0.061339777 -0.011767052 0.0018009989
000110 d2 0b 58 bd 01 d4 44 bc 26 e8 d1 3c 42 bd 22 bd
       -0.052745648 -0.012013436 0.025623392 -0.03973127
000120 58 51 e7 bc 39 45 64 bd f3 12 e9 3c ee 27 41 bb
       -0.02823703 -0.05573008 0.028451419 -0.0029473263
000130 6a 5d 4f bc f1 45 88 3d 5f bc 22 bd 77 f1 b8 bd
       -0.012656549 0.06653965 -0.039730426 -0.09030431
000140 90 9f 4f bd 85 ab 29 3d 24 89 a4 bd 80 a0 25 bd
       -0.05068928 0.04142334 -0.0803397 -0.040436268
000150 12 85 48 bd 69 a7 96 bd d4 ec 3c 3d f5 53 56 3d
       -0.04895503 -0.0735615 0.046124294 0.05232616
000160 ab e0 8b bc f1 aa 72 3c e1 cf 94 3c 40 e3 91 bc
       -0.017074903 0.014811263 0.01816553 -0.017808557
000170 42 be 6f 3c 5e bb ab bd 2f 9d 75 3c df 0b 49 bd
       0.014632763 -0.08385347 0.014991089 -0.049083587
000180 38 c3 a9 bd 5c 28 a4 bc d4 e4 d1 bc 24 9a b0 bb
       -0.08289188 -0.020038776 -0.025621809 -0.0053894687
000190 88 0f a6 bd 76 b6 51 bd e4 d1 a6 bc 10 c6 b8 bd
       -0.08108431 -0.0511994 -0.020363756 -0.090221524
0001a0 e1 4b f5 bc 55 7f 3d 3c 08 83 e5 3c 70 7e 9a bc
       -0.029943408 0.011566003 0.028016582 -0.018859118
0001b0 b1 07 83 bd f2 d6 c0 bd 7f 0c 7a bc b0 a7 f2 bc
       -0.063979514 -0.094159976 -0.015261768 -0.029620975
0001c0 cb 71 f6 bc c7 f8 4d bd f4 78 f5 bc 08 4a 85 bd
       -0.030083558 -0.05028608 -0.029964902 -0.06508261
0001d0 05 f3 0c bc 78 0f 85 bd d8 d4 59 bd e9 48 15 bc
       -0.008602862 -0.06497091 -0.0531815 -0.009111621
0001e0 ab e8 37 bd 5c 91 8d bd 00 94 a3 bd 84 58 72 bd
       -0.044899624 -0.06912491 -0.07987213 -0.059166446
0001f0 45 90 a4 3c f3 0e 09 bd f3 9f 31 bc 42 38 f2 3c
       0.020088324 -0.033461522 -0.0108413575 0.029567841
000200 5f d8 8f 3c 2f 2a a3 bd 0b 96 bf bd c8 71 13 bc
       0.017559228 -0.0796703 -0.0935479 -0.0089992955
000210 b9 f1 20 3d 05 6f 90 3b 64 79 00 bd c2 6d 96 3c
       0.039293025 0.004407766 -0.031365767 0.018362883
000220 9a 4b fd bc 14 15 8e bd 51 8c 3e 3d 8b d0 90 bd
       -0.030919839 -0.06937614 0.046520535 -0.070710264
000230 42 27 59 bd 28 5f 26 bb ea 2c 56 3d 2c 67 81 bd
       -0.053015955 -0.0025386307 0.052288927 -0.063185066
000240 c0 87 fa bb a9 d9 35 bd ce 9e 15 bb bf ce 9a bd
       -0.007645577 -0.04439703 -0.002283025 -0.07558965
000250 02 35 b6 bd 58 bb db 3c 58 b8 42 bc 3b 7e fc 3c
       -0.08896829 0.02682273 -0.011884771 0.03082191
000260 72 16 0e bd 51 78 81 bc 39 bd 6e bd 85 a9 c7 bd
       -0.034689374 -0.015804442 -0.058285926 -0.0974913
000270 38 85 dd 3c 58 57 00 bd 92 f0 8e ba 3c 58 17 bc
       0.027041063 -0.031333297 -0.0010905436 -0.009237345
000280 4b 61 35 3d 7b c0 19 bd 19 30 95 bc a0 27 ee bb
       0.04428224 -0.03753708 -0.018211411 -0.0072679073
000290 68 a4 a2 bd 52 f7 1a 3d 48 a8 b4 bd 46 ee 85 bd
       -0.07941514 0.03783352 -0.088211596 -0.06539588
0002a0 26 5c af 3c e9 ba f7 3c d1 9c 88 bd 86 c5 96 3c
       0.021406244 0.030240493 -0.06670535 0.018404733
0002b0 0a 23 54 3c 99 fa 59 bd 77 be db bb 65 d0 8b bc
       0.012947807 -0.053217504 -0.006706055 -0.017067144
0002c0 aa 08 d6 3c 12 f9 34 bd 55 a3 38 be 12 31 8b bd
       0.026127178 -0.044182844 -0.18031056 -0.06796469
0002d0 cc 12 72 3d 8b fa 55 bd 8a f7 07 3d f1 36 3a bd
       0.059099957 -0.05224089 0.033195056 -0.045462552
0002e0 35 92 a3 bd 63 07 b5 bc 02 9b 13 bd db 15 d7 3c
       -0.07986871 -0.022098249 -0.0360365 0.026255539
0002f0 3d a3 ac 3c b4 4f 83 bd 0f e2 1f bd 94 9c 74 bc
       0.021073932 -0.064116865 -0.039033946 -0.014929909
000300 97 78 a8 bd 0e 26 da bd a4 ca 1f bd 0a 3e bd bd
       -0.08226126 -0.106517896 -0.039011613 -0.09240349
000310 f3 e4 9f bd 14 bc f7 bc 4e 88 b0 bc f2 d0 f2 3c
       -0.078073405 -0.03024105 -0.02154937 0.029640649
000320 8d de bd bd 9c ce a9 bd c0 8e c2 bc 7f f0 83 bd
       -0.09270964 -0.08291361 -0.02374971 -0.06442355
000330 41 e9 b6 3c b9 38 17 bd b1 97 ce bd 6d 9d 88 bd
       0.022328021 -0.03691933 -0.100875266 -0.066706516
000340 43 b4 76 bc a9 73 eb bc 89 eb 2c 3d 26 fe 98 bd
       -0.015057626 -0.028741674 0.04221681 -0.0747035
000350 39 6f 42 3c 13 ea 40 3d 3b 61 b9 bc be 2b 5f bd
       0.011867338 0.04709823 -0.02262937 -0.054485075
000360 ac 6e 09 bd fc 7a 8f bc 68 74 54 3c a0 cc 1b bd
       -0.03355281 -0.017514698 0.012967207 -0.038036942
000370 ec c2 f5 bd ed 82 6a bb c8 e5 12 bd 26 5a a0 bc
       -0.12000069 -0.0035783604 -0.035863668 -0.019574236
000380 59 b5 2f 3c 47 1a 6b 3c 1f e0 b1 bd a1 9e 08 3d
       0.010724389 0.014349527 -0.08685326 0.033354405
000390 1d 90 ca 3c 98 26 21 3a 69 f1 ca 3c 76 6b 2e bc
       0.024726922 0.00061474135 0.024773316 -0.010645738
0003a0 c8 f5 8c 3c 37 8f 2a bd f6 10 ab 3a 42 10 c4 bc
       0.017207041 -0.041640487 0.0013051319 -0.023933534
0003b0 df 4c 75 bd 6d 5d 1f 3d 71 fb a6 bb d9 70 0a bd
       -0.059887763 0.038907457 -0.005095892 -0.033799026
0003c0 be c8 aa 3c bf 1c 15 bc d6 44 fb ba 6e 35 f4 bc
       0.020847674 -0.009101092 -0.0019170295 -0.029810634
0003d0 2d 8f 1e bd f4 b2 ba bc 83 38 02 bc d9 40 ad bd
       -0.03871076 -0.02279041 -0.007948044 -0.08459634
0003e0 26 22 0b 3d 68 54 d9 3c 6a 45 a3 bd 31 4f a2 bd
       0.033968113 0.026529506 -0.07972224 -0.07925261
0003f0 49 9a 83 bd 31 b3 1e 3c a1 25 fc 3c db 66 b3 bc
       -0.06425912 0.009686277 0.030779662 -0.021899631

rconvs.0.bias f4 [64]
000000 d8 ca 65 bd 8a 4b 82 bd f5 e1 c4 bd ab 60 ad bd
       -0.05610165 -0.06362064 -0.096134104 -0.084657036
000010 dd 82 67 be 6f 1a a6 bd ab b4 60 be 7c 8f fe bd
       -0.22608514 -0.081105106 -0.2194392 -0.12429711
000020 c4 b3 a0 bd 41 c2 b7 bd 6f f2 db 3d 33 94 b4 bb
       -0.078467876 -0.08972598 0.107396 -0.005510831
000030 e3 33 34 3e d4 0e 07 be 52 6d 4d bd 4f 6b ab bd
       0.17597918 -0.1318925 -0.050153084 -0.08370077
000040 22 f4 df bd ed 70 09 bd 34 a3 b7 bd d6 96 5f bd
       -0.109352365 -0.03355496 -0.089666754 -0.054587208
000050 33 09 ec bd 5d 81 92 bd 72 e8 80 3d dc c9 72 be
       -0.11525192 -0.0715358 0.062943354 -0.23709816
000060 0c 71 02 bd f8 5d a5 3d 74 5b ad bd bd ae 97 bd
       -0.03184609 0.08074564 -0.08464709 -0.074063756
000070 75 35 05 be 2f 83 2c bd 20 7d 00 be c1 93 14 3e
       -0.13008673 -0.042117294 -0.12547731 0.14509489
000080 a6 61 6e bd 96 5a c2 bd fa 56 98 be db 76 d0 bb
       -0.058198594 -0.09489934 -0.29753858 -0.006361825
000090 e1 f8 43 bc ab e8 99 3b 74 75 fa bc 5e 07 2b 3e
       -0.011961193 0.0046969256 -0.030573584 0.16702029
0000a0 c7 6e 8f bd 15 c5 72 3c 7c c2 d6 bd 8f f7 28 be
       -0.07003551 0.014817496 -0.10486314 -0.16500686
0000b0 c0 b4 b5 bd 78 31 85 bd 41 bd 95 bd 6e e0 54 be
       -0.08872366 -0.06503576 -0.07311488 -0.20788738
0000c0 de e4 7a bc d0 61 9f bc f9 c1 50 bd 0b dd b7 bd
       -0.015313355 -0.01945582 -0.050966237 -0.089777075
0000d0 ef 40 74 3d 66 9f 2c be d8 87 14 be c6 f7 f0 bc
       0.059632238 -0.1685768 -0.14504945 -0.029415023
0000e0 cc d5 51 bc 4e 3c b3 bd a9 39 27 bc e8 74 08 be
       -0.012807321 -0.087517366 -0.010206618 -0.13325846
0000f0 c3 89 cb bd 2b ce 25 bd 33 43 0e be 78 0b a1 bd
       -0.09938385 -0.04047982 -0.13892822 -0.078635156

rconvs.1.weight f4 [64, 64, 3]
000000 79 d4 89 3b be 12 f1 3c 22 54 a1 3b 10 9f ba bd
       0.004206237 0.029427882 0.0049233595 -0.0911237
000010 18 73 39 3d fe 8a 0e bd 49 f4 85 3c 78 1c 35 bd
       0.045275778 -0.034800522 0.016351836 -0.044216603
000020 16 cb c8 bc fe 64 55 3c de 14 1f bd a2 71 92 bc
       -0.024510901 0.013024567 -0.03883826 -0.01787645
000030 7e 6f 2a bd 4f a8 8b bd 20 b1 93 bd 89 80 1c bd
       -0.041610233 -0.06819212 -0.07211518 -0.03820852
000040 cf b3 72 bd 44 9d 2b bd 3c c3 91 bd 95 77 81 3c
       -0.05925351 -0.041898027 -0.07117316 0.015804091
000050 41 b6 88 bb 6f 74 d1 bd 0f c4 bf bd 4d 5f 62 3d
       -0.004172117 -0.10227286 -0.09363567 0.055266667
000060 85 0d ed 3c df 9d 05 bd 92 00 b1 bd 62 a9 e4 bc
       0.02893711 -0.03262126 -0.08642687 -0.0279128
000070 e4 8e ac bd f8 ba aa bd 1d fc aa bc bb 33 6e bd
       -0.08425692 -0.08336443 -0.02087217 -0.058154803
000080 2d 3c 08 bc 38 db 16 bc d7 3f 84 bc a7 7c ad bd
       -0.008315128 -0.009207539 -0.016143722 -0.08471041
000090 71 0b 2c bd 51 65 10 bd 07 39 ab bd f0 56 96 bd
       -0.0420031 -0.035252873 -0.083604865 -0.07340801
0000a0 df 1d b1 bd 79 c8 99 bc 18 18 26 3c f2 58 23 3d
       -0.086482756 -0.01877235 0.01013758 0.039879747
0000b0 d8 ae 43 bb 54 59 2b 3d f5 19 4b bd e9 80 3c bd
       -0.0029858854 0.041833237 -0.0495853 -0.046021376
0000c0 26 e9 9a bd 87 e4 47 bd 7e 22 9c bd 8c fc 52 3c
       -0.07564001 -0.048801925 -0.07623766 0.012877595
0000d0 b8 ed 32 bd 3e e9 97 3d ff 75 97 bd 39 fa 49 bd
       -0.043683738 0.07417534 -0.07395553 -0.049310897
0000e0 f3 08 ab b9 85 9a d4 bd 5d d9 49 bd 33 35 6a 3d
       -0.0003262233 -0.10381035 -0.04927956 0.05717964
0000f0 a0 b0 05 3d 7c 04 32 3d f5 73 8f bd bc d9 d3 bc
       0.032639146 0.043461308 -0.07004539 -0.02586066
000100 bc c6 30 3d 81 80 c1 3c 06 73 8c 3c d1 b7 13 bd
       0.043158278 0.023620846 0.017144691 -0.036063973
000110 36 11 d6 bc c9 a6 17 3b e3 c5 8d bd e3 97 c9 bd
       -0.026131254 0.0023140183 -0.069225095 -0.09843423
000120 9b bb 94 bb 30 de 9d bd 7b 8b 87 bc 6a d6 95 bd
       -0.004538966 -0.077083945 -0.016546002 -0.07316287
000130 95 75 78 bb b0 dd 01 bd f7 d1 94 bd ba f1 08 3c
       -0.0037911881 -0.03170556 -0.0726661 0.008358413
000140 93 b5 a1 bd d2 43 0f bd c7 a2 60 bd 7b d7 c1 bd
       -0.07895961 -0.034976788 -0.054842737 -0.09464928
000150 3e fc a5 3b d6 a0 80 bd 2c 6a 40 bd 48 0d 04 bd
       0.00506547 -0.06280677 -0.046976253 -0.03223923
000160 4f 32 5d bb cf 2c 12 3d 9e 5b 6e bd 5b ef 30 3c
       -0.003375191 0.035687264 -0.05819284 0.010799254
000170 1a 40 09 3a 7d 74 01 bd 0d 9b d0 3c d4 ec 31 bd
       0.0005235687 -0.031605233 0.025464559 -0.043438748
000180 25 f1 18 bd 22 49 33 bd 38 eb 3d 3a 5f 32 f0 3b
       -0.03733935 -0.043770917 0.0007244828 0.0073302235
000190 37 33 5d 3b 03 d2 08 bd 68 26 c6 3c 6d 22 08 3d
       0.003375245 -0.033403408 0.024188235 0.033235956
0001a0 37 7d f7 3b 71 fb ad bd 8b 07 da bc 27 3e 06 3b
       0.0075527686 -0.08495224 -0.026614925 0.0020483823
0001b0 3f 43 29 bd 1c d3 3c bd 05 43 57 bd 18 95 ac bc
       -0.041323896 -0.046099767 -0.05255415 -0.021067187
0001c0 58 d3 b8 bd a8 a5 2a bc 4c 48 5e bd 19 b4 4c bd
       -0.090246856 -0.010415472 -0.054268166 -0.049976442
0001d0 6e 8f c5 3b bb 29 e7 bc e8 e6 fc 3b 03 3c a5 bd
       0.006029061 -0.02821814 0.007717956 -0.08068087
0001e0 57 05 99 bd fd c5 e5 3c f7 4f e0 3c ef 57 68 bd
       -0.074717216 0.02804851 0.02738188 -0.056724485
0001f0 b9 ed 5a bc 6e 40 e7 3c 41 c5 02 bd c0 e7 02 bd
       -0.013362342 0.028228965 -0.031926397 -0.031959295
000200 76 ae a4 bc b0 3e b1 bc 11 be ff bc c2 f0 40 3d
       -0.02010272 -0.021636337 -0.03121856 0.047104605
000210 08 71 75 bc 7b af 97 bd ad 62 50 bd fa 66 27 3d
       -0.014980562 -0.07406517 -0.050875355 0.04086969
000220 7b 3f a9 bd 1a f6 76 bd c1 49 41 bd be 35 87 bd
       -0.08264061 -0.060293294 -0.047189478 -0.066020474
000230 66 51 3e 3d 50 68 6d 3d 7f d4 5c 3d 0e 31 ca bc
       0.046464346 0.05796081 0.05391359 -0.024681594
000240 53 db 68 bd f8 fd 1e bd 8c aa 7a 3d 2e e0 ba bd
       -0.05684979 -0.038816422 0.061197802 -0.0912479
000250 8b 02 21 3d ef ac 3a 3d bb f1 1c bd d3 fc 27 bd
       0.039309066 0.04557508 -0.03831647 -0.041012596
000260 49 08 7c 3c 44 4d 70 bc fe bd 9a bd 01 22 9a bc
       0.015382835 -0.014666859 -0.075557694 -0.018815042
000270 72 ab dd bc 14 49 52 3d 80 09 79 bc 4e 45 87 bd
       -0.02705929 0.051339224 -0.015200019 -0.06605016
000280 40 61 0b bd ad 63 0c bd 56 8d 24 3c 4f f0 a7 bd
       -0.03402829 -0.034274746 0.010043463 -0.08200132
000290 25 66 b8 bc b8 2d 19 3d 85 5c 1a 3c 93 03 4c bd
       -0.022509644 0.037397116 0.009421472 -0.049808096
0002a0 8d 34 9a 3c 85 cf 23 bc ac 6e 37 3d ef 3b 2b 3d
       0.018823886 -0.009998207 0.04478328 0.041805204
0002b0 6b 66 98 3c 7f cd 1b 3a 6a 71 aa bb 70 c9 8d 3c
       0.018603524 0.0005943402 -0.0052015083 0.017307967
0002c0 b8 db 10 3d 31 b2 c6 bd 23 ad 9f bd 97 a0 4f bd
       0.03536579 -0.09701956 -0.07796695 -0.05069026
0002d0 d2 28 01 3d bf 5a 9f 3c 62 26 96 3d 81 78 85 bc
       0.03153307 0.01945245 0.0733154 -0.016292812
0002e0 37 e7 97 bd 45 b0 b8 bd 8f 5a ab bd c8 c4 17 3c
       -0.074171476 -0.09017996 -0.08366882 0.009263225
0002f0 bf d7 7e bd 36 63 6b bd 4a 87 82 bd 8f 1f a6 bd
       -0.06221747 -0.05746766 -0.063734606 -0.08111488
000300 69 f4 48 bf 42 5d d6 be 07 e6 14 bf bb bd 4b 3f
       -0.7849794 -0.41868025 -0.58163494 0.7958638
000310 85 b6 23 bf c6 fa 74 be a4 fa 87 3f 45 0e 5e 3f
       -0.6395038 -0.23923787 1.0623364 0.86740524
000320 15 fc 4b 3f 4c 3b 31 bd b2 62 d5 bd f7 42 bf be
       0.7968152 -0.04326944 -0.10419215 -0.37355778
000330 3e c5 33 bd be 8d 0c be 23 7c 87 3c a1 7e d8 be
       -0.043889277 -0.13725945 0.016538685 -0.4228411
000340 31 e9 3c 3f 3d 21 7d 3f e8 0c 9f 3d ad 42 3d bf
       0.7379332 0.9887884 0.077661335 -0.73929864
000350 a4 5f 8b 3e d8 02 fc bb 3d e2 de be 49 fd 9f 3c
       0.27221406 -0.0076907687 -0.4353198 0.019529955
000360 a1 66 c9 3f 90 91 0f 3f 37 cd d6 bd e1 c0 a5 bd
       1.5734445 0.56081486 -0.104883604 -0.08093429
000370 12 bf a8 bf a3 8c a3 be fa 2b 12 be 3e 10 f1 bd
       -1.318331 -0.31943235 -0.14274588 -0.11770676
000380 58 72 bf be 81 d4 f5 bd 87 8b 5c bd 8d 3f c1 3c
       -0.37391925 -0.120034225 -0.053844 0.023589874
000390 30 a6 40 3e 98 15 10 bf 78 9e 16 be 4a fb ea 3f
       0.18813396 -0.5628295 -0.14708889 1.8357937
0003a0 37 df eb be f0 60 b4 be bc b8 0d bf 91 a4 bb be
       -0.46068737 -0.35230207 -0.5536001 -0.36648992
0003b0 ed a1 37 be 09 87 11 bf 2e 26 c8 be 11 a0 22 3e
       -0.17932864 -0.5684667 -0.3909163 0.15881373
0003c0 8b 21 dc 3d dd 69 5b 3e bb 9b fd bd 4d 18 81 3b
       0.10748585 0.21427102 -0.12383219 0.0039396645
0003d0 fe e9 55 be e8 b3 6a be 77 93 fc 3d 24 32 1b 3d
       -0.20890042 -0.22920191 0.12332814 0.037889615
0003e0 b6 3b eb be 3e 48 ea be 9b bd 4f bf 27 38 9c bd
       -0.45943993 -0.4575824 -0.8114869 -0.07627898
0003f0 40 49 22 be de 49 ab bd 4b 54 9a be 01 4e b5 bd
       -0.15848255 -0.083636984 -0.30142435 -0.08852769

rconvs.1.bias f4 [64]
000000 21 68 cd bd 36 c3 be bd c0 5c da bd 89 1b f1 bd
       -0.10029627 -0.09314577 -0.10662222 -0.1177283
000010 df de 7e bd 6e ac 99 bd b8 42 d8 bd fc ab a1 be
       -0.062224265 -0.075035915 -0.105596006 -0.31576526
000020 e7 41 b9 bd 2c c3 04 bd b7 a3 5c bd ca 22 b6 bd
       -0.09045773 -0.032412693 -0.05386707 -0.08893354
000030 e2 64 63 b9 b7 95 ab bd 42 86 c2 bd 95 c6 ac bd
       -0.00021685989 -0.08378165 -0.09498264 -0.08436314
000040 60 fd df bd 63 80 2f bd e5 c1 c2 bd 31 e8 ae bd
       -0.10936999 -0.04284705 -0.09509639 -0.08540381
000050 fe b7 a4 bc df ff a6 bd db 70 96 3d 89 21 81 3a
       -0.020107266 -0.08154272 0.07345744 0.0009851913
000060 6c e1 15 bc 2d e5 4a 3c 82 e4 9b bd d8 7d 06 bd
       -0.009147983 0.012383741 -0.07611944 -0.032834858
000070 d6 53 44 bd b2 ea 24 3b 3a df dd bd aa a7 4a bd
       -0.047931515 0.0025164303 -0.10833593 -0.049476303
000080 58 2d 9f bd 8a 57 c3 bd 71 a7 1b bc d5 13 3a bd
       -0.077723205 -0.09538181 -0.00950037 -0.04542907
000090 0c 75 81 bd 57 86 b4 bd 15 5c 01 be 0d b4 a5 bd
       -0.06321153 -0.08814686 -0.12632783 -0.080909826
0000a0 cb 49 90 bd a3 87 9c bd 2e e0 15 be 20 d4 71 bd
       -0.07045325 -0.07643058 -0.14636299 -0.05904019
0000b0 6c bc 6c bd 0f a0 d0 39 d5 c5 14 be 16 98 61 3a
       -0.05779688 0.00039792105 -0.14528592 0.00086057314
0000c0 e8 6a 90 bd dc 16 a2 bd e0 f4 29 bc 65 a4 9c bd
       -0.07051641 -0.07914516 -0.010373324 -0.07648543
0000d0 8a c7 85 bd 1c 98 14 bd fa 68 2e bd f7 bd f9 bc
       -0.065322 -0.036277875 -0.042580582 -0.03048609
0000e0 16 81 c1 bc 04 93 1c bd ac 4b c0 ba 3f 86 8d bc
       -0.023621123 -0.038226143 -0.001467099 -0.017275928
0000f0 47 24 ab bd c2 03 57 bd c8 2e 36 bd 99 c2 93 bd
       -0.08356529 -0.052493818 -0.044478208 -0.07214851

rconvs.2.weight f4 [64, 64, 3]
000000 56 68 bc 3b 47 38 3d 3d a8 a8 5b bd 91 ab b3 bd
       0.0057497425 0.04619625 -0.05362764 -0.08772958
000010 fe 69 7c bd 57 a4 2e bd 60 72 ef 3c 29 58 61 bb
       -0.06162452 -0.042637195 0.029229343 -0.0034384823
000020 d1 7f 33 3b 10 98 60 bd 98 14 32 3d cb 73 2a bd
       0.0027389417 -0.054832518 0.04347667 -0.041614335
000030 7c 06 e8 bc fe 83 af bd bb 72 e6 bc 1f b2 8d bc
       -0.028323404 -0.085700974 -0.02813088 -0.017296849
000040 93 3c 89 bd 44 57 3f 3c a5 55 22 bd 08 99 72 bc
       -0.06701007 0.011678521 -0.03963246 -0.014806993
000050 05 6c c9 bc b4 6c c4 bd fa 60 ac bd f5 cd 4d 3b
       -0.02458764 -0.09591046 -0.08416934 0.0031403278
000060 88 e6 dc bc 88 d1 b7 3c f7 79 9f bc 88 87 56 bd
       -0.026965395 0.02243878 -0.019467337 -0.052375346
000070 e3 28 df bc 9d 8c 49 bd fd 85 84 bd ac b4 17 3d
       -0.027241176 -0.049206365 -0.06470869 0.037037537
000080 ed 20 f1 bc d5 58 83 bd 5e 6c bd bd c5 ab 06 bd
       -0.029434646 -0.06413428 -0.09249185 -0.032878656
000090 62 ac 3e bd 77 7a 54 bd 5d 9f 8e bd 55 8d 9c bd
       -0.046551116 -0.051874604 -0.0696399 -0.076441444
0000a0 ce f8 e2 bc 70 84 1c 3d c1 2e 33 bd 46 1a b7 bd
       -0.02770653 0.03821224 -0.04374576 -0.08940558
0000b0 23 f2 ea 3a 0d 38 9f bc 61 e2 8c 3c 55 69 24 bd
       0.0017924946 -0.019435907 0.01719779 -0.040139515
0000c0 0c cd a8 3b d5 f3 3b bd 40 e3 1e bd c5 f0 9f 3c
       0.0051513966 -0.045886833 -0.03879094 0.019523988
0000d0 f8 06 2a 3d 4a 7a 0c 3d 3c 87 59 bc d8 9d 79 bd
       0.041510552 0.03429631 -0.013276871 -0.060941547
0000e0 e0 61 94 bd 29 24 b9 38 68 64 c2 3c 06 5e 84 bd
       -0.07245231 8.828223e-05 0.023729518 -0.06463246
0000f0 d2 1a fa 3c 8d d2 86 39 9c 4f 2b 3b 27 9e 58 3c
       0.030530367 0.00025715344 0.002613998 0.0132213
000100 9b 9c e4 bc e0 4d 95 bd 39 e6 99 bd e1 f2 b9 bd
       -0.027906707 -0.07290244 -0.075146146 -0.090795286
000110 a0 98 c9 bb 2e 52 9d bd 66 96 37 bd 93 5a 52 bd
       -0.0061522275 -0.0768169 -0.044821166 -0.05135591
000120 f6 a0 db bc 3f 95 5f bc d1 57 87 3c f7 1c a9 bd
       -0.02681015 -0.013646423 0.016521366 -0.08257478
000130 3e 0c a6 bd 4c 38 5a bc 47 82 b1 bd 93 97 e2 bc
       -0.08107804 -0.013319086 -0.086674266 -0.027660167
000140 bc 2e 0d bd 35 d3 1a 3d 2b 57 7b bc dc 6b 25 3d
       -0.034468397 0.03779908 -0.015340607 0.040386066
000150 1e 7c 0b bd e0 0c 93 bd 33 36 67 bd a1 f5 30 bc
       -0.034053914 -0.0718019 -0.056448173 -0.01080075
000160 4e 2f 29 bd 50 32 01 3c 94 02 31 bc 76 e6 0e 3d
       -0.04130488 0.007885531 -0.010803837 0.034887753
000170 a0 a4 ab 3b 52 cf c0 bd a2 48 05 3d 49 40 dc bc
       0.0052381307 -0.09414543 0.03253997 -0.026886122
000180 97 86 8b 3c 70 56 46 bd 8e 72 2e 3d 37 2d 0a 3d
       0.01703195 -0.048422277 0.042589717 0.033734526
000190 01 1c 9f bb 2e cb c2 3c 86 de 41 bd fd 00 96 bc
       -0.0048556332 0.023778524 -0.047331356 -0.018311018
0001a0 a1 c4 bf bd 3f 8f 45 bc 26 51 bb bd d2 c7 86 bc
       -0.09363676 -0.012058078 -0.09146337 -0.016452704
0001b0 16 90 b2 bd d4 90 0a 3d 67 40 1c 3b b3 d8 3d 3d
       -0.087188885 0.033829525 0.0023842098 0.04634924
0001c0 b2 dc 17 bd 56 4b 33 bd d7 2a 23 bc 8c 0e ca bc
       -0.037075706 -0.043773018 -0.009958944 -0.02466514
0001d0 10 e6 fa bb e9 fb 33 bd 1a 8f d0 bc cd 8f aa bd
       -0.00765682 -0.043941412 -0.025458861 -0.08328209
0001e0 e7 44 b7 3c 5c ad 69 bd 17 73 1b bd 7f 6f 85 bd
       0.022371722 -0.057050094 -0.037951555 -0.06515407
0001f0 4f 0d 61 bc 0b 86 ca bc 50 a9 3f bd 93 2a f8 3b
       -0.013736083 -0.02472212 -0.04679233 0.0075734346
000200 ee d4 ac bd 28 e7 b8 bd 23 59 c3 bc 0a 5d 8c bc
       -0.084390506 -0.090284646 -0.023846215 -0.017134208
000210 17 7d e1 bc 2d fd c3 bd 06 5c 14 bb bc 88 e0 bc
       -0.027525468 -0.09569774 -0.0022637858 -0.02740895
000220 ec 78 99 3b 92 bc 24 bd 67 40 9a 3c 35 a6 15 bd
       0.0046836045 -0.040218897 0.018829538 -0.03653546
000230 52 b1 94 bc 10 d3 51 bd 50 10 45 bd c4 cb bc bc
       -0.01815096 -0.051226676 -0.04811126 -0.023046382
000240 7e 69 13 3d 1e d2 0a bd 02 2b f9 3c 6e 86 80 bb
       0.035989277 -0.03389179 0.030416016 -0.0039222753
000250 cb 0b 3e bc 17 52 f2 3c 50 0b 96 bd 77 f2 9a bd
       -0.011599491 0.02958016 -0.073263764 -0.07565778
000260 e8 17 33 bd 17 20 df 3c d5 a6 bc bd 74 89 b9 bd
       -0.04372397 0.027236981 -0.09211508 -0.0905942
000270 ea 6b 1e 3d 0a 8e c5 3c fd 35 7d 3c 8e 45 9e bd
       0.038677134 0.024115581 0.015454766 -0.0772811
000280 63 00 7a bc b1 d8 cc 3c db f3 2e 3d 8b 2f e7 bc
       -0.015258881 0.02500567 0.042713027 -0.028220912
000290 96 24 98 3a 62 09 0a 3d 95 b0 4b 3c 33 1e 8a bd
       0.0011607583 0.033700354 0.012432237 -0.06744041
0002a0 db ed c0 bc d5 6d 80 bd b8 e5 c5 bd 8b fc 2f 3d
       -0.023550918 -0.06270949 -0.09662956 0.042965453
0002b0 98 45 2d bb 96 5e 5e bb b8 a4 52 bd 79 c5 5d bd
       -0.0026439186 -0.003393089 -0.05142662 -0.054143403
0002c0 69 0e 0a 3c a1 63 4a bd 6d 98 a7 3c 71 f0 93 bc
       0.008426287 -0.04941142 0.020458424 -0.018058987
0002d0 8b 5a 62 bc 19 28 b9 bd a9 44 4c bd cd 3a 9e 3c
       -0.013815532 -0.09040851 -0.049870167 0.019315148
0002e0 6a 09 08 bd 14 74 bb bc 6f de 34 3d 32 69 ed bc
       -0.033212103 -0.022882499 0.04415744 -0.028980825
0002f0 aa a5 ad bd 10 8a b4 bd 3c 2f 9e bc aa c0 9f bc
       -0.084788635 -0.08815396 -0.019309632 -0.01950105
000300 12 24 9e bd 5a 22 5c bd ba 07 09 3c 58 4d 91 bd
       -0.077217236 -0.053743698 0.008363659 -0.0709483
000310 db 0a e0 bd db 6c 6f bd 6b 49 f0 bc b0 5a 72 b9
       -0.109395705 -0.058453422 -0.029331883 -0.00023112702
000320 b4 31 dc bd 77 be 0a bd eb 63 52 bd 14 2f 86 bd
       -0.107516676 -0.033873048 -0.05136482 -0.06551948
000330 c1 0d 27 3c a0 e4 36 3d 32 2e ce 3c 9f 63 a6 bd
       0.01019615 0.044651628 0.025168512 -0.0812447
000340 19 98 5e bd b9 82 fe 3c 40 68 9d 3c 82 4c f9 bc
       -0.05434427 0.031068193 0.01921475 -0.03043199
000350 bc dc 59 3c d9 a1 07 bd d3 78 77 bd b2 5f e5 3c
       0.013297256 -0.033113334 -0.06041796 0.027999733
000360 0b 39 11 3d 9f 36 fe bb ef c2 38 bd 49 e7 4a bd
       0.03545479 -0.007757976 -0.04510778 -0.049536977
000370 6b 3e 2c bd 61 14 a4 bd 27 73 aa bc 7e 67 87 bd
       -0.042051714 -0.080116995 -0.020806862 -0.066115364
000380 1f 43 ba bc 9b a7 be 3c e3 b1 92 3c b3 be 88 bd
       -0.022737084 0.02327328 0.017907089 -0.06676998
000390 26 08 70 bd 65 be 29 bc 0c 38 e2 bd ec 82 0e bd
       -0.05860152 -0.010360335 -0.11045846 -0.034792826
0003a0 7e 82 6e bd 50 ad ea bd ed ce 2d bd 15 4b 5e bd
       -0.058229916 -0.11458838 -0.042433668 -0.054270823
0003b0 1e cc 7e bd 0d be 8d bd 52 72 52 3c 80 7d a4 bd
       -0.06220638 -0.06921015 0.012844639 -0.0803175
0003c0 93 48 9f bd f5 53 6c 3a 8b 8b e6 bd cc 92 a6 bd
       -0.07777514 0.0009015196 -0.112570845 -0.08133468
0003d0 91 ea 2c bd cf 7c d9 bd 0f a0 e6 3b 1e 9c 42 3d
       -0.042215887 -0.106195085 0.0070381234 0.047512166
0003e0 bd 99 84 bd 7b 95 b7 bd aa 23 d9 bb e9 c7 1c 3c
       -0.06474636 -0.08964058 -0.006626566 0.009569147
0003f0 a0 50 56 bc 49 f5 eb 3b 6c 60 55 bb 10 01 bd 3c
       -0.013080746 0.007200871 -0.0032558693 0.023071796

rconvs.2.bias f4 [64]
000000 c4 8e af bd 97 a1 65 bd c9 d9 22 3b b7 68 86 bd
       -0.08572152 -0.056062307 0.0024849048 -0.065629415
000010 39 5d 6e bd d4 cd 97 bc 45 00 38 be 82 c6 6c bd
       -0.058194373 -0.018530764 -0.17968853 -0.0578065
000020 67 0f c7 bb ad d0 4e be 41 3e f1 bd 7d 2b c7 bd
       -0.006074834 -0.20196791 -0.11779452 -0.097250916
000030 78 f1 cd bc 1f 6a 1c be df c1 4f bd 48 9c 72 bd
       -0.025139555 -0.15274857 -0.050722 -0.059231073
000040 4c 35 a3 bd aa ca 89 bd ad 22 ba bd 88 74 2e bd
       -0.0796915 -0.06728108 -0.09088645 -0.0425916
000050 ba 8e bb bd 59 95 b2 3a da 8d 9c bd 5a 67 a0 bd
       -0.09158082 0.0013624831 -0.076442435 -0.07832213
000060 03 6b 99 3c 6e 95 4b 3c 59 13 d5 bd 0d 5d ab bc
       0.018727785 0.0124257635 -0.10404081 -0.020918394
000070 3d 8c c2 bd c6 64 a2 bd 0a 60 a1 be 2e 33 cb bd
       -0.094994046 -0.07929377 -0.31518584 -0.09921871
000080 5f 2f 8e bd 68 0a 82 3d 77 37 d9 bd b6 12 be bd
       -0.06942629 0.06349641 -0.10606282 -0.092809126
000090 5b ba d7 bd 6a d1 0a bf 0c c9 2a bd 29 be 5d bf
       -0.10533591 -0.5422579 -0.04169564 -0.86618286
0000a0 47 09 fb bd d0 52 81 3b 3c bc b8 bd 2e 83 59 be
       -0.12257629 0.0039466396 -0.09020278 -0.21241447
0000b0 0a 02 a3 3c 92 26 ec bc 45 87 d8 bd 5e 44 c9 bd
       0.019898433 -0.028826986 -0.105726756 -0.09827493
0000c0 de 1b c4 bc a0 39 45 bd b6 79 ea bd 99 07 15 bd
       -0.02393907 -0.04815066 -0.11448996 -0.0363842
0000d0 ba b9 9e bd 48 e7 bf bb bf df 59 bd 5c d2 6b bd
       -0.07750268 -0.0058564283 -0.053191897 -0.05757366
0000e0 49 fc ff bd 21 ea 07 bd 07 43 2a bd d7 50 c5 bc
       -0.124992914 -0.033182267 -0.04156783 -0.024086399
0000f0 3f 1f 90 bd ce a5 c9 bd 5d 3c c9 bd 0d 2a f1 bd
       -0.0703721 -0.09846078 -0.098259665 -0.11775599

rconvs.3.weight f4 [64, 64, 3]
000000 22 37 80 bc a4 87 d1 bb eb 22 aa bd 38 53 dc bc
       -0.01565129 -0.0063943435 -0.08307441 -0.02689515
000010 53 7a c7 bd c7 2a f4 3c f8 f8 27 bd b5 dd 89 bc
       -0.09740128 0.029805554 -0.04100892 -0.016829351
000020 86 29 8e bd f1 17 e0 bd 0e a9 7b bd 3c b2 96 3c
       -0.06941514 -0.109420665 -0.06144052 0.018395536
000030 0d a3 8a ba 28 bb 73 bd bc b7 40 3c f1 6b 31 bd
       -0.0010577157 -0.059504658 0.011762556 -0.04331583
000040 19 0d e6 3b 3b ef 44 3b f2 12 e3 bc c6 7d 79 bd
       0.0070206043 0.003004982 -0.027718995 -0.060910963
000050 b8 0e 93 bd 03 53 25 bc d5 b7 47 bd 4b 9f 95 3c
       -0.07180542 -0.010090592 -0.0487593 0.018264433
000060 b9 d0 83 bc 80 f0 f3 3b 95 d2 70 3b de 84 46 bd
       -0.016090738 0.0074444413 0.003674661 -0.048466556
000070 7b df 92 bd 03 97 67 bd 21 f7 9c bc b1 80 a7 3c
       -0.07171532 -0.0565405 -0.019160809 0.020447107
000080 34 82 52 bd fa c7 59 bc d3 1c e0 bc 2f d3 c4 bd
       -0.051393703 -0.013292307 -0.027357494 -0.096105926
000090 3d 95 80 bd 18 a2 36 3d 71 dd 2f bd 77 b2 03 bd
       -0.06278465 0.04458818 -0.042935792 -0.03215262
0000a0 ab 12 44 3c 56 5b 72 bb bb ea aa bc bb 0b ba 3c
       0.011967341 -0.003698071 -0.020863881 0.022710672
0000b0 9a 01 83 bd b0 d9 80 bd 08 a5 e1 3c 6f 65 6a bd
       -0.0639679 -0.062915206 0.027544513 -0.05722564
0000c0 f1 90 f9 3c d6 d3 56 3d 75 a7 81 bd 21 74 3a 3d
       0.030464621 0.052448116 -0.06330768 0.045520905
0000d0 7e f9 9e bd e9 12 96 bd 48 ff b2 bc 64 5f ff 3c
       -0.077624306 -0.073278256 -0.021850243 0.031173415
0000e0 81 9e bb 3b b2 23 d9 bb 2e cd 1c bd d2 2d 7e bd
       0.0057256822 -0.0066265697 -0.038281612 -0.062055416
0000f0 62 73 bf bd 28 62 00 bd a5 a9 a8 3a 98 39 7c bd
       -0.093481794 -0.03134361 0.0012867941 -0.061578363
000100 5f 23 a7 bd b8 dd d0 3c 49 4a a5 bd 44 d1 b2 bc
       -0.081610434 0.025496349 -0.080708094 -0.021828301
000110 ae 0a 34 bb c5 5a 8b 3d df a6 54 3c 74 6a d4 bd
       -0.0027472186 0.06804422 0.012979238 -0.10371867
000120 8f a6 3f bd fe 19 a3 bc 96 07 0a bd 5a 54 b7 ba
       -0.046789702 -0.019909855 -0.03369864 -0.0013986931
000130 73 f6 95 bc 16 67 87 bd cf 19 83 bc 5e 11 b6 bc
       -0.018305993 -0.06611459 -0.016003517 -0.022225078
000140 17 6d 52 bd 5e a8 e4 3c 32 ac 8b bd 99 da 15 bd
       -0.051373567 0.027912315 -0.06819953 -0.036585424
000150 af c4 88 bd 44 55 89 bd 10 5d 83 bd 8b 27 ad 3c
       -0.066781394 -0.06705716 -0.06414235 0.02113702
000160 f5 ec a2 bd ff 68 0f 3c 45 62 09 bc ab ee 95 bd
       -0.07955352 0.00875306 -0.008385246 -0.07320913
000170 be 04 9e bd bf 26 fe bc 17 cd 92 bd cf fe 68 bd
       -0.07715748 -0.031024335 -0.07168024 -0.05688363
000180 49 0f ba bd cd 0b 12 3d 71 65 49 3c 99 9e bb bc
       -0.09084947 0.035655785 0.012292252 -0.022902774
000190 23 b0 9c bc dd a6 a2 bd c3 8f 20 3c 7f 50 95 bd
       -0.019126957 -0.07941983 0.0097999 -0.07290744
0001a0 7f ad b6 bd 82 87 a1 bd 28 39 8f bc e0 fe 99 bc
       -0.089198105 -0.07887174 -0.017483309 -0.018798292
0001b0 e0 4c 88 bd 57 6e e6 bc c2 94 b4 bd 56 85 06 bd
       -0.06655288 -0.028128786 -0.08817436 -0.032842003
0001c0 c3 f4 80 3c 9f dc af 3c b6 eb 96 bd 70 45 15 bd
       0.015741711 0.021467505 -0.07369177 -0.036443174
0001d0 a1 56 af 3c 70 12 91 bd 19 0e 87 3b 01 a6 76 bd
       0.021403613 -0.07083595 0.0041215536 -0.060216907
0001e0 8d b3 8d 3c 18 db 92 3d da bd f6 bb 69 65 08 bd
       0.01729753 0.07170695 -0.0075299563 -0.033299837
0001f0 53 63 b6 bd e2 d1 b1 3b dc 3d f6 3c 29 1d 76 bd
       -0.08905663 0.0054266313 0.030058794 -0.060086403
000200 fe 0c f5 bc 31 eb 97 3c d7 b3 ad bd 7d 3b 8a bc
       -0.029913422 0.018544765 -0.08481567 -0.01687407
000210 09 e4 a7 3b 87 93 05 bd 8b a8 cd bd b9 20 6c bd
       0.0051236195 -0.032611396 -0.10041913 -0.057648394
000220 e2 4b c1 bd 13 a5 cb 3b 68 ef 5f bb 84 3b 65 3d
       -0.094383016 0.0062147467 -0.0034169797 0.05596496
000230 e0 7f 9f bd 43 fd 9a bd 84 c7 a3 bd 67 78 02 bd
       -0.07788062 -0.07567837 -0.07997039 -0.031853106
000240 cc 49 a6 bd f3 7e ab bd 7d f4 f3 bd f5 aa 5a 3c
       -0.081195444 -0.08373823 -0.11911867 0.013346423
000250 1a 0f fc bb df 06 51 3d ff 91 e8 bc 7d f8 53 bc
       -0.00769223 0.051031943 -0.028389929 -0.012937662
000260 20 70 3f bd 02 c9 90 bd 05 1e 05 bc 14 b7 ae bc
       -0.04673779 -0.07069589 -0.008124833 -0.021327533
000270 ac 4f 69 ba fc df 84 bc 00 a9 bf bd a5 35 5f bd
       -0.00089001167 -0.016220085 -0.09358406 -0.05449452
000280 10 21 c5 bc 10 41 5c bd 85 3f 06 bd f0 86 ba bc
       -0.024063617 -0.053772986 -0.03277542 -0.022769421
000290 f8 ef 15 bd 1f 7a cb bc 26 06 99 bd 47 6d 61 bd
       -0.036605805 -0.024838505 -0.07471876 -0.055035856
0002a0 d1 a1 2f 3d 2f 19 49 bd e1 9f b0 bd d5 7f f2 bb
       0.04287893 -0.049096283 -0.086242445 -0.0074004927
0002b0 92 f2 9c bd 21 ff ff bb 79 e7 7d 3c 27 8f 19 bc
       -0.07663454 -0.007812396 0.015497082 -0.009372509
0002c0 47 68 d2 bd af 4f c9 bd 03 0a 4b bd 68 7c f1 bd
       -0.102737956 -0.098296516 -0.049570095 -0.11791307
0002d0 14 c0 9b bd b2 b9 81 bd 24 bc 97 bd 11 10 ab bb
       -0.07604995 -0.06334247 -0.07408932 -0.005220421
0002e0 d3 91 8a bd 9c 92 90 bd be 93 a3 bc 14 50 28 3b
       -0.06766095 -0.070592135 -0.01996791 0.0025682496
0002f0 42 57 14 bd b0 d1 72 bc 0a bd 7b bd 55 47 1a bd
       -0.036216028 -0.014820501 -0.06145958 -0.037665684
000300 6e 22 11 bd 5f c2 86 bd e3 57 65 bc 89 b3 70 bc
       -0.035433225 -0.06580042 -0.013998005 -0.014691242
000310 3d df 46 bd 92 07 8e bd 13 72 ca bd 41 f5 4b bd
       -0.04855274 -0.06935038 -0.09885039 -0.04979444
000320 20 dc a1 bd c7 0f 87 3c 73 4d 2e bb b9 a4 b1 bd
       -0.07903314 0.016487015 -0.0026596456 -0.086739965
000330 7c 50 5e bd 36 78 82 3c 2c b1 ac 3c 12 d6 eb 3c
       -0.054275975 0.015926462 0.021080576 0.0287886
000340 16 0d bd bd b9 3d ae bd c6 85 0a bd d2 e5 9f bd
       -0.092310116 -0.085078664 -0.033818983 -0.078075066
000350 50 41 c8 3c ed ce cb bd 44 91 cd 3c 7b 20 58 bb
       0.024445206 -0.09951577 0.025093682 -0.0032978344
000360 ab 37 83 bd 8c 0d 05 bd 2a da b5 bd 2a c2 66 bd
       -0.06407102 -0.032483622 -0.08879502 -0.056337513
000370 f9 ad c8 bd 4d 7f 76 bd 1b 84 94 bd 09 0b d5 bc
       -0.09798808 -0.060179997 -0.072517596 -0.026006239
000380 cc 2d 84 bd bb 9a ce bd 59 61 72 bd 1d d6 bb bd
       -0.064540476 -0.10088106 -0.05917487 -0.09171698
000390 e1 2a ab 3a 15 97 98 3c ab 7f d1 bd 09 60 80 bd
       0.0013059044 0.018626729 -0.10229429 -0.06268317
0003a0 02 f1 74 bd 02 98 9c bd b1 61 63 bd 1e cc e0 3b
       -0.059800155 -0.07646181 -0.055513088 0.00686027
0003b0 8a c4 bf bc 06 8b 5e bd 6c 54 c7 bb 08 49 b1 bb
       -0.023409147 -0.0543318 -0.006083062 -0.0054103173
0003c0 61 3a 1c 3d a8 31 0a 3d 4d df 80 bd 3c e9 b1 bd
       0.038141612 0.033738762 -0.06292591 -0.08687064
0003d0 f4 26 00 3d d4 ca fa 3b d3 95 58 bc 7e 2b ca bc
       0.03128715 0.0076535735 -0.013219315 -0.024678942
0003e0 08 fe 82 bd f2 4d b7 bd 1a c2 8c bd 9b c1 0a bc
       -0.06396109 -0.08950414 -0.068729594 -0.008469011
0003f0 34 78 2e 3c da 6c 70 bb 97 2b 3a bc 6f cb 7f bb
       0.010648776 -0.0036685974 -0.011362932 -0.0039031168

rconvs.3.bias f4 [64]
000000 1d c0 a5 3a 06 d9 ec bc 79 49 d7 bd c2 16 65 bd
       0.0012645755 -0.028912079 -0.10512061 -0.055929907
000010 05 47 f2 bd 43 bf b6 bd 89 c9 07 be 95 17 d8 bc
       -0.11829952 -0.08923199 -0.13260473 -0.026378432
000020 a6 af 7a bd a0 6b 6f bd 70 da af bd ba 02 cc bd
       -0.061202668 -0.05845225 -0.085865855 -0.099614576
000030 89 81 81 bc 3b 79 66 bd 2a 08 b9 bb 6b 43 fe bd
       -0.015808837 -0.056267958 -0.005646725 -0.12415203
000040 ab 3a c9 bd 0f a8 c2 bd f6 48 b8 bd cf 83 ba bd
       -0.09825643 -0.09504711 -0.08998291 -0.09107172
000050 29 8a aa bd d5 64 03 3d 7a e6 4d 3c 1b d1 99 bd
       -0.08327133 0.032078583 0.012567157 -0.07510587
000060 d9 4f bb 3a d2 c5 ab bd 09 28 67 bd e7 b1 be bd
       0.0014290764 -0.083873406 -0.056434665 -0.09311276
000070 b5 68 ad bd c7 a3 48 bd ea e8 64 bd a9 9a ba bd
       -0.08467237 -0.048984315 -0.055886187 -0.0911153
000080 6c 41 29 bf ff c4 af bd fb 51 6c be a7 3f d9 bd
       -0.6611545 -0.08582496 -0.23078148 -0.10607844
000090 84 50 4f bd 10 84 a5 bd f3 14 6c bd f8 28 f6 3d
       -0.050613895 -0.080818295 -0.057637166 0.12019533
0000a0 7e b0 88 bd 35 a9 a0 bd 83 70 4b bd 30 50 ef bc
       -0.06674288 -0.07844774 -0.049667846 -0.029213041
0000b0 fb 9d fe bb 0b ce 3d bd b0 4c b6 bd 33 65 a9 bd
       -0.0077702976 -0.046339076 -0.08901346 -0.08271255
0000c0 24 1c 6b be 50 95 9d bd 43 e8 37 bc fa 37 c6 3b
       -0.22959954 -0.07694495 -0.011224809 0.0060491534
0000d0 9b fd 7d bd 6e 3e 97 bd c6 3b d5 bd 39 ae d3 bd
       -0.062009435 -0.073849544 -0.104117915 -0.10335965
0000e0 18 62 5f bd 88 fe 3a be b4 95 b7 bd c5 fc a8 bd
       -0.05453691 -0.18261158 -0.089641005 -0.08251337
0000f0 8d ab c4 bc da 31 0d be 4f cf 8b 3e 37 f5 e8 bd
       -0.024007583 -0.13788548 0.273066 -0.11374896
