trained_models/HEYL/HEYL_Model_state_dict.pt (torch, 512000 bytes, 22 tensors)

iconv.weight f4 [64, 4, 20]
0	0xbc99b064	-0.018760867
1	0xbd7ea99a	-0.062173463
2	0xbdd3fb2d	-0.10350642
3	0x3cedcb2a	0.02902754
4	0x3d95be06	0.07311635
5	0xbda1b150	-0.07895148
6	0x3d32e79d	0.043677915
7	0xbd6a5333	-0.05720825
8	0xbdee170d	-0.1162549
9	0x3da6e84d	0.081497766
10	0x3dadfe52	0.084957734
11	0xbc0899d7	-0.0083374595
12	0xbdc9429b	-0.09827157
13	0x3b9eabb2	0.004842245
14	0xbcd43958	-0.02590625
15	0xbcc41701	-0.02393675
16	0xbcd1a392	-0.025590692
17	0x3ba5f0f5	0.0050641247
18	0x3d97c3b5	0.07410375
19	0x3b7a26ac	0.0038170023
20	0x3d6ab1e2	0.05729855
21	0x3cc8cfe1	0.024513187
22	0x3d22e8e4	0.039772883
23	0xbdaad1a8	-0.0834077
24	0xbcc0deaa	-0.023543674
25	0x3d7f1d69	0.062283907
26	0xbdc2d631	-0.0951351
27	0xbdc280b0	-0.094972014
28	0xbe0a3586	-0.1349698
29	0x3d1eb542	0.03874708
30	0xbe101567	-0.14070664
31	0x3d455c04	0.048183456
32	0xbe0e5352	-0.13898972
33	0xbdc476bc	-0.09592959
34	0x3cb2e0f9	0.021835791
35	0xbde0a67a	-0.10969253
36	0x3d53cda1	0.051709775
37	0xbd8f672a	-0.07002099
38	0x3d8e6844	0.06953481
39	0xbbd687b3	-0.0065469383
40	0xbcc8de75	-0.024520138
41	0xbe02cd07	-0.12773524
42	0xbdfbfa58	-0.12303609
43	0x3d398b66	0.045298956
44	0xbcec476f	-0.028842656
45	0x3d9e0d24	0.0771735
46	0xbd34bc5d	-0.04412495
47	0xbd5aa3f7	-0.053379025
48	0x3b1eb152	0.0024214578
49	0x3cab5342	0.020913724
50	0xbd63f1ff	-0.055650707
51	0xbe1196aa	-0.1421763
52	0xbd186e3d	-0.037214506
53	0xbdd19153	-0.102327965
54	0xbc07fdb5	-0.008300235
55	0x3caf4c23	0.02139861
56	0xbc94cd0b	-0.018164178
57	0x3d520d2c	0.051282093
58	0xbd0eaa6e	-0.034830503
59	0xbdc48741	-0.0959611
60	0x3d699ad5	0.057032425
61	0xbc9d135d	-0.019174272
62	0xbc320305	-0.010864978
63	0xbb1f83af	-0.0024339964
64	0x3d456276	0.048189603
65	0xbd2919a0	-0.041284204
66	0xbc3a862a	-0.011384526
67	0xbdf7b489	-0.12094981
68	0xbd60f8aa	-0.054924645
69	0x3b919bf1	0.0044436385
70	0xbb4dcc8c	-0.0031402437
71	0x3d5ace06	0.053419136
72	0xbd9e239a	-0.07721634
73	0xbd96ec2e	-0.073692665
74	0x3d0bead2	0.03415949
75	0x3cce473f	0.025180457
76	0xbd84ffc1	-0.06494094
77	0x3d5718da	0.052513935
78	0x3c675b0b	0.014120827
79	0x3c8ff93c	0.017574899
80	0xbde01c13	-0.10942855
81	0xbdbc5a68	-0.09196931
82	0xbdebcbcc	-0.115134805
83	0xbde2d979	-0.11076636
84	0x3d9ea6b4	0.0774664
85	0x3d0a7e39	0.03381178
86	0x3d000a6a	0.03125993
87	0x3d6ba069	0.057526026
88	0x3d19f75a	0.03758941
89	0xbdba91b4	-0.09109822
90	0xbcefd3d0	-0.029275805
91	0xbabed825	-0.0014560266
92	0xbdffa430	-0.12482488
93	0x3d81ea72	0.06343545
94	0x3ca96efc	0.020682804
95	0xbd362fa3	-0.044479024
96	0xbdd2d494	-0.10294452
97	0xbd8ee16b	-0.06976589
98	0xbc6091b6	-0.013706615
99	0xbdc60a50	-0.09669936
100	0xbc1384f8	-0.00900387
101	0x3c399151	0.01132615
102	0x3d65671b	0.056006532
103	0xbddc505c	-0.10757515
104	0x3ccdcceb	0.025122127
105	0x3cef1573	0.029185032
106	0x3d65e561	0.056126956
107	0x3c72a77b	0.014810438
108	0xbd7caa97	-0.061686125
109	0x3d89f4e7	0.067361645
110	0x3cc7c798	0.024387166
111	0xbdae9da0	-0.08526158
112	0x3da4a291	0.080388196
113	0xbdf99329	-0.12186272
114	0xbd6afdd0	-0.05737096
115	0xbdc77905	-0.097398795
116	0x3c9bbaab	0.019009909
117	0x3db7f992	0.08983149
118	0xbd803dd8	-0.06261796
119	0xbe023d35	-0.12718661
120	0x3c0a273c	0.008432206
121	0xbd9cf7d5	-0.07664458
122	0xbdd6450f	-0.10462391
123	0xbcaa1418	-0.020761535
124	0xbd3e13f2	-0.04640574
125	0xbd83d91d	-0.064378954
126	0xbdd1ff31	-0.10253752
127	0xba17266d	-0.0005765919
128	0x3d64ae2b	0.055830162
129	0x3d34ac32	0.04410953
130	0x3ba9578b	0.0051679066
131	0xbd98fef0	-0.074705005
132	0x3d7e7acf	0.06212884
133	0x3bc956e7	0.006144393
134	0x3d713797	0.058890905
135	0xbd44a078	-0.048004597
136	0x3cea3e20	0.028594077
137	0xbd29d71b	-0.041464906
138	0x3c3a34bb	0.011365111
139	0xbdc9e4ce	-0.09858094
140	0x3c356ab1	0.0110728005
141	0xbdf08f16	-0.117460415
142	0xbe0087d3	-0.12551813
143	0x3d660c56	0.05616411
144	0xbd82eaf4	-0.0639247
145	0x3d8df9c8	0.069324076
146	0xbddeb3da	-0.10874148
147	0xbd2047fd	-0.039131153
148	0xbdda07b4	-0.106460005
149	0xbc964042	-0.018341187
150	0xbd43ebae	-0.047832184
151	0xbdfad427	-0.12247496
152	0x3d9ae48b	0.07563122
153	0xbd2598a4	-0.040428773
154	0x3d4bb0db	0.04972921
155	0xbd519488	-0.05116704
156	0xbdadc490	-0.08484757
157	0xbdd2c260	-0.1029098
158	0xbd41b78d	-0.04729419
159	0xbd4322ae	-0.047640495
160	0xbe01f53d	-0.12691207
161	0xbd162094	-0.036652163
162	0xbb9ceb0e	-0.004788763
163	0xbd92b37d	-0.07163141
164	0xbd29d0a1	-0.04145873
165	0x3d42b0c7	0.04753187
166	0x3d238a4e	0.03992682
167	0x3d216d27	0.039410736
168	0x3bbd17e1	0.005770669
169	0x3d3ec5d8	0.046575397
170	0xbe10a9b7	-0.14127241
171	0x3d9103e0	0.07080817
172	0x3d55c87d	0.052193154
173	0x3b3adffb	0.002851485
174	0x3d863cc4	0.06554559
175	0xbdfa3a90	-0.12218201
176	0xbda458e5	-0.08024768
177	0xbe04801d	-0.12939496
178	0x3d59f1ae	0.053209
179	0x3d824a53	0.063618325
180	0xbdff160f	-0.12455379
181	0xbda02d0e	-0.078210935
182	0x3d11acf6	0.03556534
183	0x3d28773f	0.041129347
184	0xbd8b25ff	-0.067943566
185	0xbd761f21	-0.06008828
186	0xbd64c8a5	-0.055855412
187	0xbd904817	-0.07045
188	0xbd2db41d	-0.042408098
189	0xbdbf7107	-0.0934773
190	0xbdd87a7c	-0.10570237
191	0x39c68a1d	0.00037868405
192	0xbd13bff6	-0.03607174
193	0x3d1b9ffc	0.03799437
194	0x3d18b839	0.037285063
195	0xbdebddc8	-0.11516911
196	0x3d8083ba	0.06275125
197	0xbda31011	-0.07962049
198	0x3b0058e9	0.0019584245
199	0xbdb2cc44	-0.08730367
200	0x3d768577	0.060185876
201	0x3ca702e3	0.020387119
202	0xbe00467b	-0.12526886
203	0x3d521ed5	0.051298935
204	0xbdc6c79a	-0.0970604
205	0x3d33a0fd	0.043854702
206	0xbd7d87a0	-0.06189692
207	0x3d2a6926	0.041604184
208	0x3cf12374	0.02943585
209	0xbcb6a39d	-0.022294814
210	0xbdbff3f9	-0.09372706
211	0xbe066001	-0.1312256
212	0x3d9dcd5d	0.077051856
213	0xbd923c74	-0.07140437
214	0xbdfadd38	-0.122492254
215	0xb92dfdc4	-0.00016593101
216	0x3d8ef0fe	0.06979559
217	0xbd9dcb41	-0.07704783
218	0xbdbc4beb	-0.09194168
219	0x3c0b9842	0.008520188
220	0x3d82c4b8	0.063851774
221	0xbc392475	-0.011300196
222	0xbb2c17a8	-0.0026259217
223	0x3d65e94e	0.0561307
224	0x3d8248f8	0.06361574
225	0xbde1a667	-0.11018067
226	0xbda9ab1a	-0.08284588
227	0xbb3f4b7d	-0.0029189282
228	0xbd7e2c59	-0.062054012
229	0x3cf4f0a2	0.029899899
230	0xbdf489d5	-0.11940352
231	0xbd95921b	-0.07303258
232	0xbc78025c	-0.015137281
233	0x3bae500b	0.0053196005
234	0xbca86159	-0.020554231
235	0xbd720677	-0.059088197
236	0xbda930f0	-0.08261287
237	0x3c051d26	0.008124625
238	0xbdef3930	-0.116808295
239	0xbd98265b	-0.07429191
240	0x3c6b0c75	0.014346232
241	0xbdccef74	-0.100066096
242	0xbd10a18d	-0.035310317
243	0x3ba47095	0.0050183036
244	0xbd9bf2bf	-0.076146595
245	0x3d3b20a3	0.04568542
246	0xbd6fe169	-0.058564577
247	0x3cdeedad	0.027212942
248	0xbd7cd1cc	-0.061723515
249	0xbc233140	-0.009960473
250	0xbc08e961	-0.008356423
251	0xbd6ee257	-0.058321323
252	0xbd575957	-0.052575435
253	0xbdce19a6	-0.10063486
254	0xbdd0d047	-0.10195976
255	0xbdb4f550	-0.08835852

iconv.bias f4 [64]
0	0x386edc12	5.694858e-05
1	0xbc72c993	-0.014818567
2	0xbe0aa353	-0.13538866
3	0x3d989d6a	0.07451899
4	0xbd7dbb56	-0.061946236
5	0xbc48a976	-0.012247434
6	0x3d89193a	0.06694265
7	0xbe0eefd9	-0.13958682
8	0x3d4db044	0.050216928
9	0xb52505cf	-6.147574e-07
10	0x3cc32b01	0.023824217
11	0x3c84c4a6	0.01620705
12	0xbde615bd	-0.11234615
13	0xbd3c5f54	-0.04598935
14	0xbda164cc	-0.078805536
15	0xbd30ecf8	-0.04319474
16	0xba27adcf	-0.0006396444
17	0xbdf102ec	-0.117681354
18	0xbc9803c9	-0.018556492
19	0x3d002b9c	0.03129159
20	0xbda2a8ae	-0.07942329
21	0xbe11e925	-0.14249094
22	0xbc81bab8	-0.015836105
23	0xbd267855	-0.0406421
24	0x3c99a98f	0.01875761
25	0xbd75f42f	-0.060047325
26	0x3d022fd9	0.031783912
27	0xbe11d68e	-0.14242002
28	0xbdefe8cf	-0.117143266
29	0xbc36a1df	-0.0111469915
30	0x3d57c7b2	0.05268068
31	0xbd58694b	-0.05283479
32	0xbd3a9a22	-0.04555715
33	0x3d70f391	0.058826033
34	0xbc5ad925	-0.013357435
35	0x3ccc6a33	0.024952983
36	0x3d686056	0.056732498
37	0x3cea5b9c	0.028608136
38	0xbd1d70c9	-0.03843764
39	0xbc3f6176	-0.011680951
40	0xbdd6527a	-0.1046495
41	0x3d89d4a5	0.06730012
42	0x3d8a0ca5	0.06740693
43	0x3c88ef27	0.0167156
44	0x3d9b8322	0.07593371
45	0x3cec15ad	0.02881893
46	0xbdad58a3	-0.08464172
47	0xbcce4cd4	-0.025183119
48	0xbadfd733	-0.0017077684
49	0xbc97f161	-0.018547716
50	0x3d1a6e63	0.03770293
51	0xbd838c0c	-0.06423196
52	0xbdff76a4	-0.12473801
53	0xbd325b91	-0.043544356
54	0x3d6da063	0.058014285
55	0x3dedcd4c	0.11611423
56	0x3d4bb642	0.04973436
57	0xbd36ba26	-0.04461112
58	0xb857f533	-5.1488354e-05
59	0xbd15279a	-0.03641472
60	0x3da69980	0.081347466
61	0x3d716fb1	0.058944408
62	0xbc1bacf3	-0.0095016835
63	0x3d88dde3	0.066829465

rconvs.0.weight f4 [64, 64, 3]
0	0xbda72d09	-0.08162887
1	0xbb1b5a1b	-0.002370483
2	0xbdbaa387	-0.091132216
3	0xbd937bf0	-0.072013736
4	0x3d063765	0.032767672
5	0x3bd2e5e7	0.006436098
6	0xbcade616	-0.021227878
7	0xbc64be61	-0.0139614055
8	0x3bceb422	0.0063080946
9	0xbd5b3f18	-0.053526968
10	0x3c53a208	0.012917049
11	0xbd627fdc	-0.055297717
12	0xbccf367e	-0.025294539
13	0xbda934d6	-0.08262031
14	0xbccfa5a9	-0.025347548
15	0xbcacef84	-0.021110304
16	0xbcbf12d8	-0.023324415
17	0xbbdf707e	-0.00681883
18	0xbb1a84b1	-0.0023577625
19	0xbd295845	-0.041343946
20	0xbdd36da7	-0.10323649
21	0xbdc78dd4	-0.097438484
22	0xbd8acfb0	-0.067778945
23	0xbd14face	-0.036372
24	0xbb4d6bf5	-0.0031344865
25	0xbdb5fd18	-0.088861644
26	0xbcb59e89	-0.022170322
27	0xbcf1b071	-0.02950308
28	0x3d0cf0b5	0.034409244
29	0xbd0eeab1	-0.034891788
30	0xbd99005f	-0.07470774
31	0x3c80944e	0.015695717
32	0x3c69aa74	0.014261831
33	0x3cc50136	0.024048429
34	0xbdab0d65	-0.08352164
35	0xbdc3ca3e	-0.09560059
36	0x3bcf2a63	0.0063221916
37	0xbdab8171	-0.08374298
38	0xbdc17457	-0.09446018
39	0x3cca7cb2	0.024717662
40	0xbd8381f6	-0.064212725
41	0xbcc9e3ba	-0.024644721
42	0x3c6b0e87	0.014346725
43	0xbccae2fe	-0.024766441
44	0x3bf5b575	0.007498438
45	0x3c8df315	0.017327825
46	0xbd923bf7	-0.07140344
47	0xbd974004	-0.07385257
48	0xbce4dc49	-0.027937071
49	0x3ca55f77	0.020187123
50	0xbc41314d	-0.011791539
51	0xbd73e676	-0.059545957
52	0xbdc65633	-0.0968441
53	0x3cd46ea1	0.025931658
54	0xbd6430c1	-0.055710558
55	0xbdbf14e0	-0.093301535
56	0xbcab5d88	-0.020918623
57	0xbdccea76	-0.100056574
58	0xbca373eb	-0.019952735
59	0xbd7cb813	-0.061698984
60	0xbda4c206	-0.080448195
61	0xbdd51827	-0.10404997
62	0xbd717151	-0.058945958
63	0xbda916db	-0.082563125
64	0x3cae666e	0.021289077
65	0xbdbbb9fd	-0.09166334
66	0xbdb5a254	-0.08868852
67	0xbd59b374	-0.053149655
68	0xbd6b194b	-0.057397168
69	0xbc769d54	-0.015052158
70	0xbdc1871d	-0.09449599
71	0xbd34dc2d	-0.04415529
72	0xbd83dd02	-0.06438638
73	0xbcba2a5d	-0.022725279
74	0xbd72bd41	-0.059262518
75	0x3d257d90	0.04040295
76	0x3d0517fe	0.032493584
77	0xbd419bba	-0.047267653
78	0xbd083792	-0.03325612
79	0xbda92eae	-0.082608566
80	0xbd3d5500	-0.04622364
81	0x3cdc6369	0.026902871
82	0xbacbeb12	-0.0015557727
83	0xbd89f56b	-0.06736263
84	0x3b932956	0.0044910116
85	0x3b700832	0.0036625979
86	0xbc72695b	-0.0147956265
87	0x3d077eb5	0.03307982
88	0xbcf9410e	-0.030426528
89	0xbdd3d9ad	-0.10344253
90	0x3cfeb8f5	0.031094054
91	0xbdcb7b72	-0.09935655
92	0xbd8670ec	-0.06564507
93	0xbccf5ea4	-0.025313683
94	0xbdab5933	-0.08366623
95	0xbd11652d	-0.03549688
96	0xbd9e3925	-0.07725743
97	0xbdbab250	-0.09116042
98	0x3ce5871b	0.028018525
99	0x3d057522	0.03258241
100	0xbb27d94c	-0.0025611697
101	0xbd10e016	-0.035369955
102	0xbd775a63	-0.060388934
103	0xbdc36a76	-0.0954179
104	0x3cc85a8b	0.024457237
105	0x3c9f3b85	0.01943756
106	0x3d194256	0.03741678
107	0xbd13d824	-0.0360948
108	0xbc7dfeef	-0.015502675
109	0xbda8a3e4	-0.08234385
110	0xbcbf8e0e	-0.023383167
111	0xbbf37b5f	-0.0074304785
112	0xbd3c20fe	-0.0459299
113	0xbbc86ea7	-0.0061167064
114	0xbcc5cf0d	-0.024146581
115	0xbd5629e6	-0.05228605
116	0xbd0ab0a5	-0.033859868
117	0x3cd0abb8	0.025472507
118	0xbda2fa16	-0.07957856
119	0x3bf3c867	0.0074396613
120	0x3b82a52e	0.003986976
121	0xbd0d2f3d	-0.034468878
122	0xbc31e72c	-0.010858338
123	0x3b10f002	0.0022115712
124	0x3bef8a9e	0.0073102256
125	0xbd7e4d37	-0.062085357
126	0x3c329c43	0.0109015135
127	0xbcfdffd0	-0.03100577
128	0x3d1772a4	0.036974564
129	0xbdaf4eb3	-0.085599326
130	0x3c8f0ddf	0.017462669
131	0xbda6a234	-0.081364065
132	0x3cd2d8a0	0.02573806
133	0xbcec94db	-0.028879574
134	0xbd29f74b	-0.041495603
135	0xbdc1c7d9	-0.09461946
136	0x3c921c47	0.01783575
137	0xbd401504	-0.046895042
138	0xbca7283f	-0.020404933
139	0x3d1ce99a	0.038308717
140	0xbcb91401	-0.022592546
141	0x3d0362e3	0.032076728
142	0x3c3c1959	0.011480653
143	0x3cda7b92	0.026670251
144	0xbc93cd5d	-0.01804226
145	0xbc33c5ac	-0.010972422
146	0x3cca0480	0.024660349
147	0x3d1f0488	0.03882268
148	0xbd212931	-0.039345924
149	0xbd71926b	-0.058977526
150	0xbdc41c7b	-0.09575745
151	0xbcfac4a5	-0.030611346
152	0xbcc1f09a	-0.023674298
153	0xbd6a5d4a	-0.057217874
154	0xbdbfcd95	-0.093653835
155	0x3c9d2543	0.019182807
156	0xbd1ef306	-0.038805984
157	0xbc9a6045	-0.018844733
158	0x3d2bb528	0.04192081
159	0xbcafa790	-0.021442205
160	0xbd6bd506	-0.0575762
161	0x3c906632	0.017626856
162	0xbdaa1b58	-0.08305997
163	0x3c809ab1	0.015698763
164	0xbd2d14ba	-0.042256095
165	0xbca9f251	-0.020745428
166	0x3c8b1dc5	0.016981969
167	0xbd80618a	-0.06268604
168	0xbd38a454	-0.04507859
169	0xbae92696	-0.0017787989
170	0xbdbaed12	-0.09127249
171	0xbd197a2e	-0.037470035
172	0x3d05fb4a	0.03271035
173	0xbd7be46a	-0.06149713
174	0x3cb4a305	0.02205039
175	0xbd027af0	-0.031855524
176	0xbd9b02ac	-0.07568869
177	0x3d0c3a04	0.034235016
178	0xbd5eb5fe	-0.05437278
179	0xbd27dd72	-0.04098267
180	0xbd7be6fd	-0.061499584
181	0xbd0ab18e	-0.033860736
182	0x3cc9ffca	0.024658103
183	0x3cc4b936	0.024014097
184	0xbc49cdd3	-0.012317139
185	0xbd9ea74c	-0.07746753
186	0xbb9f1e9e	-0.004855945
187	0xbda05cb6	-0.07830183
188	0xbd263367	-0.040576365
189	0x3c671271	0.014103518
190	0xbdc7dcb7	-0.09758895
191	0xbcbee24a	-0.023301262
192	0xbccb248a	-0.024797697
193	0xbd85bdbf	-0.06530332
194	0xbdb3d60a	-0.08781059
195	0xbd3cf440	-0.046131372
196	0x3c064a41	0.008196414
197	0xbdb6aa50	-0.08919203
198	0x3c74a3a0	0.014931589
199	0xbcbb4772	-0.022861216
200	0x39beffbc	0.0003643016
201	0xbdc9b480	-0.09848881
202	0x3cff930e	0.03119805
203	0x3ccc6be5	0.024953792
204	0x3c0f1097	0.008731983
205	0x3a4996ad	0.0007689994
206	0xbd568e2b	-0.052381676
207	0x3cbdc648	0.023165837
208	0x3ccb267f	0.02479863
209	0xbdbc4780	-0.09193325
210	0xbd637153	-0.055527996
211	0xbdc92998	-0.098223865
212	0xbb07ae9f	-0.0020703448
213	0xbda3f7c9	-0.08006246
214	0xbb663498	-0.0035126563
215	0xbc84266d	-0.016131604
216	0x3cd92219	0.026505517
217	0x3c4b3dbf	0.012404858
218	0xbd481da7	-0.048856404
219	0xbd98c1c0	-0.0745883
220	0xbd7f271e	-0.062293164
221	0x3c7e4fe9	0.015521982
222	0x3d16a88f	0.036781844
223	0xbaad2b6f	-0.0013211797
224	0x3d06f069	0.032944117
225	0xbc2f01c3	-0.010681572
226	0x3cbd1643	0.023081904
227	0xbc9af1ef	-0.018914191
228	0xbda1ad2d	-0.07894359
229	0xbd9add44	-0.07561734
230	0xbd52b31a	-0.051440336
231	0xbc958366	-0.018251132
232	0xbdbc171e	-0.09184097
233	0xbda9d741	-0.082930095
234	0xbd7997d7	-0.06093582
235	0x3c9ea449	0.019365447
236	0xbdca01fc	-0.0986366
237	0xbdacfc92	-0.084466115
238	0x3cbe7afb	0.023252001
239	0xbdc5bba4	-0.0965493
240	0xbc21f764	-0.009885643
241	0xbd6e4749	-0.05817345
242	0xbc7053fe	-0.014668463
243	0xbd9b19e1	-0.075732954
244	0xbcfa456f	-0.030550687
245	0xbccc3b16	-0.024930518
246	0xbdc7ae11	-0.097499974
247	0xbcfffa66	-0.031247329
248	0xbd8aecf3	-0.06783476
249	0xbd00c64a	-0.031439103
250	0xbd07a2e0	-0.033114314
251	0x3d11a06c	0.03555338
252	0xbd0d845b	-0.034550052
253	0xbd89dcd0	-0.0673157
254	0xbd8e6807	-0.069534354
255	0xbd7516f5	-0.059836347

rconvs.0.bias f4 [64]
0	0xbcea4ea8	-0.02860196
1	0x3caab2ce	0.020837214
2	0x3d9de96f	0.077105395
3	0xbca5e7c2	-0.020252112
4	0xbd9b5f27	-0.07586508
5	0xbc85445a	-0.016267944
6	0xbd948f36	-0.07253878
7	0xbd03ca8c	-0.032175586
8	0x3ce66ed9	0.028129028
9	0xbd5ed62a	-0.05440346
10	0xbd10bb07	-0.035334613
11	0xbd61a47b	-0.0550885
12	0x3c35d42b	0.011097948
13	0xbd505f0c	-0.050871894
14	0x3c83067b	0.015994301
15	0x3a801d52	0.0009774363
16	0x3cc3acc7	0.023886098
17	0x3d2e08d8	0.042488903
18	0xbc540443	-0.012940469
19	0xbc7f72d7	-0.015591345
20	0xbc255cef	-0.010092958
21	0xbcc3ba98	-0.023892686
22	0xbcc72d5e	-0.024313625
23	0x3c8acb21	0.016942563
24	0xbb823dd1	-0.0039746542
25	0xbbefaa99	-0.007314038
26	0xbdb8ad07	-0.09017377
27	0xbdb385cb	-0.08765753
28	0x3bc24c7a	0.005929527
29	0xbae17f09	-0.0017203997
30	0x3d11f117	0.03563031
31	0x3d19de81	0.037565712
32	0x3bbe771e	0.0058125397
33	0x3c3024f0	0.010750994
34	0xbcfd4f70	-0.030921668
35	0xbd8868c9	-0.06660611
36	0xbdc41dd5	-0.095760025
37	0x3d3b5771	0.045737687
38	0xbd069065	-0.03285255
39	0x3d224d46	0.039624475
40	0x3c1c746e	0.009549243
41	0xbce6c9ec	-0.028172456
42	0xbd7ec160	-0.062196136
43	0x3d0d5a43	0.03450991
44	0x3d540478	0.051762074
45	0xbd8fb315	-0.07016579
46	0x3d2b0653	0.041754078
47	0xbd1a4fbd	-0.0376737
48	0xbccad11a	-0.02475791
49	0xbd67b38e	-0.05656772
50	0x3d420885	0.047371406
51	0x3c2a1bd7	0.010382614
52	0x3c45f011	0.012081162
53	0x3c43df81	0.011955143
54	0xbdaca1de	-0.08429311
55	0xbc9831d2	-0.018578444
56	0xbd72717d	-0.059190262
57	0xbd7132f0	-0.05888647
58	0xbd4efa19	-0.05053148
59	0xbd02e00b	-0.031951945
60	0x3c294a2d	0.010332626
61	0x3ca72bc7	0.020406617
62	0xbdf20503	-0.11817362
63	0x3d0b9552	0.03407795

rconvs.1.weight f4 [64, 64, 3]
0	0xbc6c0504	-0.014405493
1	0xbc2be548	-0.010491677
2	0xbdba401b	-0.090942584
3	0x3d1f9feb	0.03897087
4	0x3d2d5bac	0.042323753
5	0xbd9f01b1	-0.077639945
6	0xbcb6fdbd	-0.022337789
7	0xbd728c9e	-0.059216134
8	0xbbcec20d	-0.0063097537
9	0xbd8bc3b7	-0.06824439
10	0x3d144e26	0.03620734
11	0x3ad0c4dc	0.0015927809
12	0x3d39612d	0.04525869
13	0xbda52793	-0.08064189
14	0x3aa2d5b6	0.001242331
15	0x3cabbc76	0.020963889
16	0xbda7ca73	-0.08192911
17	0xbd89452e	-0.06702648
18	0x3cbc42a2	0.022980992
19	0x3a9da742	0.0012027996
20	0xbc50e0b1	-0.012748883
21	0xbcaebd6b	-0.021330556
22	0x3d16f924	0.036858693
23	0xbc4fda94	-0.01268639
24	0xbdc64107	-0.09680372
25	0xbdc3bddc	-0.09557697
26	0xbcaf8325	-0.02142484
27	0xbd98feeb	-0.07470497
28	0xbd5c7af9	-0.053828213
29	0xbd6e4b76	-0.058177434
30	0xbd45fa56	-0.048334442
31	0x3c8b447e	0.017000433
32	0xbd4bc591	-0.04974896
33	0x3ccecb62	0.025243465
34	0xbda980c3	-0.082765125
35	0xbcc0c468	-0.023531154
36	0x3b88f559	0.0041796383
37	0xbd09c6ce	-0.03363686
38	0xbc4ac55a	-0.012376154
39	0x3bc3bdc0	0.0059735477
40	0x3c37e363	0.011223647
41	0xbc9c1d7e	-0.019057032
42	0xbdb6e383	-0.08930113
43	0xbdb6a508	-0.08918196
44	0x3ca1190c	0.019665264
45	0x3baf3484	0.0053468365
46	0xbd8a5f53	-0.06756463
47	0xbc1ad15b	-0.009449328
48	0xbcc22fa6	-0.023704361
49	0xbdc656bd	-0.09684513
50	0x3d0a679d	0.03379022
51	0x3ca557ee	0.02018353
52	0xbcf26caf	-0.02959284
53	0x3bc06f17	0.005872618
54	0xbd8858f8	-0.066575944
55	0xbc9c00bd	-0.01904332
56	0xbcfad3e7	-0.030618621
57	0x3bc87a09	0.0061180633
58	0xbc84af20	-0.016196787
59	0xbb331b76	-0.00273296
60	0xbdb33d48	-0.08751923
61	0xba8068b4	-0.0009796829
62	0xbcb1acf9	-0.021688925
63	0xbd770800	-0.060310364
64	0xbcea4989	-0.028599517
65	0x3b6b5438	0.0035908353
66	0x3d0a2138	0.033723086
67	0xbb1e30f3	-0.0024138063
68	0xbd9126c0	-0.07087469
69	0x3ca75be0	0.020429552
70	0xbbe660ec	-0.007030597
71	0xbd2a5856	-0.04158815
72	0xbd27f6aa	-0.04100672
73	0x3c9e13d8	0.019296572
74	0xbc236bba	-0.0099744145
75	0xbd118d51	-0.03553516
76	0xbd3b1b22	-0.045680173
77	0xbdba405e	-0.09094308
78	0xbc0f0f70	-0.008731708
79	0x3cd1396c	0.025540076
80	0x3cb038a0	0.021511376
81	0xbc89b077	-0.016807778
82	0xbc4479be	-0.011991916
83	0xbd1e3db8	-0.03863308
84	0xbcf90305	-0.030396948
85	0xbcd91180	-0.026497602
86	0x3d1f3410	0.03886801
87	0xbd2f17d5	-0.042747337
88	0xbcce8e3d	-0.025214309
89	0xbd7a32a2	-0.061083443
90	0xbd54a75e	-0.051917426
91	0xbdc3cca8	-0.095605195
92	0x3ce557eb	0.027996024
93	0xbc4c9cb3	-0.012488532
94	0x3c88770b	0.016658327
95	0x3c417145	0.011806791
96	0x3cd6af62	0.026206676
97	0x3b4bc5a5	0.0031093147
98	0xbdbfb21c	-0.093601435
99	0x3cbf857e	0.023379084
100	0x3d357cf2	0.04430861
101	0x3cceb074	0.025230624
102	0xbc8da934	-0.017292596
103	0xbd46f540	-0.048573732
104	0xbcb92cb9	-0.022604333
105	0x3d2fa8d8	0.04288563
106	0x3c7bf8f9	0.015379184
107	0x3bc72570	0.006077461
108	0xbd500a95	-0.05079134
109	0xbda4cc80	-0.08046818
110	0xbcc4c5a9	-0.024020033
111	0xbb97275b	-0.004612846
112	0xbdbf13a2	-0.093299165
113	0xbd2c828e	-0.042116694
114	0x3b8792d7	0.0041373777
115	0x3d19cca1	0.037548665
116	0xbd9ba08d	-0.07598982
117	0xbda04493	-0.078255795
118	0xbd1b65fa	-0.03793905
119	0xbd831264	-0.06399992
120	0xbdc6bd5f	-0.097040884
121	0xbd368b8e	-0.044566683
122	0xbcd06edf	-0.025443492
123	0xbdb1682b	-0.086624466
124	0xbd7a4de4	-0.06110944
125	0x3c9c3c96	0.019071858
126	0xbcf570fe	-0.029961105
127	0x3d015b6d	0.03158133
128	0x3d197f7f	0.037475105
129	0xbd9e34d2	-0.077249184
130	0xbdb4a201	-0.08819962
131	0x3ca524aa	0.020159084
132	0x3d24386f	0.04009288
133	0x3cf10527	0.029421402
134	0xbd4d10fb	-0.050065022
135	0xbdad43b7	-0.08460181
136	0xbcc915f4	-0.0245466
137	0xb95a5dbc	-0.00020825019
138	0xbd83a9f7	-0.064289026
139	0xbdb91b00	-0.09038353
140	0xbd1871d9	-0.03721795
141	0xbc90e481	-0.017687084
142	0xbdacb6fd	-0.0843334
143	0xbd545f76	-0.05184885
144	0x3c67308f	0.014110698
145	0xbccf514f	-0.025307326
146	0xbdc164ca	-0.09443052
147	0x3d063f61	0.032775287
148	0xbd5d751c	-0.054066762
149	0xbc95e225	-0.01829631
150	0xbc893080	-0.01674676
151	0xbdbeeea5	-0.093228616
152	0x3cadbc28	0.021207884
153	0xbd1fbd82	-0.038999088
154	0x3d34c662	0.044134505
155	0xbd93bc21	-0.07213617
156	0x3ccd1826	0.025035929
157	0xbd09eced	-0.033673216
158	0xbda4cdce	-0.08047067
159	0x3ca8fda2	0.020628754
160	0x3d34b7ef	0.044120725
161	0xbc559ecc	-0.013038348
162	0x3bcb8845	0.006211313
163	0x3d19492a	0.03742329
164	0xbd46787f	-0.048454758
165	0xbd36d0e1	-0.044632796
166	0xbc1844a4	-0.009293709
167	0xbc05ef9a	-0.008174801
168	0xbd94ed08	-0.072717726
169	0xbda7eb08	-0.081991255
170	0xbb944965	-0.004525351
171	0xbc72f0db	-0.014827932
172	0x3ca37469	0.01995297
173	0x3b8d232d	0.004307172
174	0xbd0e0573	-0.034673166
175	0xbc891799	-0.016734885
176	0xbdc3edd9	-0.0956685
177	0x3ca1b2f6	0.019738656
178	0xbd50745c	-0.05089222
179	0xbc41f9c4	-0.011839334
180	0xbdacc535	-0.08436052
181	0xbd4292b3	-0.047503185
182	0xbd5ca2db	-0.05386625
183	0x3ca0912f	0.019600479
184	0xbd88b334	-0.06674805
185	0xbd182d8a	-0.037152804
186	0xbcbc09f9	-0.022953974
187	0x3cc8c84b	0.02450957
188	0xbb7a6a76	-0.0038210428
189	0xbdc542cf	-0.09631883
190	0x3d1a4bc0	0.037669897
191	0xbc0a4bbe	-0.00844091
192	0xbd93e5a0	-0.07221532
193	0xbd8d61c2	-0.069034114
194	0xbdaa7f5f	-0.08325075
195	0xbb0e9e82	-0.0021761958
196	0xbcfd8a30	-0.030949682
197	0xbc51e4cc	-0.012810897
198	0x3c4c7328	0.012478627
199	0x3d0f8cab	0.03504626
200	0xbda631ef	-0.08114993
201	0xbdccc095	-0.099976696
202	0xbd856d75	-0.06515018
203	0xbd496072	-0.049164243
204	0xbbfb0018	-0.0076599233
205	0x3ba51a2e	0.0050385213
206	0x3cbb8930	0.022892565
207	0xbcd2ebc6	-0.025747191
208	0xbd33af77	-0.04386851
209	0x3c8c5b1b	0.017133286
210	0xbd8cc66b	-0.06873783
211	0xbcebba9b	-0.028775504
212	0xbd764abc	-0.060129866
213	0x3c5e556a	0.013570169
214	0x3d21ce4f	0.03950339
215	0x3ceb0845	0.028690467
216	0xbcf08ef1	-0.029365035
217	0xbd2eee85	-0.04270794
218	0xbb004907	-0.0019574778
219	0xbdc86e3e	-0.09786652
220	0xbdbe14dc	-0.09281322
221	0xbdd29f22	-0.102842584
222	0xbc31db60	-0.010855526
223	0xbd57ac49	-0.05265454
224	0xbc4cc84a	-0.0124989245
225	0xbd884be6	-0.066551015
226	0xbd36f498	-0.044666857
227	0xbd359c80	-0.044338703
228	0x3d090ef5	0.03346153
229	0xbc48f02b	-0.012264292
230	0xbd87377e	-0.06602381
231	0xbd275c92	-0.040859766
232	0xbd8616a4	-0.06547287
233	0xbc7965b6	-0.015222004
234	0x3de86fd3	0.11349454
235	0xbd780001	-0.06054688
236	0x3d7c9628	0.061666638
237	0xbdad0af7	-0.08449357
238	0x3c11c2b0	0.008896515
239	0x3c410130	0.011780068
240	0xbcbf5f06	-0.02336074
241	0x3c992226	0.018693041
242	0xbcafa26d	-0.021439755
243	0xbd880290	-0.06641114
244	0xbdb6f154	-0.089327484
245	0xbcdb837f	-0.0267961
246	0xbb1a6f40	-0.0023564845
247	0xbdce6ca2	-0.10079314
248	0xbd5d98a8	-0.054100662
249	0xbd3a46e5	-0.045477767
250	0xbd25d90a	-0.040490188
251	0xbcf57c1b	-0.029966405
252	0xbc8c49ce	-0.017125037
253	0xbc67ed20	-0.014155656
254	0xbdd81098	-0.1055004
255	0xbdb63572	-0.08896913

rconvs.1.bias f4 [64]
0	0xbdc752c1	-0.09732581
1	0xbc9aede5	-0.018912265
2	0x3b6cfade	0.003616027
3	0xbd2b9bf4	-0.041896775
4	0x3d14d361	0.0363344
5	0x3ce077a6	0.027400803
6	0x3d624d32	0.0552494
7	0xbd9ab68a	-0.07554348
8	0xbd89956c	-0.06717953
9	0xbf4922ec	-0.7856891
10	0xbd393774	-0.0452189
11	0x3b31fdcc	0.0027159331
12	0xbdbbcf69	-0.0917042
13	0x3c5ff28a	0.013668666
14	0x3d3c6900	0.045998573
15	0xbced54a1	-0.028971018
16	0xbc9e2bad	-0.019307936
17	0x39bed92a	0.00036401424
18	0xbd10c84f	-0.03534728
19	0xbca026f5	-0.019549826
20	0x3bd605d3	0.006531456
21	0x3d887ce0	0.06664443
22	0xbd3ab53c	-0.045582995
23	0x3cfe9103	0.031075006
24	0xbcdf76d4	-0.027278341
25	0x3d22a85a	0.039711334
26	0xbc1f4c36	-0.00972276
27	0xbd97c5f7	-0.07410806
28	0xbdb32a38	-0.08748287
29	0xbd89d15f	-0.067293875
30	0x3d4c373d	0.049857367
31	0x3d297755	0.04137357
32	0x3d2c83f2	0.04211802
33	0xbcea6582	-0.028612856
34	0xbdadba98	-0.084828556
35	0xbcd708f1	-0.02624938
36	0xbd8cc736	-0.06873934
37	0xbcc4d451	-0.024027022
38	0xbd09e2e8	-0.03366366
39	0x3b0d6eeb	0.0021581005
40	0x3d1458d3	0.036217522
41	0xbdd39c20	-0.10332513
42	0xbc58f254	-0.013241369
43	0xbdb976dc	-0.09055874
44	0xbd9415fe	-0.07230757
45	0xbd51ab27	-0.051188614
46	0x3b7d789a	0.003867662
47	0xbda3f2e5	-0.08005313
48	0xbbf59097	-0.007494043
49	0xbc37cc97	-0.011218212
50	0xbb9d17b6	-0.0047940863
51	0xbdbf3c92	-0.09337725
52	0xbc52161a	-0.012822652
53	0xbd425f8e	-0.04745441
54	0x3cf723fc	0.030168526
55	0x39e7f794	0.00044244213
56	0x3d48fa2a	0.0490667
57	0xbcc4ae97	-0.024009032
58	0xbda5fc91	-0.08104814
59	0xbde1a1bd	-0.11017177
60	0xbc109c92	-0.008826392
61	0xbd8b6093	-0.068055294
62	0xbd8dec69	-0.06929857
63	0xbbdad2d2	-0.006677964

rconvs.2.weight f4 [64, 64, 3]
0	0x3cddadb6	0.02706037
1	0x3c55fe8e	0.013061179
2	0x3cb1a283	0.021683937
3	0x3d0d9ff8	0.034576386
4	0x3b36962c	0.0027860506
5	0xbb4b1582	-0.0030988161
6	0xbda5c571	-0.080942996
7	0x3d01ac81	0.031658653
8	0x3d025a7a	0.031824566
9	0xbd489f32	-0.048979945
10	0x3c826b75	0.01592038
11	0xbcfb95fe	-0.03071117
12	0x3be25174	0.0069066826
13	0x3b5053b5	0.0031788175
14	0xbcb86de8	-0.022513345
15	0xbd975d25	-0.07390813
16	0xbd99038d	-0.074713804
17	0xbccf2d74	-0.025290228
18	0xbc595981	-0.013265968
19	0xbd59cd23	-0.05317415
20	0xbd0e6fea	-0.0347747
21	0x3cecf7c6	0.028926741
22	0x3ae3ab21	0.0017369726
23	0xbbb488b0	-0.0055094585
24	0xbd6a4462	-0.05719412
25	0xbbdc04a2	-0.0067144195
26	0xbda1f484	-0.07907966
27	0xbd944d2c	-0.07241282
28	0xba2cd3a6	-0.00065928174
29	0xbd803c3b	-0.06261488
30	0xbc9444c7	-0.018099202
31	0x3d2bfd89	0.041989837
32	0x3bafab2c	0.0053609814
33	0xbda491f9	-0.080356546
34	0x3d05a336	0.032626353
35	0x3cfc0448	0.03076376
36	0xbd614771	-0.054999772
37	0xbd980520	-0.074228525
38	0xbc15d3ca	-0.009144733
39	0x3c068a36	0.008211663
40	0x3d28d698	0.041220278
41	0x3b8765a5	0.00413199
42	0xbd8b13c3	-0.067908786
43	0xbd0be0ee	-0.034150057
44	0xbd8e32d9	-0.06943292
45	0x3c1d7565	0.009610509
46	0x3baeacf5	0.0053306767
47	0xbd37956d	-0.044820238
48	0xbd8cb5bc	-0.068706006
49	0xbc8e6dfe	-0.017386433
50	0x3d13d142	0.036088236
51	0xbd5bdb0c	-0.053675696
52	0x3d12d819	0.035850618
53	0xbc7ffb45	-0.015623872
54	0xbdb6fdf4	-0.089351565
55	0xba3946b7	-0.0007067727
56	0xbb9aae27	-0.0047204676
57	0xbd3b1784	-0.045676723
58	0xbd7bdba1	-0.06148875
59	0x3d2bf518	0.041981786
60	0xbbac66bd	-0.005261271
61	0xbd9194e0	-0.07108474
62	0x3c92d10e	0.01792195
63	0xbd8b4ba3	-0.06801536
64	0x3d25e289	0.040499244
65	0xbd3f616c	-0.046723768
66	0xbd8a7a8a	-0.06761654
67	0xbd533496	-0.05156382
68	0xbcdc60b2	-0.026901577
69	0x3d3e66c5	0.046484727
70	0xbdb6b09f	-0.089204066
71	0xbdb68c8f	-0.08913528
72	0xbc995fa9	-0.018722372
73	0xbc8bbca7	-0.01705773
74	0xbd562bc8	-0.052287847
75	0x3c7d0011	0.01544191
76	0xbd9e9c8e	-0.07744704
77	0xbd61e9df	-0.055154677
78	0x3c34433b	0.011002357
79	0xbd52075e	-0.051276557
80	0xbdb202d0	-0.08691943
81	0xbb5f86e4	-0.00341075
82	0xbd890160	-0.066897154
83	0x3c62f015	0.013851185
84	0x3b405896	0.0029349676
85	0xbd816f07	-0.06320005
86	0xbd8ae63a	-0.067821935
87	0xbda3138e	-0.07962714
88	0xbd3bc321	-0.045840386
89	0x3d35a20d	0.044343997
90	0x38f3d6a9	0.000116271265
91	0xbd8e28f6	-0.069414064
92	0xbcc79730	-0.024364084
93	0x3c7bc905	0.015367751
94	0xbc2da38f	-0.010598077
95	0x3c3466b6	0.011010816
96	0xbd222c03	-0.039592754
97	0xbdac90eb	-0.084260784
98	0xbc0925a7	-0.008370793
99	0x3d2e1036	0.04249593
100	0x3d24a591	0.04019696
101	0x3c1d4681	0.009599329
102	0x3ce95a05	0.028485307
103	0xbd2f7e82	-0.042845257
104	0xbbb93581	-0.00565213
105	0xbd4f9a92	-0.05068452
106	0xbc938218	-0.01800637
107	0xbd31f579	-0.04344699
108	0xbd1dcce5	-0.03852548
109	0xbd4c865b	-0.04993282
110	0x3c88f9eb	0.016720733
111	0xbdbe27e4	-0.09284952
112	0xbd7e11be	-0.06202864
113	0xbd1ea035	-0.038727004
114	0xbdad7039	-0.084686704
115	0xbd9223e4	-0.07135752
116	0x3cfe2bf7	0.031026823
117	0xbdb6f246	-0.08932929
118	0x3d184360	0.03717363
119	0xbd93dd0c	-0.07219896
120	0x3c5f764c	0.013639044
121	0x3c0c3ab3	0.008558917
122	0xbd457528	-0.048207432
123	0xbc12e0ec	-0.008964758
124	0x3d23d4fe	0.039998047
125	0xbd6e4033	-0.058166694
126	0xbc6083f6	-0.013703337
127	0x3d439c45	0.047756452
128	0x399143e1	0.0002770713
129	0xbdb1996f	-0.08671843
130	0xbd86984f	-0.06572019
131	0xbdc58887	-0.09645181
132	0xbc0fa002	-0.008766176
133	0xbd2b7e1d	-0.041868318
134	0xbd75f2dc	-0.060046062
135	0xbcff51b2	-0.031166885
136	0x3ca22ff3	0.019798255
137	0x3b0d13c1	0.0021526667
138	0xbd16fcef	-0.03686231
139	0xbca843a3	-0.020540064
140	0xbda54648	-0.08070046
141	0xbdc197bc	-0.09452769
142	0xbdb69a8f	-0.089161985
143	0xbaea7f7b	-0.0017890775
144	0x3cb3d8e1	0.021954002
145	0xbcd6da86	-0.026227247
146	0xbd860697	-0.06544226
147	0xbd9558e3	-0.072923444
148	0xbd4b9abd	-0.049708117
149	0xbd27d12e	-0.040970974
150	0x3c0aad87	0.008464224
151	0x3d14b6c5	0.036307115
152	0xbcce4335	-0.025178531
153	0x3c70c441	0.014695228
154	0x3d40a35e	0.0470308
155	0xbd9b29a4	-0.07576302
156	0x3b00c72f	0.0019649973
157	0x3cdd322b	0.027001461
158	0xbdc4b4b3	-0.09604778
159	0xbd9de036	-0.077087805
160	0xbdc25745	-0.094893016
161	0xbc0aa9d2	-0.00846334
162	0x3c22485f	0.00990495
163	0xbd018796	-0.031623445
164	0xbd5dd1bd	-0.0541551
165	0xbd9cff20	-0.07665849
166	0xbdb56d7e	-0.088587746
167	0x3d3e5828	0.04647079
168	0xbd847a47	-0.06468635
169	0x3c380e43	0.011233869
170	0x3d3e6384	0.046481624
171	0xbd828336	-0.06372683
172	0x3d0f6a0a	0.035013236
173	0x3c672f95	0.0141104655
174	0x3d0f60bc	0.035004362
175	0x3c31b1cf	0.0108456155
176	0xbd11398d	-0.035455275
177	0xbd2604b6	-0.040531836
178	0xbd16819d	-0.036744703
179	0x3d0f4769	0.03498021
180	0x3cec572d	0.028850162
181	0xbd13896c	-0.036019728
182	0xbd89046a	-0.06690295
183	0xbd70cf7c	-0.058791623
184	0xbdb4ead8	-0.088338554
185	0xbd99d7cd	-0.07511864
186	0xbda9584a	-0.08268793
187	0xbd7c59a8	-0.06160894
188	0xbd9cf13f	-0.076632015
189	0xbd9088d1	-0.07057346
190	0xbd2777d8	-0.040885776
191	0x3b9ca3f8	0.004780289
192	0xbdac8ee0	-0.08425689
193	0xbc0695db	-0.008214439
194	0xbd83948d	-0.06424818
195	0xbc4ad427	-0.012379683
196	0x3d02770a	0.031851806
197	0xbd17d55b	-0.037068706
198	0xbc3b7c76	-0.011443248
199	0xbd339810	-0.04384619
200	0xbdd4b8b4	-0.10386792
201	0x3c675336	0.01411896
202	0xbc072540	-0.008248627
203	0xbd9ace55	-0.07558886
204	0xbdc118a7	-0.0942853
205	0xbb7bbc45	-0.0038411778
206	0xbd341416	-0.043964468
207	0xbd8c671f	-0.06855606
208	0xbdcc9d70	-0.09990966
209	0xbc0cb25e	-0.008587448
210	0xbd2c7627	-0.042104866
211	0xbcc67d8e	-0.024229791
212	0xbda960f3	-0.08270445
213	0xbd64bb71	-0.05584282
214	0xbd1e018e	-0.0385757
215	0xbc17f4a6	-0.009274637
216	0xbd04bc69	-0.032406244
217	0x3cfb4c56	0.030676048
218	0xb91473a0	-0.00014157454
219	0x3d000e87	0.031263854
220	0xbc452129	-0.012031832
221	0xbda3cddc	-0.07998249
222	0xbc0589b5	-0.008150508
223	0x3d124842	0.03571344
224	0xbd88a0b7	-0.06671279
225	0xbdc0c943	-0.094133876
226	0x3ce55a1f	0.027997075
227	0xbce75591	-0.028239043
228	0xbd8a5c3e	-0.06755875
229	0xbd36e67c	-0.0446534
230	0xbdb8f8c7	-0.090318255
231	0xbdcced96	-0.100062534
232	0xbd85cc83	-0.06533148
233	0xbd56834b	-0.052371304
234	0xbcb388ec	-0.021915875
235	0xbdbf917e	-0.09353922
236	0xbca0847c	-0.019594423
237	0xbc90e0bf	-0.017685292
238	0x3c64944b	0.013951371
239	0xbd8c994c	-0.068651766
240	0xbd92a122	-0.0715964
241	0xbda71f99	-0.08160324
242	0xbdca7102	-0.09884836
243	0xbdc35ad9	-0.09538812
244	0x3c6a316e	0.0142940115
245	0xbcad9187	-0.021187557
246	0xbd383084	-0.044968143
247	0xbc3fe4b2	-0.01171224
248	0x3cf98c5b	0.030462435
249	0x3ca6c1a1	0.020356001
250	0xbdcb455f	-0.09925341
251	0xbc8178da	-0.015804697
252	0x3d1648d1	0.036690537
253	0x3d1021b4	0.03518839
254	0xbd995cdf	-0.07488417
255	0x3cba85e2	0.022768918

rconvs.2.bias f4 [64]
0	0xbcee329d	-0.029076869
1	0x3cfaae5d	0.030600721
2	0xbd45e41b	-0.04831324
3	0xbd7baa5a	-0.061441757
4	0xbd1e1259	-0.038591716
5	0xbd77cb59	-0.06049666
6	0x3c1c0031	0.00952153
7	0xbcb2567b	-0.021769753
8	0xbb9fd195	-0.004877279
9	0xbd5e435f	-0.05426347
10	0xbd2fc89a	-0.042915918
11	0x3c3d16a0	0.011541039
12	0x3c30b604	0.010785583
13	0xbc1277c3	-0.008939686
14	0xbc06ba04	-0.0082230605
15	0xbd67c005	-0.05657961
16	0xbd84ae11	-0.06478513
17	0x3b08cd2a	0.002087424
18	0xbd472d45	-0.048627157
19	0xbcc583c5	-0.024110684
20	0x3cc38147	0.023865355
21	0x3c7ca7ae	0.015420837
22	0xbd0649da	-0.032785274
23	0xbd749a1e	-0.05971729
24	0xbd0933c8	-0.033496648
25	0xbb34638a	-0.002752515
26	0xbd7583cc	-0.059940144
27	0x3c91c4ea	0.017794091
28	0x3cf60101	0.030029776
29	0xbcbf565d	-0.02335661
30	0xbd4ffeec	-0.05078022
31	0x39f71953	0.0004713038
32	0x3d255a19	0.040369127
33	0x3b42c89f	0.002972163
34	0xbda1765a	-0.07883902
35	0xbd92f1c1	-0.07175017
36	0xbd20cc36	-0.03925725
37	0xbd028bac	-0.031871483
38	0xbd0b8111	-0.034058634
39	0xbbcc57ef	-0.0062360684
40	0x3c073c18	0.008254074
41	0xbd94b6c3	-0.072614215
42	0xbdad1cb1	-0.08452738
43	0x3d1b6882	0.037941463
44	0xbb849685	-0.0040462636
45	0xbd717dcb	-0.058957856
46	0xbd28af2c	-0.041182682
47	0x3de34fc8	0.110992014
48	0xbbde76b1	-0.0067890515
49	0xbd8e8fb7	-0.06961005
50	0x3d40de4b	0.047086995
51	0xbdb3f607	-0.0878716
52	0xbd98fd3a	-0.07470174
53	0x3ca90078	0.020630106
54	0x3ccc730c	0.024957202
55	0xbe0127ed	-0.12612887
56	0xbd2af884	-0.04174091
57	0x3c80a334	0.015702821
58	0x3c8b3deb	0.016997298
59	0x3d55fa72	0.052240796
60	0xbd70045d	-0.05859791
61	0x3ca5e94b	0.020252844
62	0x3d19d34d	0.037555028
63	0xbd894e92	-0.06704439

rconvs.3.weight f4 [64, 64, 3]
0	0x3d24895c	0.04017006
1	0x3d0955f9	0.033529256
2	0x3d0e20e0	0.03469932
3	0x3d42bb85	0.047542114
4	0xbd6039e4	-0.05474271
5	0xbd187e4c	-0.03722982
6	0x3c705d2a	0.01467065
7	0x3ca2ca86	0.019871961
8	0xbc796625	-0.015222107
9	0xbc1cf062	-0.009578796
10	0xbd06aaa6	-0.032877587
11	0xbd2df236	-0.04246732
12	0x3c5c98f2	0.013464199
13	0xbd7ac038	-0.06121847
14	0xb96a2bcf	-0.00022332299
15	0x3c786d57	0.015162787
16	0xbdbf4134	-0.093386084
17	0xbdace285	-0.08441643
18	0x3bc0f75a	0.0058888616
19	0xbd2b6ad3	-0.041849922
20	0xbc683dce	-0.014174892
21	0x3cf8c444	0.030367024
22	0xbd38ea4b	-0.045145314
23	0xbd354bbe	-0.044261687
24	0xbd804ebb	-0.06265017
25	0x3a1afead	0.00059125834
26	0xbd979276	-0.07400982
27	0xbc936ff7	-0.017997725
28	0xbd879a37	-0.06621211
29	0x3af97e91	0.0019034912
30	0xbd3600f8	-0.044434518
31	0x3c9d30c4	0.019188292
32	0x3b2bea71	0.0026232267
33	0xbc7bc61a	-0.015367055
34	0x3bbc0dec	0.0057389643
35	0xbd006c43	-0.031353246
36	0x3cd54086	0.026031744
37	0x3ca70979	0.02039026
38	0xbafea9bd	-0.0019429248
39	0xbdbb8472	-0.09156121
40	0x3d24270f	0.04007631
41	0xbdc0cfd5	-0.09414641
42	0x3d3219f3	0.04348178
43	0x3d141396	0.03615149
44	0x3d1b1371	0.037860338
45	0xbd0aef58	-0.033919662
46	0xbda3ecb3	-0.08004131
47	0xba9a52cf	-0.0011773946
48	0xbc93bb8d	-0.018033767
49	0xbd9a4aee	-0.07533823
50	0xbd98272e	-0.07429348
51	0xbdb1b5a9	-0.08677227
52	0xbcf929b9	-0.030415403
53	0xbcc0e379	-0.023545967
54	0x3d0a7237	0.03380033
55	0xbc3612c0	-0.011112869
56	0xbd22c1db	-0.039735656
57	0xbdb6adec	-0.08919892
58	0xbd6f0edf	-0.05836379
59	0xbb6dc20d	-0.0036278993
60	0x3b1f5b13	0.002431576
61	0xbcecea44	-0.0289203
62	0xbd828a5c	-0.06374046
63	0x3c17fbc4	0.009276334
64	0xbda3380b	-0.07969674
65	0xbda53c55	-0.08068148
66	0xbd5ce939	-0.053933356
67	0x3bfbd065	0.0076847547
68	0x3d2744f7	0.040837254
69	0xbd20cac1	-0.03925586
70	0xbd8dcf09	-0.069242544
71	0xbdc3a41d	-0.095527865
72	0x3d4142a1	0.047182683
73	0xbc94e8c7	-0.018177403
74	0x3ccd08d7	0.02502863
75	0xbd2fa60f	-0.042882975
76	0xbcb62bf5	-0.022237757
77	0x3c83c9c9	0.01608743
78	0x3d09586a	0.033531584
79	0xbbd66efc	-0.006543992
80	0xbd43b4f0	-0.047779977
81	0xbcf6cf8c	-0.030128263
82	0xbc73c9a6	-0.01487962
83	0x3b3ea1bd	0.0029088103
84	0x3c58ec3a	0.013239915
85	0x3d304fbf	0.0430448
86	0x3d09c903	0.033638965
87	0xbce773b1	-0.028253408
88	0xbd302d88	-0.043012172
89	0xbd4e666f	-0.050390657
90	0xbdaac817	-0.08338945
91	0xbce475a9	-0.027888136
92	0xbd5b6121	-0.053559426
93	0xbc880f09	-0.016608732
94	0x3c5afd6e	0.013366086
95	0x3bb257b5	0.0054425844
96	0xbd4fa118	-0.05069074
97	0x3b428772	0.0029682782
98	0x3cf619dc	0.030041628
99	0x3c564d6e	0.013079984
100	0xbd89fc5b	-0.06737586
101	0xbd107a39	-0.03527281
102	0x3c6d2ba7	0.01447574
103	0x3b0f1ca2	0.0021837135
104	0x3cdf7029	0.027275162
105	0xbd49cb3f	-0.049266096
106	0xbdaaf70d	-0.083479024
107	0x3cc78821	0.024356904
108	0xbc56be32	-0.0131068695
109	0xbdb934c3	-0.090432666
110	0x3b24285a	0.0025048465
111	0x3d118e74	0.035536245
112	0xbd2d075f	-0.042243358
113	0xbd2da1df	-0.0423907
114	0xbd4e1d7b	-0.050321084
115	0xbd0d155b	-0.034444194
116	0xbd46a0da	-0.048493244
117	0xbd19581b	-0.03743754
118	0x3c31d1c2	0.010853233
119	0x3cc67e5c	0.024230175
120	0xbdbf13a7	-0.0932992
121	0xbd5efc3a	-0.05443976
122	0xbc97f765	-0.018550584
123	0xbd014f09	-0.031569514
124	0xbcdd7713	-0.027034318
125	0x3b8fc672	0.00438767
126	0xbd2d15a7	-0.042256977
127	0x3cd02398	0.025407597
128	0xbdacfd72	-0.08446778
129	0xbdb62c2c	-0.08895144
130	0x3956911a	0.00020462685
131	0xbdc4bba5	-0.09606103
132	0x3cafdb05	0.021466741
133	0x3cc5320f	0.024071721
134	0xbd84a9e2	-0.06477715
135	0x3c601be5	0.013678526
136	0xbdb6e3bb	-0.08930155
137	0xbc04b871	-0.008100615
138	0xbd8ecd9f	-0.06972813
139	0xbc95dc41	-0.018293502
140	0xbd885019	-0.066559024
141	0xbdb5566c	-0.08854374
142	0xbc2bce82	-0.010486247
143	0xbd84e9fe	-0.06489943
144	0x3cfd5fa0	0.030929387
145	0xbda95669	-0.082684346
146	0xbdbdc75f	-0.09266543
147	0xbd93d43e	-0.07218216
148	0x3b912a09	0.00443006
149	0xbcdaf818	-0.026729628
150	0xbd784fd0	-0.06062299
151	0xbcd0290c	-0.025410198
152	0xbc8a3286	-0.016869795
153	0x3bf425d0	0.0074507967
154	0x3d135421	0.035968903
155	0xbb598785	-0.0033192348
156	0x3cb37a0e	0.021908786
157	0x3cedc2ae	0.029023495
158	0xbdba2ad0	-0.09090197
159	0x3c2c491a	0.010515476
160	0xbdb0772a	-0.08616479
161	0xbd1453db	-0.036212783
162	0x3c768a4f	0.015047624
163	0x3d3516aa	0.044211067
164	0x3cd71097	0.026253028
165	0xbd52454d	-0.05133562
166	0x3d1ea5ca	0.038732328
167	0xbd80794c	-0.062731355
168	0xbc2f5a8d	-0.010702741
169	0xbd6d6889	-0.05796102
170	0xbd813a91	-0.06309999
171	0x3c6a924d	0.014317107
172	0xbd44d1ce	-0.048051648
173	0xbd1b9b8f	-0.03799015
174	0xbd707cfd	-0.058712948
175	0xbd54c6a7	-0.051947262
176	0x3d2c6df8	0.042097062
177	0xbdae0e03	-0.08498766
178	0xbd4030d4	-0.046921566
179	0xbd569686	-0.052389644
180	0xbd474b49	-0.048655782
181	0x3cf669ff	0.03007984
182	0xbd94b700	-0.07261467
183	0xbcbdc7ca	-0.023166556
184	0x3d3726d2	0.044714756
185	0xbd83fe64	-0.064450055
186	0x3c6a2bad	0.01429264
187	0xbdb9ff66	-0.090819165
188	0xbbf56984	-0.007489385
189	0x3beedc69	0.0072894585
190	0x3c89cbff	0.016820906
191	0xbd26c3a3	-0.040713917
192	0x3c96166a	0.018321235
193	0xbd823add	-0.063588835
194	0xbdae2ded	-0.085048534
195	0xbd8ed694	-0.06974521
196	0xbc9499ba	-0.018139709
197	0x3c931ffc	0.017959587
198	0xbcf35410	-0.02970317
199	0x3d17c89e	0.037056558
200	0xbdc80e56	-0.09768359
201	0x3cf3ae68	0.02974625
202	0xbc0cc680	-0.008592248
203	0x3d132c3f	0.03593087
204	0x3b890b8f	0.004182286
205	0xbd8047ca	-0.06263693
206	0xbd490cec	-0.04908459
207	0xbc58b000	-0.013225555
208	0xbda931cf	-0.08261453
209	0xbd328d4a	-0.043591775
210	0xbd9f3172	-0.07773103
211	0xbdb96785	-0.09052948
212	0xbd2a5df6	-0.041593514
213	0xbd09681a	-0.033546545
214	0x3bdf9d75	0.0068241903
215	0xbd224f67	-0.039626505
216	0xbdb868e1	-0.09004379
217	0xbd88baa8	-0.06676227
218	0xbc3848c0	-0.011247814
219	0xbcf43b7c	-0.02981352
220	0x3d3deefd	0.046370495
221	0xbd89d536	-0.0673012
222	0x3c28a2df	0.010292738
223	0xbdafc914	-0.085832745
224	0xbdacf2ef	-0.084447734
225	0xbd9d75ba	-0.0768847
226	0xbd529419	-0.05141077
227	0xbc6ecd16	-0.0145752635
228	0x3d234b82	0.03986693
229	0x3ca660ad	0.02030977
230	0xbc771349	-0.0150802815
231	0xbd6bb908	-0.057549506
232	0x3c70fe46	0.014709061
233	0x3d3de135	0.046357352
234	0xbd1b1c36	-0.0378687
235	0xbda1228c	-0.078679174
236	0xbd083a70	-0.033258855
237	0xbdb5104d	-0.08841
238	0xbcc44e1a	-0.023963023
239	0x3cbdbacb	0.023160359
240	0xbc20e7ea	-0.009820918
241	0xbd0c3dbf	-0.034238573
242	0x3cedf84e	0.029049065
243	0xbc27c352	-0.010239439
244	0x3d5972a3	0.05308784
245	0xbdc3d099	-0.09561271
246	0x3bdb8c5e	0.0067000827
247	0xbab838e6	-0.0014055043
248	0xbce13a62	-0.02749366
249	0xbca6becf	-0.020354657
250	0x3d42866a	0.04749147
251	0xbd01e0b4	-0.031708434
252	0x3d042ae9	0.032267485
253	0xbd55ef20	-0.05223
254	0x3c2883e9	0.010285356
255	0x3cde79b4	0.027157642

rconvs.3.bias f4 [64]
0	0x3cc0c18e	0.023529794
1	0xbc2a0f15	-0.010379572
2	0xbdb15453	-0.08658662
3	0x3d048ac7	0.03235891
4	0xbda23150	-0.07919562
5	0xbdbbd90d	-0.091722585
6	0xbcf54639	-0.029940711
7	0xbc86cfb6	-0.016456466
8	0xbd08e88c	-0.0334249
9	0x3c1eb037	0.009685568
10	0xbd14b5d9	-0.036306236
11	0x3d4551ad	0.048173595
12	0xbc171e56	-0.009223541
13	0x3c894954	0.016758598
14	0xbd68bf4d	-0.056823064
15	0x3cdceaae	0.026967373
16	0x3cbde7ce	0.023181822
17	0xbd9eec36	-0.077598974
18	0xbd3d8e31	-0.046278182
19	0xbd237ea2	-0.03991569
20	0x3bd91958	0.0066253357
21	0xbdc4930b	-0.09598359
22	0xbd970c16	-0.07375352
23	0xbd5c4801	-0.053779606
24	0xbd7a0d52	-0.06104786
25	0x3c39c19f	0.011337667
26	0x3b4301ce	0.0029755714
27	0xbd3be8b8	-0.045876235
28	0x3cbf25a7	0.023333384
29	0xbd916d1d	-0.0710089
30	0xbccb1d7a	-0.024794329
31	0xbca22009	-0.019790666
32	0xbb3c1782	-0.0028700535
33	0x3cc6e945	0.024281153
34	0x3ce337cc	0.027736567
35	0x3c14dbb1	0.009085582
36	0xbd9f4281	-0.077763565
37	0xbc32a5a6	-0.0109037515
38	0xbcf6f42d	-0.030145729
39	0x3c92004d	0.017822409
40	0xbc31c345	-0.010849779
41	0xbda445ee	-0.080211505
42	0xbdbe9d61	-0.093073614
43	0xbd83244b	-0.06403407
44	0x3d0d9307	0.034564044
45	0xbd1befad	-0.03807037
46	0x3ca1e85a	0.019764114
47	0xbdbf843a	-0.09351392
48	0xbd3fa9e0	-0.046792865
49	0xbdb526f5	-0.08845321
50	0xbc4aed0e	-0.01238562
51	0xbd8ee63f	-0.0697751
52	0xbcbc864e	-0.02301326
53	0x3c031a9b	0.008001949
54	0xbd768c78	-0.060192555
55	0xbb917bdb	-0.0044398136
56	0xbd7f555a	-0.062337257
57	0x3caacdc1	0.020850064
58	0x3d17a567	0.037022974
59	0xbd710c0c	-0.05884938
60	0xbd84d72f	-0.064863555
61	0xbd107bf4	-0.03527446
62	0x3d2222a5	0.03958382
63	0x3baf7e2b	0.0053556166

rconvs.4.weight f4 [64, 64, 3]
0	0xbd7bf361	-0.0615114
1	0xbd021290	-0.031755984
2	0xbd2d67c8	-0.0423353
3	0x3d26e302	0.040743835
4	0xbd2cff69	-0.042235766
5	0xbdbdcfe8	-0.092681706
6	0xbd7a58c5	-0.061119813
7	0x3d1b6f6b	0.037948053
8	0x3b9bfd0b	0.0047603897
9	0x3d2d19f1	0.042261068
10	0xbdc0b4c3	-0.094094776
11	0xbdc59c2e	-0.096489295
12	0xbd98831e	-0.074468836
13	0x3d3c04aa	0.045902885
14	0xbd91dc96	-0.071221516
15	0x3cae0d7d	0.021246666
16	0xbc27a03a	-0.010231072
17	0xbd9bf5aa	-0.07615216
18	0x3ce19304	0.027535923
19	0x3cc5e21a	0.024155665
20	0x3c9b8a96	0.018986981
21	0xbd1e3123	-0.03862108
22	0xbcad981d	-0.021190697
23	0xbd8247be	-0.0636134
24	0xbd17fd23	-0.037106644
25	0x3ba40dff	0.0050065513
26	0xbca919b0	-0.020642132
27	0x3bdbe162	0.0067102173
28	0x3badc83f	0.005303412
29	0xbca93ad5	-0.020657936
30	0xbcce0a52	-0.025151405
31	0x3d0cc05d	0.03436314
32	0xbdccde13	-0.10003295
33	0xbd3f6a52	-0.046732254
34	0x3cc1ff03	0.02368117
35	0x3cea3a12	0.028592143
36	0xbd8266d6	-0.06367271
37	0x3c0b42a8	0.008499779
38	0xbc15a8ec	-0.009134512
39	0xbdacfce2	-0.08446671
40	0x3d20da11	0.039270464
41	0x3d2de309	0.042452846
42	0x3ce80caa	0.028326351
43	0x3d47b49d	0.04875623
44	0x39a89c49	0.000321599
45	0x3cdc9894	0.026928224
46	0xbdbb1f79	-0.09136862
47	0x3ca850f3	0.020546412
48	0x3c77c252	0.015122013
49	0xbd27c237	-0.040956702
50	0xbd52e97d	-0.051492203
51	0x3c041ab6	0.008063009
52	0x3cccf57c	0.0250194
53	0xbc77c589	-0.01512278
54	0xbd43001f	-0.047607537
55	0xbdbf5692	-0.09342684
56	0xbcf48249	-0.029847281
57	0xbd13a553	-0.036046337
58	0xbc48334d	-0.012219262
59	0x3d0ac16a	0.03387586
60	0xbda524fd	-0.080636956
61	0xbdaff52a	-0.08591683
62	0xbdc89a7a	-0.09795089
63	0xbd2da8ac	-0.042397186
64	0xbd559fdb	-0.052154403
65	0xbd1ff781	-0.039054397
66	0xbd0317cd	-0.03200512
67	0x3c4194b6	0.011815241
68	0xbd65f65c	-0.05614315
69	0x3bf3cb61	0.007440016
70	0xbdabd36a	-0.083899334
71	0xbd88f70b	-0.06687745
72	0xbd5d0eba	-0.053969122
73	0x3b7acca0	0.0038268939
74	0xbd3fdf74	-0.04684396
75	0x3cef2dae	0.029196586
76	0xbd84051f	-0.06446289
77	0x3d10a1e8	0.035310656
78	0xbd9fd012	-0.07803358
79	0xba29acf3	-0.000647261
80	0xbce0d33a	-0.02744447
81	0xbd488692	-0.04895646
82	0xbcca2d47	-0.024679793
83	0xbd107708	-0.035269767
84	0xbdb6d901	-0.08928109
85	0xbdc05aa2	-0.09392287
86	0x3ce4963f	0.027903674
87	0x3c03749f	0.00802341
88	0xbd90e0a4	-0.07074097
89	0xbdbae81c	-0.091263026
90	0x3c50d044	0.012744967
91	0xbda84c60	-0.082176924
92	0x3ccefe22	0.025267664
93	0x3d3cc99e	0.046090715
94	0x3d341be1	0.0439719
95	0x3caa999d	0.020825202
96	0xbd9423cd	-0.07233391
97	0xbd05816a	-0.032594122
98	0xbdb13416	-0.08652513
99	0x3c733b3c	0.014845666
100	0x3d174054	0.036926582
101	0xbcb75bfc	-0.022382729
102	0xbd682061	-0.056671504
103	0x3d34ecda	0.04417119
104	0xbced68c0	-0.028980613
105	0xbcb18111	-0.021667989
106	0xbbdf54fc	-0.006815551
107	0x3d2f36c7	0.04277685
108	0xbd619b02	-0.055079468
109	0xbd7c551b	-0.0616046
110	0x3a50895b	0.0007955038
111	0xbd965c22	-0.07341792
112	0x3c035efb	0.008018251
113	0xbd2af2bc	-0.041735396
114	0xbd9fe99d	-0.0780823
115	0x3c670776	0.0141009
116	0xbced5902	-0.028973106
117	0x3b83cb6b	0.004022052
118	0x3d38800a	0.045043983
119	0xbd3c8afb	-0.04603098
120	0x39f5647c	0.00046804908
121	0x3a1d0ac1	0.0005990677
122	0xbd8a8ef5	-0.06765548
123	0xbc147c15	-0.009062787
124	0x3cec8b94	0.02887515
125	0xbd6a5d5b	-0.057217937
126	0xbc7b407c	-0.0153351985
127	0xbda7659c	-0.08173677
128	0x3cc5660d	0.024096513
129	0x3d4d0149	0.050050054
130	0x3d42a0e2	0.04751671
131	0xbc8e2643	-0.017352229
132	0xbd4dbce9	-0.050228987
133	0xbd4dca5d	-0.050241817
134	0xbd6cfccf	-0.057858285
135	0xbd1ab99d	-0.03777467
136	0xbd609a67	-0.05483475
137	0xbd105441	-0.0352366
138	0x3cbcd203	0.02304936
139	0xbd7ba728	-0.06143871
140	0xbdd422cd	-0.103582
141	0x3b4d8440	0.0031359345
142	0xbd74b4b2	-0.059742637
143	0xbd07b8ed	-0.033135343
144	0xbdbede0d	-0.093196966
145	0xbda9f020	-0.08297753
146	0xbc12a1b2	-0.008949684
147	0xbd8e5034	-0.06948891
148	0x3cbf13e0	0.023324907
149	0x3d1e243c	0.038608775
150	0x3be2403f	0.0069046314
151	0x3d6ebe0a	0.058286704
152	0x3b8c36fd	0.004279016
153	0xbb20f637	-0.0024560818
154	0x3c849862	0.016185943
155	0x3d17d202	0.037065513
156	0xbc1d5262	-0.009602161
157	0xbd85d030	-0.06533849
158	0x3cc8e619	0.024523782
159	0xbc38f687	-0.011289245
160	0x3ce12bbf	0.02748668
161	0xbc934914	-0.017979182
162	0xbb850a47	-0.004060063
163	0x3cf7fa11	0.030270608
164	0x3cb7fd58	0.02245967
165	0xbdb5873e	-0.08863686
166	0xbd8b4d29	-0.068018265
167	0xbd9432b8	-0.07236236
168	0xbc908039	-0.017639266
169	0x3d3134c9	0.04326323
170	0x3d187ee1	0.037230376
171	0xbd5e4715	-0.054267008
172	0xbcb2ff62	-0.021850292
173	0xbd1d77bf	-0.038444277
174	0xbb7241a8	-0.0036965404
175	0x3d3aa070	0.04556316
176	0xbd7b5bd8	-0.061366886
177	0xbc941674	-0.018077113
178	0x3bc467b1	0.0059938063
179	0x3d11dbdf	0.035610076
180	0xbb49a452	-0.0030768109
181	0x3d129f08	0.035796195
182	0xbcd8ce90	-0.026465684
183	0xbd9734c2	-0.0738311
184	0xbd813657	-0.06309193
185	0xbcbf57e2	-0.023357335
186	0x3bcbe31f	0.0062221433
187	0x3d2688ae	0.04065769
188	0x3bd84a53	0.006600657
189	0x3d467f56	0.04846128
190	0x3cda875a	0.026675869
191	0x39e6783f	0.0004395861
192	0xbd6731c8	-0.05644396
193	0xbd9d4c26	-0.0768054
194	0x3cab48a3	0.02090866
195	0xbd9d3c51	-0.0767752
196	0xbd6ff0e6	-0.058579348
197	0xbc824c76	-0.0159056
198	0xbd947088	-0.07248026
199	0x3c954985	0.018223533
200	0x3c413121	0.011791498
201	0xbd264187	-0.040589835
202	0xbd59cf3d	-0.053176153
203	0x3c93467a	0.017977942
204	0xbc3b774e	-0.011442019
205	0xbd5e7ee0	-0.054320216
206	0x3d1e18ac	0.038597748
207	0x3d263a70	0.040583074
208	0x3c9a3dfc	0.018828385
209	0x3bc2cf60	0.005945131
210	0xbc179d7d	-0.009253857
211	0xbd8dcc4f	-0.069237344
212	0x382b4809	4.0836665e-05
213	0x3b00ef0b	0.001967373
214	0xbd66ed36	-0.056378566
215	0xbc73deba	-0.014884645
216	0xbcdb4fc1	-0.026771428
217	0xbdaadd7d	-0.08343027
218	0x3d23bcd3	0.039975
219	0xbd0409c5	-0.03223588
220	0xbc49ced3	-0.012317377
221	0xbd66154f	-0.056172665
222	0xbdc7c84b	-0.09755
223	0x3cf66ade	0.030080255
224	0xbdc24a37	-0.094868116
225	0xbcb2aac4	-0.021809943
226	0xbc58d03a	-0.013233239
227	0xbd791d47	-0.060818937
228	0xbd2abe56	-0.041685425
229	0xbd844a00	-0.06459427
230	0xbdb072bf	-0.08615636
231	0xbda2f832	-0.07957496
232	0x3d1240aa	0.0357062
233	0xbc99404d	-0.018707419
234	0xbc921aae	-0.017834987
235	0xbd36475d	-0.04450165
236	0x3c27390b	0.010206471
237	0xbdce1faa	-0.10064633
238	0x3c8a1c28	0.01685913
239	0xbd74d7df	-0.059776183
240	0x3ca6e732	0.020373914
241	0xbdbced0a	-0.09224899
242	0xbc72ba61	-0.014814944
243	0xbccbc7b1	-0.024875494
244	0xbdbe3f22	-0.092893854
245	0xbcb54b53	-0.022130644
246	0xbd814f24	-0.06313923
247	0xbc6d2ae7	-0.014475561
248	0xbd46cebe	-0.04853701
249	0xbd7851bb	-0.06062482
250	0xbd401013	-0.04689033
251	0xbdbfd07a	-0.093659356
252	0x3b2e25c4	0.0026572803
253	0xbd4c469b	-0.049872022
254	0x3d0e9f15	0.03481968
255	0xbd69cfd3	-0.057082962
